checkpoint_actor.pth (torch_old, 86840 bytes, 18 tensors)

fc1.weight f4 [128, 24]
000000 ed 88 23 be fa 8f 4c 3d e7 3b 17 3d 25 32 23 bd
       -0.15970202 0.049941994 0.03692236 -0.039842743
000010 d1 6a ab 3d 2a 9b 46 bf e0 61 c1 bc e1 29 d1 3c
       0.08369983 -0.7758051 -0.02360624 0.025532665
000020 08 63 f6 bd 1e 88 dc 3c d4 03 4b 3d 33 52 c1 3d
       -0.120306075 0.026920374 0.049564198 0.094395064
000030 52 00 0e be 7f a2 e9 be 2f aa a0 bd 4e 87 2c b8
       -0.1386731 -0.45631787 -0.0784496 -4.1134008e-05
000040 f3 8d 63 be c4 ee bc bc 4d e8 df 3c 42 e4 a1 be
       -0.22222118 -0.023063071 0.02733245 -0.3161946
000050 f8 df 6a be cd 63 47 be 46 9e 70 bd c3 5c b3 be
       -0.22937 -0.19471665 -0.05874469 -0.3503171
000060 c5 48 ff 3d 29 68 e2 3e fc 4c ae bc 1f 86 36 3e
       0.124650516 0.44220093 -0.021276943 0.178246
000070 75 32 3a 3e 15 97 58 bd 01 c0 df bc 82 3e 2a 3e
       0.1818331 -0.052878458 -0.027313234 0.16625407
000080 00 34 c8 3d 02 f6 bf 3e 0d 95 53 bd dc ce b2 3d
       0.09775543 0.37492377 -0.051655818 0.087308615
000090 af db 9e 3d 13 b7 a4 be e6 92 5e 3d 2f 4f 5f 3d
       0.07756745 -0.32170925 0.054339312 0.054518875
0000a0 3d b8 58 3e 1f ee 10 3f 47 d6 2c bb 14 2b 3a bd
       0.21164031 0.56613344 -0.0026372836 -0.04545124
0000b0 61 72 25 3e 79 ca 26 bf c9 f6 87 3c f5 95 90 bc
       0.16156913 -0.651527 0.016597169 -0.01764963
0000c0 63 d2 0a 3f 24 16 33 be 50 c5 7e bd ef 5d 84 3e
       0.54227275 -0.17488915 -0.06219989 0.25852916
0000d0 f5 f7 a6 be 92 f4 09 be db 9e df bd c4 6c 6b 3e
       -0.3261105 -0.13472202 -0.10918971 0.2299071
0000e0 d9 4b a8 3e b6 86 59 be 98 8c 2a be d4 d3 c9 bb
       0.32870367 -0.21242794 -0.16655195 -0.006159285
0000f0 92 eb f0 bd 99 7c 38 bd 43 c8 e5 bd a1 6b 8f 3c
       -0.117636815 -0.0450407 -0.112198375 0.017507376
000100 b9 3a 5f 3c 1e bb 60 be dc 7b 3b 3d 12 e7 b5 3c
       0.01362484 -0.2194638 0.04577242 0.02220491
000110 b3 6b f4 bd f2 e1 2c be 39 14 3d 3c 1e f5 12 bd
       -0.119346045 -0.16883066 0.011540466 -0.035878293
000120 3d cf 65 3e 36 36 8d be ef 81 b0 bb 1a 5c 66 bd
       0.22442336 -0.27580422 -0.005386583 -0.05624018
000130 3b ff 3e be ee e6 e9 bb 5e ff c8 3b 28 d4 cc 3c
       -0.1865205 -0.0071381247 0.0061339578 0.025003508
000140 e5 aa a6 3e 40 96 94 be 3a 1e b6 3d 34 b4 00 be
       0.32552257 -0.29020882 0.08892484 -0.12568742
000150 a3 67 90 be e9 13 7d 3d 14 3f 64 bd 29 36 66 bd
       -0.2820407 0.061786566 -0.05572422 -0.056203995
000160 3d 12 02 3f 02 e6 ee be a3 f8 44 bd 63 17 f4 bd
       0.5080908 -0.46659857 -0.04808868 -0.11918523
000170 e4 c7 07 bf b4 70 a7 3e 78 a1 a6 3d 04 24 bd bd
       -0.53039384 0.32703173 0.081362665 -0.09235385
000180 9b d3 92 bd b5 b9 91 bd 16 36 90 bc d2 9e 21 bd
       -0.07169267 -0.07115499 -0.017603915 -0.039458103
000190 70 29 ef 3c 6b 6b 2e 3d 1e 90 13 3d 08 b6 15 bd
       0.029194564 0.04258291 0.036026113 -0.03655055
0001a0 9d cd 9e bb 3d e3 40 bd 25 67 ac bd 38 f8 c1 3c
       -0.0048462884 -0.04709171 -0.08418111 0.02367793
0001b0 0d 6d b8 3c 8f 10 e0 bc da 31 b0 3c 34 f0 a9 bd
       0.022512937 -0.027351646 0.021508146 -0.08297768
0001c0 68 6f 99 bd c3 14 a5 bd 85 04 b5 bd 07 d8 1b bd
       -0.07491952 -0.080606006 -0.08838753 -0.038047817
0001d0 49 ad 80 bd 6d 4b 74 3d c8 5f 56 3d e5 66 1c 3b
       -0.062830515 0.059642244 0.052337438 0.002386504
0001e0 35 3c bc be cb a2 5c 3e 98 1c 5e 3c 2a ce 99 3e
       -0.36764684 0.21546476 0.013556622 0.30040103
0001f0 3b a6 fa 3e 49 80 97 be 58 51 9d 3c b0 26 9a 3e
       0.4895495 -0.2959006 0.019203827 0.3010764
000200 34 8d 83 be 05 7e 2c 3e 85 55 06 3c 04 44 06 3e
       -0.25693667 0.16844948 0.0081991 0.13111883
000210 26 d0 d1 3d 7e 9c eb bd 24 a5 ab bd f2 4f 14 3e
       0.10244779 -0.11504458 -0.083811074 0.14483622
000220 bc a2 d7 be 55 b5 a2 3e a6 7b 89 bd 01 80 00 3b
       -0.42116344 0.3177897 -0.06713037 0.0019607546
000230 2a b6 8c be 0e 11 7b 3d de 64 73 bd 23 eb c8 3c
       -0.2748273 0.06129556 -0.059422366 0.024526184
000240 89 ee 5d bd 82 2f 90 be 24 c7 3a 3c 93 80 24 be
       -0.054182563 -0.28161246 0.011400018 -0.16064672
000250 7a 15 df 3b 79 29 3e 3c 95 65 ad bc 86 3e 53 be
       0.00680798 0.011606568 -0.021166602 -0.2062932
000260 63 2c 5a 3b e9 c6 9b be 8c 5f 98 bc 54 88 10 3e
       0.0033290617 -0.30425194 -0.018600248 0.14114505
000270 b6 29 b3 3e 7c d8 32 bc 47 8b 08 bd 9b 85 88 3e
       0.3499276 -0.010915872 -0.03333595 0.26664433
000280 8d 2d 2c 3d 74 7a 2d bf 8b 42 2c bc a3 be 2b 3d
       0.042035628 -0.67764974 -0.010513912 0.041929852
000290 1a 57 9a 3f 41 58 20 3e e0 49 a3 bd ef 04 c1 3d
       1.2057831 0.15658666 -0.07973075 0.09424769
0002a0 64 69 d6 3d 87 44 2b 3f 77 35 36 bd e4 88 4b 3e
       0.104693204 0.6690144 -0.04448458 0.19876438
0002b0 67 45 95 be 07 36 c1 3d 84 17 9e 3d 0b fb 8b 3e
       -0.29154512 0.09434133 0.07719329 0.27339968
0002c0 2f 48 61 3e e6 3d 40 3f 60 4f b6 bd 71 06 c6 bd
       0.22000192 0.7509445 -0.08901858 -0.09669197
0002d0 57 31 8c be d1 61 96 bc ed 63 f8 3c 30 52 ca bd
       -0.27381393 -0.01835719 0.030321086 -0.09878957
0002e0 d0 60 ae 3e db 5f 73 3f 24 97 07 bd 2c 28 ea 3d
       0.34058237 0.9506814 -0.033103123 0.114334434
0002f0 d0 5b db bc d7 0a 91 be fe 86 99 3c 81 b5 7b 3e
       -0.026777178 -0.28328583 0.018741127 0.24580957
000300 5a 43 d5 3e c0 6b dd 3e be 6e 14 3d 03 00 4c bd
       0.41652948 0.4324627 0.036238424 -0.0498047
000310 65 73 ac 3e b3 06 1e 3e dd 25 3f bd 6b 4e 07 bd
       0.3368179 0.15432243 -0.04666697 -0.03303377
000320 95 7a ab 3e 2b a7 0d 3f 96 a3 20 3d af 58 21 bc
       0.3349196 0.55333203 0.039218508 -0.009847804
000330 71 57 8e 3d 1e 63 23 be c9 28 1a 3b 7e 50 c5 bd
       0.06950272 -0.15955779 0.0023522845 -0.09634493
000340 11 66 b1 3e c9 d6 1b 3f 85 d9 79 3c 25 ae 90 bd
       0.34648183 0.6087461 0.015249615 -0.070644654
000350 a3 b6 8b bd 21 cc 8e be dd 99 e5 3d 9f 8b 06 be
       -0.068219446 -0.27890113 0.11210988 -0.13139199
000360 30 c6 1a 3e ac 32 22 be 7b e5 31 bd b9 58 49 bc
       0.15114665 -0.15839642 -0.04343174 -0.01228922
000370 cd 2b e1 3e e1 e9 e5 3e a1 69 95 bc 17 e3 14 3d
       0.4397873 0.44904998 -0.018238844 0.036349382
000380 5f 13 2d bd 23 69 62 be cd d4 5e bd 4d 8e a9 3d
       -0.0422548 -0.22110419 -0.05440216 0.08279095
000390 9b 5c 3c 3f 98 43 1d 3e c9 a8 a5 3c c5 35 1f 3d
       0.73578805 0.15357816 0.020222085 0.038869638
0003a0 37 6d 4a be 66 14 cb be 00 44 e6 bc 86 65 2f 3e
       -0.19768225 -0.39664 -0.028108597 0.17128572
0003b0 df f2 34 3f 01 6d fe bc 99 6a 5d 3c cf b6 ad 3d
       0.7068309 -0.031057836 0.013514184 0.084821336
0003c0 92 dc 51 3e 07 16 ef bd a0 95 7f 3d 51 b6 ab 3d
       0.20494297 -0.11674123 0.062398553 0.083843835
0003d0 e0 72 21 be 33 63 84 bf 50 b2 ac bd cc e2 87 bc
       -0.15766478 -1.0342773 -0.08432448 -0.016587637
0003e0 af 99 89 3d 82 8f b7 be 2c 4f bd 3a fb c6 d7 3b
       0.06718766 -0.35851675 0.0014443151 0.0065849996
0003f0 8b 82 0a 3b b1 08 c3 bd 9e 1f 81 bc 98 02 1f 3e
       0.0021134939 -0.09523142 -0.015762147 0.15528333

fc1.bias f4 [128]
000000 4f da ea 3d 12 63 c5 3d 01 ea 77 ba 6b b7 f7 bd
       0.1146742 0.09638037 -0.00094571715 -0.12095531
000010 a0 01 fd 3b 27 ba fb 3d 7b a2 a7 3d c1 f7 47 bd
       0.007721141 0.12291365 0.081852876 -0.04882026
000020 7c 02 35 3e 2e 54 43 bd fb d6 42 3d d8 5e d3 3c
       0.17676729 -0.047687702 0.047568303 0.025802061
000030 2b d4 f9 3d 13 07 47 3e 6e 91 46 be 4c 7c f4 bd
       0.12198671 0.19436292 -0.19391415 -0.1193777
000040 5c 5e 9c 3b 44 f1 0e 3e cb ec 02 be e9 df cd 3b
       0.0047719907 0.13959223 -0.12785642 0.0062827957
000050 d9 bb 8f bd b9 fd 48 be c8 7c c8 bd c4 08 36 be
       -0.07018251 -0.19628038 -0.09789425 -0.17776781
000060 6e 59 01 be 40 58 24 be 7c 45 ac bb cc 88 f2 bc
       -0.12631771 -0.1604929 -0.0052573066 -0.029606245
000070 a6 7e 02 3e 37 cf 70 bd 9e 10 d9 3d 54 81 28 3e
       0.12743625 -0.058791365 0.105988726 0.16455585
000080 cf 4d fa bd 73 fb 09 3e 5e 19 42 be da f8 88 bc
       -0.12221872 0.13474827 -0.1895499 -0.016720224
000090 ab 9c a8 ba 3b 52 b8 bd c8 bd cf bc 03 04 a9 3d
       -0.0012864074 -0.09000059 -0.02535905 0.08252718
0000a0 f5 09 9f bd 78 9c 5e 3d 43 b6 44 be a4 29 27 bd
       -0.07765571 0.05434844 -0.19210152 -0.040811196
0000b0 1b b4 0a 3e 12 5e f5 3d c3 9e f2 3b e4 ad 5a bc
       0.13545267 0.11980833 0.00740418 -0.013347123
0000c0 58 92 4b 3e 56 34 24 3e 03 d9 09 3e e6 27 97 bd
       0.19880044 0.1603559 0.1346169 -0.07380657
0000d0 f3 64 aa bd c3 5e 2b 3e fe 8b 33 be 77 f1 b0 3d
       -0.08320036 0.16735367 -0.17533872 0.08639806
0000e0 b5 38 0c 3e 3c 29 b6 3a 58 14 f7 3d be da 42 bd
       0.13693507 0.0013897787 0.12064427 -0.04757189
0000f0 9b 60 0b 3e 29 45 5a bc 32 66 b4 bd 1b de b1 3d
       0.13611071 -0.013322153 -0.08808555 0.086849414
000100 2e cd 85 3d 4d 3c 88 3d 13 17 28 bd 5f d1 b0 3d
       0.065332755 0.066521265 -0.04103763 0.08633684
000110 a2 e7 fc 3d 12 1e 91 bd d5 f1 a0 3d e9 a4 2a 3e
       0.12348868 -0.070858136 0.07858626 0.1666447
000120 f0 e7 ba bd 33 c9 0c 3e ed c1 5a bd b1 3c 2a 3e
       -0.0912627 0.13748626 -0.0534076 0.16624714
000130 b6 fb a0 bd df 09 49 3d a6 44 c7 bc c2 c8 7b 3d
       -0.0786051 0.04908168 -0.024324726 0.061470754
000140 3b 23 2a 3e 8b 7d 95 3d dd 4c 54 3d 51 4a fb 3d
       0.16615002 0.07299336 0.051831115 0.12270034
000150 7c 8d 0e bd 36 b6 7a bd d2 1c 9c bd 9e ba 34 3d
       -0.0348029 -0.061208926 -0.076226845 0.044123285
000160 4b 54 d8 3d 72 98 f6 bd 3c b7 fd bd 5b c7 fa 3d
       0.105629526 -0.120407954 -0.12388465 0.12245055
000170 7a b6 f3 3d 7a 40 28 3d 94 7e 05 be 4a e6 a0 bd
       0.11900039 0.041077115 -0.13036567 -0.07856424
000180 5b d1 78 bd ee b1 15 3d 7d a3 fd 3b e5 6f 19 3e
       -0.060746532 0.03654664 0.0077404366 0.1498409
000190 b9 e9 0b 3c 78 72 02 be f9 45 c1 3b d0 d8 ee bc
       0.008539611 -0.12738979 0.005898234 -0.029156119
0001a0 9b 02 ad 3d dc aa 12 3e af 7d 89 3d 9e 19 a8 bd
       0.084477626 0.1432299 0.06713425 -0.08208011
0001b0 9a b0 42 be 57 ae 8c bd df be bb 3d fe ba 49 bc
       -0.1901268 -0.0686919 0.09167265 -0.012312649
0001c0 55 ae 16 be 30 3a 19 bd 07 27 10 be 02 45 2b 3d
       -0.1471494 -0.037409008 -0.14077388 0.041813858
0001d0 f8 e4 df 3d 92 16 42 be c1 0d 10 be b1 5b 4a 3b
       0.10932344 -0.18953922 -0.14067747 0.0030877406
0001e0 97 26 21 3e 02 b1 0e bd cd eb 4e 3c 46 de 34 3e
       0.15737377 -0.034836777 0.0126294615 0.17662916
0001f0 91 43 d6 3c bd 6c f9 3d 8b ac f9 bd 8d 11 2c 3c
       0.026155265 0.12178943 -0.12191113 0.010502231

fc2.weight f4 [128, 128]
000000 af dc 88 3d 9e 08 70 3e 58 9a f0 3e 2a 1d 82 3e
       0.06682717 0.23440787 0.46992755 0.25412875
000010 a0 0e 14 3c a9 66 ae 3c 97 87 9c be 29 b1 1f 3f
       0.00903669 0.021289187 -0.30572197 0.623797
000020 5a 29 a6 bd eb 5a 03 be 8b 2b df 3d e5 e5 28 3e
       -0.08113356 -0.12827651 0.10896977 0.16493948
000030 18 d2 4b 3e 44 b9 bc be 7e 5b d0 bd b2 44 80 3e
       0.19904363 -0.36860096 -0.10173701 0.2505241
000040 1e b4 1b be b3 c9 2a be 6b dc ee 3e a1 7f 80 bc
       -0.15205428 -0.16678505 0.4665254 -0.015685858
000050 3c 11 b4 be 11 0c 81 bc 07 34 4a bb 05 ed 60 bc
       -0.351694 -0.015752824 -0.0030853765 -0.013728385
000060 a4 18 24 be 01 6b c7 3e 1e 88 5f be 8c a5 04 be
       -0.16025025 0.38948825 -0.21829268 -0.12953776
000070 37 b9 1e bc 99 45 89 3c 94 b5 3a bd a5 2a 89 bd
       -0.009687713 0.01675682 -0.045583323 -0.06697587
000080 61 b7 b3 3b 36 70 8d 3d 45 63 06 be 0f 89 6a 3e
       0.005484507 0.06906168 -0.13123806 0.22903846
000090 8e d6 46 be 04 3c 72 3d f4 26 8f bc d7 b8 7c be
       -0.19417784 0.059139267 -0.017474629 -0.24679886
0000a0 dd 38 d7 3e 48 a2 f8 bc 01 75 88 3b 60 79 94 3e
       0.4203557 -0.03035082 0.0041643386 0.28998852
0000b0 e5 dd dd 3b 9f c8 57 be f2 22 f1 be 37 8f ac bd
       0.0067708367 -0.21072625 -0.47096974 -0.084257536
0000c0 a6 d5 47 3e 58 ab 83 3e 52 17 30 bd 10 9a 0c be
       0.19515094 0.25716662 -0.04299099 -0.13730645
0000d0 88 50 2b be 83 06 b7 3e 43 a2 d3 3c 8c 83 20 3e
       -0.16729939 0.35747156 0.025834208 0.15675181
0000e0 c5 25 f9 3c 3f 51 d7 bd 9c 56 ff 3c d5 4f 26 be
       0.030413518 -0.10513543 0.031169228 -0.16241391
0000f0 c5 b4 94 bd eb 18 7a 3e 27 cf 8c 3e 59 73 a8 bd
       -0.072610416 0.24423568 0.27501795 -0.08225126
000100 f7 89 96 bd 36 c0 85 bd 83 6a 3f 3e e8 a8 93 be
       -0.073505335 -0.06530802 0.18692975 -0.28839803
000110 73 49 69 3d 25 fc 93 3d 78 50 1d be a1 dd e2 3d
       0.056954812 0.07225827 -0.15362728 0.110774286
000120 ea 3f 8e be cd f6 73 be 85 84 2f 3d ad ac fa bc
       -0.27783138 -0.23824616 0.04285099 -0.030599916
000130 8f 2a e4 bc 96 9b 93 bd 84 31 d3 bd e9 3b 84 bd
       -0.027852325 -0.0720741 -0.10312179 -0.064567395
000140 89 6b ee 3e 78 19 f6 3b 4a bc 85 be e8 7d ea bc
       0.46566418 0.0075103603 -0.26120216 -0.02862449
000150 9a 35 00 be 17 5c 9d be b9 02 c6 3d 08 4f 91 3d
       -0.12520447 -0.3073432 0.09668488 0.07095152
000160 28 30 1d bd b7 31 59 3c 19 dc 27 bd eb bd 8a be
       -0.038376004 0.013256482 -0.040981386 -0.2709802
000170 e4 fb e3 3d c2 1e c8 3d 4e b8 27 be 79 9f 53 3e
       0.11132029 0.097714916 -0.163789 0.20666303
000180 ac dd 8f 3c b4 7a 18 3e 97 12 02 3e 93 d6 39 be
       0.017561756 0.14890558 0.12702404 -0.1814826
000190 2a 8d 07 be 93 7f 1e bf 46 0b e0 bd d6 c6 55 3e
       -0.13237444 -0.6191341 -0.1093965 0.20876631
0001a0 77 21 82 be 1e 23 37 bd 24 42 bf 3e aa 6c 00 be
       -0.25416157 -0.044711225 0.3735515 -0.12541452
0001b0 fd 59 5c be 93 fc db be be e2 2e 3e d3 e2 ef be
       -0.21518703 -0.42966136 0.17078683 -0.4685274
0001c0 39 20 18 3e 52 8d 38 be 35 23 29 be ff 5b 94 be
       0.14856042 -0.1802266 -0.16517337 -0.28976437
0001d0 c9 11 7e 3d ec 46 bf 3e 81 70 b9 3c aa 9d bf bd
       0.06202868 0.37358797 0.022636654 -0.09356244
0001e0 6e 05 7f be b8 75 c5 be 7b 6a e5 bd 71 aa a1 3c
       -0.24904415 -0.38566375 -0.1120195 0.019734593
0001f0 cc 45 80 3e da 55 d0 bd 78 17 9b bc 8b dd a8 3d
       0.2505325 -0.10172625 -0.01893209 0.08245381
000200 d3 e2 a7 be 9e f2 3e 3e 41 ed 27 3f b6 c9 98 3b
       -0.3279024 0.18647239 0.65596396 0.0046627177
000210 47 15 78 3b 0e 0c ce bd ef e8 31 bd 2e 4b a8 be
       0.003785448 -0.10060893 -0.043435033 -0.32869858
000220 b5 9d 39 be 32 64 45 bd 9a 54 48 3e 8f 89 2b 3e
       -0.18126567 -0.048191257 0.19563523 0.16751693
000230 2c 98 86 3c 3c 5c 78 bd 32 6c 12 ba ef 26 fe 3b
       0.016429983 -0.060634837 -0.00055855804 0.007756106
000240 0b cd cc 3d 6f 24 f1 3d 4e 9b 60 3c 7c a8 48 3e
       0.10000046 0.11774527 0.0137089025 0.19595522
000250 11 57 fb 3d 4d b4 e8 bd f0 d4 ae bc 20 3c ae 3e
       0.12272466 -0.11362515 -0.02134177 0.34030247
000260 99 f4 b1 bd 8c f6 1c be 14 f6 4a be 95 9b b0 3d
       -0.086892314 -0.15328425 -0.19820434 0.08623425
000270 48 b1 04 3d 8a 09 c4 bd 35 98 71 3e dc 6e 51 3e
       0.03239563 -0.09572132 0.23593219 0.20452446
000280 2c f2 95 be 46 fd fc be d8 46 3a be 06 d0 53 3e
       -0.29286325 -0.49411982 -0.18191087 0.20684823
000290 b9 88 fa bc b5 72 8f 3e 84 62 83 3e 52 3f 24 be
       -0.030582773 0.28017202 0.256611 -0.1603978
0002a0 ab 87 0a 3f 7a 0f 81 3d de ec 93 3e 66 3f 06 3e
       0.5411326 0.0630178 0.28891653 0.13110122
0002b0 af 8b 7b 3d 7d 56 98 3d ab fe 79 be b1 f8 5e bd
       0.06141251 0.07438371 -0.24413554 -0.05443639
0002c0 52 73 e6 bd 76 df 97 bc 18 18 91 3e b3 03 a0 3e
       -0.11252464 -0.018539172 0.28338695 0.31252822
0002d0 af 6b ca 3d 2b 08 c4 be ff 91 2e bd f6 49 84 3d
       0.0988382 -0.38287482 -0.0426197 0.064594194
0002e0 af 0f 10 be 37 cb 09 be d9 0d 7a 3c c1 63 7a bc
       -0.14068483 -0.13456427 0.015262091 -0.015282572
0002f0 84 95 cc be 48 9a 0c 3d 5d 80 14 3e d4 36 be bd
       -0.3995782 0.03432682 0.14502092 -0.092878014
000300 9c f2 73 3e 0d a0 95 be 5b ab 43 3e 54 09 60 3d
       0.23823017 -0.29223672 0.19108336 0.054696396
000310 d7 a4 d6 3e f4 81 9f bc 5d 98 77 3e 1d 07 0c 3d
       0.41922638 -0.019471146 0.24179216 0.03418647
000320 65 44 86 3e 57 54 3d 3c 11 f7 9e 3d 36 ce 90 3e
       0.26224056 0.011555753 0.07761968 0.28282326
000330 1b b1 3a be 8b 32 d8 bd 06 47 6e 3d 40 d5 cf bb
       -0.18231623 -0.10556515 0.058173202 -0.00634256
000340 f4 54 7a 3d 9f 80 ee 3b 8c 65 94 3c cc b8 98 bc
       0.061116174 0.0072785164 0.018114828 -0.018642806
000350 1a 28 d1 3e fe e5 1e be 9b f8 c6 bd 9a eb 01 bd
       0.40850908 -0.15517423 -0.097153865 -0.031718828
000360 88 c8 b7 3d 2e a1 1c 3e f5 60 17 be 52 bb f9 3e
       0.08973795 0.1529586 -0.1478308 0.48775727
000370 13 c7 8a 3c 7e 73 f9 bc 37 d1 4d be 56 3c 88 be
       0.01694063 -0.030450579 -0.2009934 -0.26608533
000380 ae 19 19 bc bc 47 f2 bd 1d b2 23 3e cd d1 41 be
       -0.009344501 -0.118300885 0.15985914 -0.18927689
000390 39 b5 d2 3e 56 8e aa 3d fe a7 f5 3c 4c 19 a1 bd
       0.41153887 0.0832793 0.029987331 -0.07866153
0003a0 6d a7 eb bd 18 1d 97 bd 38 b9 0c be 16 62 0a 3e
       -0.11506543 -0.07378596 -0.1374253 0.1351398
0003b0 c1 5b 0a bd 36 db 2a be 50 11 bc 3c 76 80 69 3d
       -0.03377891 -0.16685185 0.022957474 0.057007276
0003c0 a3 eb f8 3e 3f 50 76 3d 7f 38 e9 bc d2 a8 3a 3d
       0.48617277 0.060135122 -0.028469322 0.045571156
0003d0 61 35 dc be bd a4 0e 3e 0a 15 92 bd fe 99 b1 3e
       -0.43009475 0.1393003 -0.07132919 0.346878
0003e0 75 7c 50 bc ac d8 dc b9 ef 9e 5e 3e f7 bf a2 3d
       -0.012724985 -0.00042123103 0.21740316 0.07946771
0003f0 67 71 83 3d 0a 01 5c 3d 06 31 54 bd 66 1d 8f bc
       0.06418114 0.05371193 -0.051804565 -0.017470073

fc2.bias f4 [128]
000000 a3 95 6f bd 46 84 a4 3d 83 7c 26 bd 67 af a8 3c
       -0.058492314 0.08033042 -0.040646087 0.02059145
000010 bc 9b 67 3c d8 98 2b bc 9f ed 26 3d 71 9d af bd
       0.014136251 -0.0104734525 0.040753957 -0.085749514
000020 27 eb 2d 3d cd 4c 9c bc 15 d5 04 bd 04 87 65 bd
       0.042460587 -0.01907959 -0.032429773 -0.056036964
000030 04 0a a2 3d a6 01 3a 3c a9 26 62 bd 7f cc d0 bc
       0.079120666 0.011352932 -0.05521265 -0.025488136
000040 4c 14 ff 3b aa 15 2d bd 98 53 b9 3a f4 bc 98 3d
       0.007784402 -0.04225699 0.0014139293 0.07457915
000050 6a cb 82 3d 34 29 b2 3d 69 2f e8 3b b2 fa 6f bd
       0.063864544 0.08699265 0.00708573 -0.05858869
000060 88 df 18 bd 36 75 27 3d 9b f4 a1 bd fb 90 2f 3c
       -0.03732255 0.040883265 -0.07907983 0.010715718
000070 0a 7d f8 bc 42 83 b4 bd f0 5e a7 bd c7 a6 83 bd
       -0.03033306 -0.08814098 -0.08172405 -0.06428295
000080 27 c9 5a bd 29 2d 88 3d 8b 2c 9f 3d cd 92 ba bc
       -0.05341449 0.066492386 0.07772168 -0.022775078
000090 c1 d6 08 3c 74 7c 89 bd c9 fe 0e bc 69 fe 87 3d
       0.008351983 -0.06713191 -0.008727738 0.06640322
0000a0 3e 1f b3 bd 91 17 4f bd d0 14 9b bc 66 c3 ae 3d
       -0.08746193 -0.050559584 -0.018930823 0.08533363
0000b0 f8 ae a0 3b 57 0b d0 bc df bb a7 3d a6 4f 5c 3d
       0.0049036704 -0.025396032 0.081901304 0.053786896
0000c0 c6 d0 5e bd bc 1d 8f bb c7 4e 95 3d 90 a7 48 bd
       -0.05439832 -0.0043675583 0.07290416 -0.048987925
0000d0 f3 61 1c 3c 21 df e4 3c b5 d0 1e bd b9 d6 62 3d
       0.009544837 0.027938427 -0.038773257 0.055380557
0000e0 12 e9 86 bd 66 d8 55 3d 13 99 62 bd 38 ac 07 3d
       -0.065874234 0.052208327 -0.055321764 0.033123225
0000f0 56 5c ae bd 82 76 23 3d 45 11 4a 3c fd 47 86 bc
       -0.085137054 0.03990794 0.012333219 -0.016391749
000100 08 6a 1d bd 16 99 ad bd 8c 66 6a bd eb 12 a5 bd
       -0.038431197 -0.084764645 -0.057226703 -0.08060249
000110 78 84 a1 3d ba e8 86 3d 6d 22 8f 3d 63 2c 11 3d
       0.078865945 0.06587358 0.06988988 0.03544272
000120 3b 4a c6 bc e4 80 a6 bd 6b 1d c6 bc 92 01 9f bc
       -0.024205318 -0.08130053 -0.02418395 -0.019409928
000130 ac 63 10 3c b2 4c a3 3d 83 cd 8a 3d 4d 64 3f 3c
       0.008812826 0.07973613 0.067774795 0.011681628
000140 40 e8 b2 3c 13 ed aa bd 5e 4b ae bd 99 0b 71 bd
       0.021839261 -0.083459996 -0.08510469 -0.05884895
000150 75 9f 9e 3b 48 72 4c bc 65 0c 2d bc 31 3a f5 bc
       0.004840786 -0.012478419 -0.010562037 -0.029934974
000160 e4 9e a5 bd 0b de 8c 3d 0d af 10 3b e0 5d 3a bd
       -0.080869466 0.06878289 0.0022076995 -0.045499682
000170 1e 91 bc 3c 91 a6 40 bd 71 ed 73 3d 44 86 28 3c
       0.023018416 -0.04703385 0.059552614 0.010285918
000180 0a 89 60 3d fb ac 5e 3d 32 15 98 bd 2a d9 6d bd
       0.05481819 0.054364186 -0.07425918 -0.058068432
000190 24 a3 ec 3c 1c 05 0e 3d bc a5 27 bd 90 2a 18 3c
       0.028886385 0.03467284 -0.04092954 0.009287491
0001a0 ea f0 e7 3c 83 0d 17 bd 2e 0d 90 3d b7 10 ae bd
       0.028313119 -0.03687812 0.07033764 -0.08499282
0001b0 45 f8 b1 3d 71 63 b4 bd 93 61 96 bd 3d b4 9f bd
       0.08689932 -0.088080294 -0.073428296 -0.077980496
0001c0 80 eb 84 3c 61 99 5f bd c7 4f 22 bd df 78 1e bd
       0.016225576 -0.054589633 -0.039626863 -0.03868949
0001d0 3e 55 a3 3d 2b fd 6c 3d d4 36 b3 bc 12 c9 a5 bd
       0.07975243 0.057858627 -0.02187673 -0.08094992
0001e0 d7 ce 2b 3d bd e2 0e 3b c3 69 6e 3d 00 8c 8a bd
       0.041945305 0.0021802627 0.05820633 -0.06764984
0001f0 da 1c f7 bc 05 8a 9e 3d 3b 49 4f 3d 8c ee b1 3d
       -0.030165125 0.07741169 0.050606947 0.08688077

fc3.weight f4 [2, 128]
000000 2f 1d 07 3e 16 bf d8 3c d5 b5 47 3f 25 1a 0c 3f
       0.13194726 0.026458304 0.7801183 0.54727393
000010 42 09 88 3e a5 6c 52 be 1a 37 34 3f a6 d2 52 be
       0.26569563 -0.20549257 0.7039658 -0.20588169
000020 89 2e 1d bf ba fd e2 3e 90 dd cd 3e f1 ee f1 be
       -0.6139913 0.44334203 0.402081 -0.4725261
000030 a7 0c 96 bd 24 ff cc bf 90 f6 a4 3e e8 91 e0 3e
       -0.07326632 -1.6015363 0.32219362 0.43861318
000040 25 59 98 be ba a9 10 3e 70 fc 4f 3c d3 41 06 3f
       -0.29755512 0.14127246 0.012694463 0.5244419
000050 eb fb 77 bf 09 1f 04 bf 1c bb cb 3e 43 8c 33 3d
       -0.9686877 -0.51609856 0.3979119 0.043834936
000060 2e 57 1d 3f a8 5a da 3d 9b 41 f8 3e c9 7e 23 3f
       0.6146115 0.106618226 0.48487553 0.63865334
000070 5c 9e 9a bf d7 a9 d5 bd a7 d7 1c be 57 31 ca 3e
       -1.2079577 -0.10432785 -0.1531664 0.39490768
000080 54 f0 17 3e e4 e9 31 bf e5 4e dc 3e 6a e4 af 3f
       0.14837772 -0.69497514 0.43028942 1.3741581
000090 b3 66 64 be 9a f8 ac be 2e e5 8c be 63 37 11 bf
       -0.22304802 -0.33783418 -0.275186 -0.5672514
0000a0 3c 12 92 be 2a ba 88 bf ee de cd be 0b 7a ac 3d
       -0.28529537 -1.0681813 -0.40209144 0.08421715
0000b0 4b 4a 04 3e 71 89 0d 3f 88 9f 87 3f d3 6f 8b 3e
       0.12918966 0.55287844 1.059556 0.27233753
0000c0 00 52 63 3e 51 4e f4 bc 07 59 82 bf 2d 73 f9 3f
       0.2219925 -0.0298225 -1.0183419 1.9488274
0000d0 20 b4 90 3e 68 dd 0f bf ce 05 83 bd cf 26 2e bf
       0.28262424 -0.56197214 -0.063975915 -0.6802797
0000e0 58 7c db bd 65 ff 09 bf d0 8d b5 3d d3 ce 3f bf
       -0.10717076 -0.53905326 0.08864939 -0.74924964
0000f0 be a1 23 be f6 ff 83 3e 08 fe ed bc 4e 12 2a be
       -0.15979668 0.2578122 -0.029051796 -0.16608545
000100 29 72 6f be 68 eb b3 3e b2 2b 46 bc 2d a9 7f 3e
       -0.23383392 0.35140538 -0.012095379 0.24966879
000110 df 01 d4 3e 19 52 39 bd 5c eb f6 3e d5 bd cb bf
       0.41407678 -0.04524431 0.4822644 -1.5917307
000120 e2 48 85 3f a7 90 be 3e 5e 2e 2d bf 7e 80 37 3f
       1.0412867 0.37219736 -0.67648876 0.7168044
000130 f1 b0 53 3f 91 59 fe bd 26 42 b2 bf d2 c7 b8 3e
       0.82691866 -0.12419427 -1.3926437 0.3608995
000140 e9 8d 38 bf f6 22 9b be 72 9a 94 3e bd 2d 1e bf
       -0.7209154 -0.3030011 0.29024082 -0.6178854
000150 4a ab d0 3d 25 e4 42 3e 39 e2 1e 3e cf 2e 09 3f
       0.10188921 0.19032343 0.15515985 0.5358705
000160 a9 d2 a6 3f 4d fe dc bf 48 d1 16 bf 5b eb d9 be
       1.3033038 -1.7265106 -0.5891309 -0.42562374
000170 14 c8 3a be e7 c7 3c 3f c9 9a 66 be 02 63 a0 3f
       -0.18240386 0.73742527 -0.22519983 1.2530215
000180 58 12 da bf d7 86 ae be 11 bc 81 bf 26 80 f0 3d
       -1.7036848 -0.3408725 -1.0135518 0.117431924
000190 84 08 88 bd bb 18 57 bf 85 0d 3f 3f 9a 93 06 bd
       -0.06642249 -0.8402211 0.74630004 -0.032855608
0001a0 1a 28 1c 3f 8c fd 05 3f 94 40 9f bf 1c 22 fb bd
       0.6099869 0.52340007 -1.2441583 -0.12262365
0001b0 15 32 4b 3e 76 08 f0 be b3 7f 59 3f 1b 0b 85 bf
       0.19843324 -0.46881455 0.8496048 -1.0394014
0001c0 24 cb e2 be 8f e6 a3 be 11 6e 81 bf 48 2a 91 3f
       -0.4429561 -0.3201184 -1.0111715 1.1341028
0001d0 f3 98 19 3f d9 23 56 3e 65 73 01 3f d6 36 a5 3d
       0.59999007 0.20912112 0.50566703 0.080671
0001e0 a6 a9 71 3f 4d 55 6a 3e 83 99 27 be dd ca c0 3e
       0.9439949 0.22884102 -0.16367154 0.37654772
0001f0 30 9d 54 3f 0e c4 29 3f 64 42 0f 3f f8 17 e5 be
       0.8305235 0.6631478 0.5596068 -0.4474485
000200 22 0c 43 3e 35 0b a3 be c7 c3 cc 3d 6e 7d 46 be
       0.19047597 -0.31844488 0.09998279 -0.19383785
000210 27 4e f5 3e 34 82 a2 3f c4 59 8f bc fd cd c0 be
       0.47911188 1.2695985 -0.017498858 -0.37657157
000220 b6 ca 77 3e 63 e1 d7 bd ec 71 a4 3e c7 61 cf 3d
       0.24198422 -0.10541036 0.32118165 0.101260714
000230 5c e3 8b bf ad 53 a9 3d 38 ba bd be 28 17 16 3e
       -1.092876 0.08267913 -0.37056136 0.14657271
000240 26 22 a5 be 84 81 30 3e 1d ff a7 3e 89 8a 0c 3e
       -0.32252616 0.17236906 0.32811823 0.13724722
000250 56 44 3a 3c 59 92 11 3d a7 d9 6b be 4d 5b 60 be
       0.011368832 0.03553996 -0.23032247 -0.21909828
000260 9b f2 3f bb 8d 86 37 bf 7f 39 e5 3d 64 2b cc 3e
       -0.0029288891 -0.71689683 0.11192607 0.39876854
000270 e2 08 24 be e5 a3 ec be 3d 6f b5 bf 33 5f 16 3e
       -0.16019014 -0.46218792 -1.4174572 0.14684753
000280 c1 4f 3f c0 ca 46 34 bd 4a 6e 8c bd 7f d3 40 bd
       -2.9892428 -0.044012822 -0.068569735 -0.0470767
000290 5a 05 a0 bf 67 02 8c be 72 5b 82 3d 33 cd f4 3e
       -1.2501633 -0.27345583 0.06365098 0.47812805
0002a0 f2 76 93 be ca 5b 4e bd 02 2b 99 be d1 14 28 bf
       -0.28801686 -0.050380506 -0.29915625 -0.65656763
0002b0 cd 16 17 3f d7 5d 3b 3c 81 cd cf be bd 23 47 3c
       0.59019166 0.011435947 -0.40586475 0.012154517
0002c0 2c 71 37 3e b8 36 49 3f 97 85 14 3e 9b 30 f9 bd
       0.17914265 0.7859912 0.14504085 -0.12167474
0002d0 bd d0 31 3f 86 93 03 be 35 30 6b bf 1d b1 13 bf
       0.69459134 -0.12849244 -0.91870433 -0.5769213
0002e0 85 95 d6 3e 80 d6 96 3d 49 f6 79 bf 41 77 e2 3d
       0.4191095 0.073651314 -0.97641426 0.11057902
0002f0 f7 b2 28 bf 18 37 bb bd 7e 9f 88 bf 1b 3c c0 3e
       -0.6589808 -0.09141368 -1.0673673 0.37545857
000300 e8 7b 76 be a4 89 2c bd fc 79 a8 bf 09 da 30 3e
       -0.24070704 -0.04212345 -1.3162227 0.17270674
000310 00 7e 04 be 06 61 18 3f 92 ab 5c 3e 94 3b 77 bc
       -0.1293869 0.59523046 0.21549824 -0.015089888
000320 f0 62 9b 3e bf 24 6b 3a c4 ab 35 bd 0b 54 6d bc
       0.3034892 0.0008970014 -0.04435326 -0.014485369
000330 01 4f d1 bb 5a e2 28 c0 8c 7a 3b 3d 64 56 5b bf
       -0.006387592 -2.6388154 0.045771167 -0.85678697
000340 d7 c8 72 3c 78 79 9f 3f f6 56 09 3f ef 4d ca be
       0.014818392 1.2458944 0.53648317 -0.39512584
000350 b9 05 c7 be 43 68 98 3f 53 a2 ff 3e 12 d6 62 be
       -0.38871554 1.1906818 0.4992853 -0.22151974
000360 a8 2b c2 3e 64 92 c8 bd 0d a1 77 3e 8d e9 29 3f
       0.37923932 -0.09793547 0.2418253 0.66371995
000370 3f db 4c bf d4 d6 91 be a2 02 06 c0 16 3c 76 3b
       -0.80022043 -0.28484213 -2.0939107 0.0037572435
000380 bc e8 83 3d e7 9f 0a 3f cd 15 31 3f 14 43 42 3f
       0.06440875 0.5415024 0.6917389 0.75883603
000390 b5 08 2d 3f 3e 23 4c be 48 dc 35 3e 1f 89 c6 3e
       0.6759141 -0.19935319 0.17759812 0.3877649
0003a0 7b a3 c9 3f 2f 46 aa bd 47 67 d2 be ee 96 81 3e
       1.5753015 -0.08314168 -0.4109442 0.25310463
0003b0 8f c3 81 be 00 f0 79 bf fb 38 d6 bc a2 29 82 3f
       -0.25344512 -0.97631836 -0.026150217 1.0168955
0003c0 6a e0 0b 3e f3 a2 b5 3e 2e a7 af bc ec ed 0d 3e
       0.13659826 0.35475883 -0.021442022 0.13860291
0003d0 77 74 0d 3f 98 0a 6d 3e 37 eb ec bd a1 98 d2 3d
       0.55255836 0.23148572 -0.11568301 0.10283018
0003e0 39 80 aa bd 34 19 ed 3d 00 a8 38 bf a8 07 c5 3e
       -0.08325238 0.11577073 -0.7213135 0.38482404
0003f0 5a 7d f7 bc 35 e4 08 be 18 8e 70 3c 59 c2 66 bf
       -0.03021114 -0.13368304 0.014682315 -0.901403

fc3.bias f4 [2]
000000 ac 30 51 bd 34 32 4c 3e
       -0.051071808 0.19941026

bn0.weight f4 [24]
000000 4e d4 ac 3e bf 5a 19 3f 6a 6d a3 3e 04 06 8b 3e
       0.33755726 0.5990409 0.31919414 0.27153027
000010 b0 64 ab 3d b1 ae 45 3f fd 77 03 3f 32 fc 0a 3f
       0.08368814 0.7721968 0.5135496 0.5429107
000020 3c 52 a8 3e c8 5d b6 3e 7e c1 9a 3e 97 e6 6f 3f
       0.3287524 0.35618424 0.30225748 0.9371123
000030 71 92 1a 3f 3b d9 1c 3f 20 dc a8 3d d8 b5 f0 3d
       0.603797 0.6126897 0.082451105 0.11753434
000040 b0 ee f4 3e 15 c2 5e 3f 70 7c 5a 3e 00 e6 4c 3f
       0.47838354 0.87014896 0.21336532 0.8003845
000050 3c 00 a5 3e a6 26 88 3e 80 d0 65 3c 77 cb 74 3f
       0.3222674 0.26591986 0.014026761 0.9562296

bn0.bias f4 [24]
000000 00 00 00 00 00 00 00 00 00 00 00 00 00 00 00 00
       0.0 0.0 0.0 0.0
000010 00 00 00 00 00 00 00 00 00 00 00 00 00 00 00 00
       0.0 0.0 0.0 0.0
000020 00 00 00 00 00 00 00 00 00 00 00 00 00 00 00 00
       0.0 0.0 0.0 0.0
000030 00 00 00 00 00 00 00 00 00 00 00 00 00 00 00 00
       0.0 0.0 0.0 0.0
000040 00 00 00 00 00 00 00 00 00 00 00 00 00 00 00 00
       0.0 0.0 0.0 0.0
000050 00 00 00 00 00 00 00 00 00 00 00 00 00 00 00 00
       0.0 0.0 0.0 0.0

bn0.running_mean f4 [24]
000000 5a c8 c9 c0 07 f3 6a bf 8f df 3e 40 fd 0a da bd
       -6.305707 -0.9177708 2.982395 -0.10646627
000010 00 00 00 00 86 bd 31 40 8f df 3e 40 fd 0a da bd
       0.0 2.7771926 2.982395 -0.10646627
000020 37 04 cf c0 96 7f 76 bf 93 fb 3d 40 94 04 f5 bd
       -6.4692645 -0.9628843 2.9684799 -0.11963764
000030 00 00 00 00 75 e1 2e 40 93 fb 3d 40 94 04 f5 bd
       0.0 2.7325108 2.9684799 -0.11963764
000040 30 23 d4 c0 bf 67 81 bf 1f 45 4d 40 61 d4 19 be
       -6.6292953 -1.0109786 3.2073438 -0.15022422
000050 00 00 00 00 8f e4 2a 40 1f 45 4d 40 61 d4 19 be
       0.0 2.6702 3.2073438 -0.15022422

bn0.running_var f4 [24]
000000 ec b8 55 41 57 fa 8b 3f e9 ec 5c 43 8a 61 fb 40
       13.357647 1.0935773 220.92543 7.8556566
000010 f2 c7 09 42 f3 44 80 40 e9 ec 5c 43 8a 61 fb 40
       34.44526 4.0084167 220.92543 7.8556566
000020 8f c7 47 41 38 7a 8b 3f 3d 9c 67 43 6d d0 00 41
       12.48622 1.0896673 231.6103 8.050885
000030 d7 ce 10 42 49 ca 87 40 3d 9c 67 43 6d d0 00 41
       36.201992 4.243443 231.6103 8.050885
000040 25 8a 38 41 8d 07 8a 3f 73 b6 64 43 66 be 05 41
       11.533727 1.0783554 228.71269 8.358984
000050 61 b8 18 42 4a 7b 95 40 73 b6 64 43 66 be 05 41
       38.180058 4.6713 228.71269 8.358984

bn1.weight f4 [128]
000000 61 b7 02 3f a7 64 39 3f bb 4e 3d 3e f8 76 2e 3f
       0.51061064 0.7241921 0.18487065 0.6815028
000010 6a a8 43 3a be 8f cb 3e 0a 43 22 3f 3f 67 74 3e
       0.00074637553 0.39758104 0.63383543 0.2386751
000020 e5 45 cf 3e 77 de b0 3e 1f 40 19 3f 52 5b d9 3e
       0.40483013 0.34544727 0.59863466 0.42452484
000030 4b 11 2e 3f 97 6f e2 3e 37 e4 21 3f f1 03 9f 3e
       0.67995137 0.4422576 0.63238853 0.31057695
000040 7d 53 96 3e 05 a8 33 3e 1d 91 d5 3e 06 5e 85 3e
       0.29360572 0.17544563 0.41712275 0.26048297
000050 46 16 c3 3e aa 42 3f 3f 11 33 d2 3e c7 e6 e2 3e
       0.3810293 0.74711096 0.41054586 0.44316694
000060 81 2a 69 3f b2 77 25 3f 65 8d 15 3f a2 38 1e 3f
       0.9108048 0.64635766 0.58418876 0.61805165
000070 d1 33 84 3e 09 53 c3 3e 26 34 21 3f 79 3a f7 3e
       0.25820783 0.38149288 0.629702 0.482868
000080 fa ae 93 3e 72 cf 50 3e e7 a1 09 3f 0b 50 0f 3f
       0.28844434 0.20391634 0.5376267 0.5598151
000090 55 62 af 3e 03 9e 20 3f 36 b9 f0 3e cd 91 bf 3e
       0.3425471 0.62741107 0.47016305 0.37415925
0000a0 56 7c 3c 3f 89 80 9f 3e 87 fa 1e 3f 8d 10 12 3f
       0.7362722 0.31152752 0.62101024 0.57056504
0000b0 8f 67 a8 3e 63 56 5e 3e 03 2b d4 3e fb 67 6d 3e
       0.3289151 0.21712641 0.41439065 0.23184197
0000c0 5d 2c a5 3e 3d 11 a9 3e 8b b7 0d 3f aa 0c 9f 3e
       0.3226041 0.33020964 0.5535819 0.3106435
0000d0 37 d6 bb 3e be b4 87 3e 1e 84 09 3f cc 81 8b 3e
       0.3668687 0.26505083 0.5371722 0.27247465
0000e0 24 1e dd 3e d2 32 97 3e 1d 9f cf 3e 92 08 e8 3e
       0.43187058 0.2953096 0.4055108 0.4531904
0000f0 fc 87 f4 3e 19 86 87 3e fc 40 ee 3e ee 49 04 3f
       0.47759998 0.26469496 0.46533954 0.5167531
000100 bb 9a f3 3e 4b 41 ca 3e ff ce a0 3e ce 6f 10 3f
       0.47578987 0.3950294 0.31407925 0.564206
000110 f4 3a 5b 3f e0 28 42 bb 89 54 78 3e 45 42 9d 3e
       0.8563683 -0.0029626414 0.24250998 0.30714622
000120 c1 12 ea 3e 34 8b 14 3f dc aa 92 3e 04 26 d9 3e
       0.45717433 0.5802491 0.2864598 0.42411816
000130 9f 80 33 3f 65 a1 79 3e 6b 69 ac 3e cd d8 9f 3e
       0.70118135 0.24377973 0.33674178 0.31220093
000140 11 69 b7 3e 16 38 b8 3e dc 7a ab 3e 83 13 65 3e
       0.35822347 0.3598029 0.33492172 0.22370724
000150 ad 64 70 3e c1 c8 ac 3e 98 82 2b 3f cc 39 a6 3e
       0.23475905 0.33746913 0.66996145 0.3246597
000160 09 4f 7e 3e 11 26 c1 3e f0 d7 4e 3f e6 3b 13 3f
       0.24834837 0.37724355 0.80798244 0.5751327
000170 87 c3 df 3e 20 3f 3d 3f 4d 31 8c 3e 00 bb 11 3f
       0.43703863 0.73924446 0.27381364 0.56925964
000180 b5 76 ff 3e ea a6 a0 3e 3a 6d 4b 3f f4 95 09 3f
       0.49895254 0.31377345 0.7946354 0.53744435
000190 d6 38 18 3f b4 06 70 3f 86 68 56 3f f1 63 14 3f
       0.59461725 0.9376023 0.8375324 0.57965
0001a0 95 36 ce 3e d3 e6 02 3c fe 8b 80 3e 84 8f 2e 3f
       0.40276018 0.007989603 0.25106806 0.6818774
0001b0 ab 59 20 3f bb df b8 3e e2 58 1b 3f dd e4 ac 3e
       0.6263682 0.36108193 0.606825 0.3376836
0001c0 0d f7 69 3e 5e db 3c 3f 14 b4 cb 3e 1b 54 1b 3f
       0.22848149 0.7377223 0.39785826 0.6067521
0001d0 9a ff 74 3e 22 50 39 3e 26 97 e9 3e d4 0d 85 3e
       0.2392563 0.18096974 0.4562313 0.25987113
0001e0 ee bf de 3e a8 55 1c 3f d3 a0 06 3f 99 43 4c ba
       0.43505806 0.610682 0.5258915 -0.0007792055
0001f0 6c 59 8b 3e fa 08 f2 3e 87 2d 32 3f fb 8c 00 3f
       0.2721666 0.47272474 0.6960072 0.5021512

bn1.bias f4 [128]
000000 b1 26 4c be 18 48 91 be fc 1b 79 be 63 8d 0a bf
       -0.19936635 -0.28375316 -0.24327081 -0.5412199
000010 bb 60 c5 bb 1a 25 05 be 7d 78 39 bf 1e 92 9a bd
       -0.006023494 -0.13002434 -0.72449476 -0.07547401
000020 31 96 b0 be 8a 69 cd be 55 6f 0a bf b9 ac 8a be
       -0.34489587 -0.40119582 -0.5407613 -0.27084902
000030 29 14 d6 be e4 f2 73 be f7 0d 53 be ab 5a 6c 3d
       -0.41812256 -0.23823124 -0.20610796 0.057703655
000040 81 fa 97 be 32 b3 40 be 54 7f 60 be 9c f1 f9 bd
       -0.29683307 -0.18818358 -0.21923572 -0.122042865
000050 3c 25 43 bc 65 9f ae be df e5 1f be 4d ca f9 3c
       -0.011910733 -0.34105983 -0.15615033 0.030491972
000060 d9 0d 25 be ac 38 c2 bd b5 d5 dd be c3 4f 24 bf
       -0.16118564 -0.094834656 -0.43327108 -0.64184207
000070 14 1e cb be eb e7 43 be c4 95 b0 be 09 33 47 be
       -0.39671385 -0.19131438 -0.34489262 -0.19453062
000080 d0 04 8c be ad a6 39 3d 0e 84 e0 be c7 5b 9e be
       -0.27347422 0.04532497 -0.4385075 -0.30929396
000090 09 57 d4 be aa e2 03 be 60 80 0a 3d 35 7a e3 be
       -0.41472653 -0.12879434 0.033813834 -0.44429174
0000a0 ba b6 6f be de 7d 29 be dd fe c5 bd 41 a4 8a be
       -0.23409548 -0.16551921 -0.09667752 -0.2707844
0000b0 cc 1d 8a bd 48 84 8a be 0c 93 41 be c0 37 fe bd
       -0.067439646 -0.27054048 -0.1890375 -0.12412977
0000c0 a4 c3 6f be 05 72 1e 3e 25 27 fd be 60 77 d4 be
       -0.23414475 0.15473182 -0.49443927 -0.41497326
0000d0 99 8c c2 be 37 5f 3c be 18 ed 9a be 65 b3 75 be
       -0.37997892 -0.18395697 -0.30259013 -0.23994215
0000e0 47 07 29 be d7 37 a7 bd 65 df 14 bf fd ec 08 bf
       -0.16506682 -0.081649475 -0.58153373 -0.53486615
0000f0 61 56 39 be 3c fa 11 bf e1 e0 83 be 17 99 48 be
       -0.18099357 -0.5702245 -0.25757506 -0.19589649
000100 3f 01 a3 be 66 75 87 be 82 3f e7 be 82 a9 e4 be
       -0.31836888 -0.26456755 -0.4516564 -0.44660574
000110 f3 5f 82 3e e4 a5 e6 bc 18 1c 92 be 57 6b b7 be
       0.25463828 -0.028155275 -0.2853706 -0.3582408
000120 22 21 cb be 17 40 47 be 1d 97 80 bd 1f ed 84 be
       -0.39673716 -0.19458042 -0.062788226 -0.2596216
000130 73 84 ae be 68 fc 25 be a4 7e 92 be 47 60 9a be
       -0.34085426 -0.16209567 -0.28612244 -0.3015158
000140 82 a4 af be 88 f7 80 be 6f eb a1 bd 5e e3 27 be
       -0.34305197 -0.2518885 -0.079062335 -0.16395327
000150 59 58 15 be 11 d1 11 3d 2c 55 ac be 28 2f 0c be
       -0.14584483 0.035599772 -0.3365873 -0.13689864
000160 7c 5a 4e 3c 9e d4 64 be 5b 5c e4 bc 06 c1 11 3d
       0.012594815 -0.22346732 -0.02787607 0.035584472
000170 be f7 bd be b0 f8 86 3b bb 3c 74 be 11 18 93 be
       -0.37103075 0.0041190013 -0.23851292 -0.287293
000180 98 ce a5 be aa 92 17 bf 42 b4 e1 be 11 42 87 be
       -0.3238418 -0.59208167 -0.44082838 -0.26417592
000190 55 b7 15 bf 4a f0 36 be f7 6d c4 bd b2 bb 09 be
       -0.5848287 -0.178651 -0.09591287 -0.13450506
0001a0 61 ef bf be 37 5b 63 bd c5 2a cd 3d bd b2 d6 be
       -0.3748732 -0.05550691 0.10017923 -0.4193324
0001b0 75 fa 87 be 77 a9 e2 bd 6d 9e 41 be 27 21 9b be
       -0.2655827 -0.11067479 -0.18908091 -0.3029873
0001c0 fe c3 12 be d3 0f d9 be ad 41 db be f0 81 a3 be
       -0.14332578 -0.42394885 -0.42823544 -0.31935072
0001d0 94 60 56 be 0a e8 29 be ee 64 b2 be 52 d7 bd be
       -0.20935279 -0.16592422 -0.34842628 -0.3707834
0001e0 4d 74 d7 be 2d 73 75 be 9d 38 ad be 19 82 86 bc
       -0.42080918 -0.23969717 -0.33832255 -0.016419457
0001f0 ad f2 cf be 02 bc a7 be ba 90 40 be be 4f 45 be
       -0.40614834 -0.32760626 -0.18805209 -0.192687

bn1.running_mean f4 [128]
000000 26 de 1a bf f7 c2 de c0 30 80 e6 c0 b2 ea 96 c0
       -0.6049522 -6.9612994 -7.203148 -4.7161493
000010 a5 09 94 3f 98 bc 93 40 b0 40 a7 3f e1 60 ef c0
       1.1565443 4.6167717 1.3066616 -7.480576
000020 ff d9 08 c1 25 4e 22 40 f0 79 99 c0 40 0e ae c0
       -8.553222 2.5360196 -4.796135 -5.4392395
000030 0a c9 e5 c0 b0 50 4e 41 29 3f a5 3e a3 1b c9 c0
       -7.180791 12.894699 0.3227475 -6.2846236
000040 fa a8 32 c0 47 c4 6e 40 45 e4 82 40 4f a8 73 40
       -2.7915635 3.7307298 4.090365 3.8071477
000050 ee 42 e6 c0 3a 60 e9 be a3 d3 4a bf 01 8c 90 bf
       -7.19567 -0.45581228 -0.7922918 -1.1292726
000060 27 22 8d 3e e6 80 4b c0 3a 45 c8 bf eb 42 f8 bf
       0.2756512 -3.1797423 -1.5646126 -1.9395422
000070 bf b9 97 40 95 f2 20 41 4d 35 15 c1 a5 2e 8f bf
       4.741424 10.059224 -9.325513 -1.118611
000080 b8 29 1a c0 f2 02 64 40 2e 75 24 40 f7 27 82 3f
       -2.4087963 3.5626798 2.569652 1.0168446
000090 b6 3a 3d 3f 9e 47 c6 bf da 1a 86 c0 14 7e b9 bf
       0.7391771 -1.5490606 -4.190778 -1.4491601
0000a0 97 ea cb 3f 04 3e fa bf dc be 6a 40 e0 be 91 be
       1.5930966 -1.9550176 3.6678991 -0.2846594
0000b0 1b dd bc 40 15 10 25 41 01 68 ac bf 40 01 7b c0
       5.9019904 10.316426 -1.346924 -3.9219513
0000c0 b2 80 35 c0 d0 9f c6 be 79 c8 b4 bf a1 a6 bc c0
       -2.83598 -0.38793802 -1.4123679 -5.8953404
0000d0 bc f4 62 c0 f0 d3 c1 40 d5 ab 43 c0 e6 26 f4 bf
       -3.5461874 6.0571213 -3.0573628 -1.9074371
0000e0 51 54 f6 c0 95 66 43 c0 b9 4f d8 c0 8e 39 d3 3f
       -7.6977925 -3.053136 -6.759732 1.6501939
0000f0 ce 77 02 3e 6d 60 bd c0 8d e5 8a c0 1f f1 ea 40
       0.12741014 -5.9180207 -4.3405213 7.3419337
000100 21 d2 af 40 f1 31 af c0 82 07 79 40 b1 4f 0f c0
       5.4944005 -5.4748464 3.8910832 -2.239239
000110 fb cc 03 bf 98 9c 8a bf d8 50 11 c0 b2 bd 0f c0
       -0.5148465 -1.0829039 -2.2705593 -2.245953
000120 bc c0 7d c0 39 fd 9c c0 74 fe bb 40 fb 14 6c c0
       -3.9648886 -4.905911 5.874811 -3.6887805
000130 f8 1c d0 bf d4 67 c4 3f df e0 fe bf 6a 70 a4 40
       -1.625884 1.5344186 -1.9912375 5.1387224
000140 69 31 f8 c0 9a b9 c5 3f b2 db fc bf 0b 19 b6 c0
       -7.7560315 1.5447266 -1.9754546 -5.690557
000150 92 a2 b3 c0 87 fb 8d 40 04 1c 45 40 a3 00 84 c0
       -5.613595 4.436954 3.079835 -4.1250777
000160 a7 15 ad bf 59 da 11 41 1b 8e 84 bf f9 94 2b 3f
       -1.3522233 9.115808 -1.0355867 0.6702419
000170 2c 7e 16 bf 43 f3 20 bf 72 ad cb c0 4d d7 83 c0
       -0.58786273 -0.6287119 -6.3649225 -4.120032
000180 53 00 49 40 2c 60 b7 c0 f3 34 01 41 48 d9 9b 3f
       3.1406448 -5.7304897 8.075427 1.2175684
000190 b2 88 c4 3e f4 fb 0b bf bd 7d b9 40 db a7 2d 41
       0.3838554 -0.54681325 5.796599 10.85348
0001a0 84 08 a8 c0 58 b6 44 bf e9 50 21 c0 1f 7a 22 41
       -5.2510395 -0.76840734 -2.5205634 10.154815
0001b0 84 29 8e c0 42 00 82 40 c3 c5 77 40 bd 0a 59 bf
       -4.442568 4.0625315 3.8714454 -0.8478201
0001c0 a5 64 44 40 60 7b 3b 40 e8 c1 38 3f 13 a1 e3 3f
       3.0686429 2.9294052 0.7217088 1.7783531
0001d0 77 91 ab c0 18 45 48 c0 61 c0 6e c0 b7 63 ef bf
       -5.361507 -3.1292171 -3.7304919 -1.8702306
0001e0 ce c0 26 40 ae b5 20 41 84 cf 50 c0 6c ec d0 be
       2.6055179 10.044355 -3.2626657 -0.40805376
0001f0 65 ea 9f c0 62 8e 1a c1 8e c2 04 c0 8e 32 4e c0
       -4.9973626 -9.659761 -2.0743747 -3.2218356

bn1.running_var f4 [128]
000000 10 fc 9f 41 04 84 9c 41 e3 92 0f 42 12 d2 35 42
       19.998077 19.56446 35.893444 45.455147
000010 df a3 1f 40 6e b6 d8 41 51 e1 b7 42 e8 e2 ab 41
       2.494377 27.089077 91.94007 21.485794
000020 ce 30 f8 41 b1 c5 ff 42 be 40 0c 41 74 1f 78 41
       31.02383 127.886116 8.765806 15.507679
000030 37 3e e6 41 ed b9 1a 42 c3 31 74 42 30 8d 1b 42
       28.780378 38.68157 61.048595 38.88788
000040 a0 ef 18 42 db 23 04 43 1c 90 40 42 af 05 3a 42
       38.23401 132.14006 48.14073 46.50555
000050 ff 9e 24 42 5a 3e c6 41 bf 1a 64 42 2a 92 e6 40
       41.15527 24.780445 57.02612 7.2053423
000060 eb 20 97 40 aa b0 18 42 1b 41 46 42 35 70 64 42
       4.7227683 38.172523 49.56358 57.109577
000070 9e c5 3a 42 0d 04 88 42 34 81 01 42 7c 88 f0 41
       46.692986 68.00791 32.376175 30.066643
000080 83 17 f8 42 5e db 8d 42 f2 7a b3 41 06 35 bb 42
       124.04592 70.92845 22.435032 93.60356
000090 da b8 fe 41 5c d0 0f 41 db 24 c7 41 98 91 e0 42
       31.84026 8.988369 24.892996 112.28436
0000a0 b1 0a 48 40 90 f1 b2 42 98 df 6b 41 c4 2e 6f 42
       3.1256526 89.4718 14.742088 59.79567
0000b0 eb 0f 6c 42 16 92 f0 41 b2 81 09 42 72 02 5d 41
       59.015545 30.071331 34.376656 13.813097
0000c0 e0 2e 26 43 e9 51 6b 42 4c 66 ae 42 57 ad 27 42
       166.1831 58.82999 87.1998 41.919277
0000d0 aa b8 cb 42 15 86 c1 42 74 4d 99 42 60 68 90 42
       101.86067 96.76188 76.651276 72.20386
0000e0 69 1c 3c 42 31 6f bd 41 ec 03 3b 42 e3 ba 4f 41
       47.027744 23.679293 46.75383 12.983127
0000f0 ca 2a 30 41 09 89 12 42 46 6e 35 41 f1 b3 8b 41
       11.010447 36.633823 11.339422 17.462862
000100 cd 21 99 41 06 98 2f 42 60 72 67 41 43 21 1b 42
       19.141504 43.89846 14.465424 38.782482
000110 24 0b 61 40 d5 10 bd 40 aa fd 4e 42 17 1d 0d 42
       3.516305 5.9083047 51.74772 35.278408
000120 8f 66 61 41 f6 05 62 42 6e 58 ae 42 f7 d7 64 42
       14.087539 56.50582 87.172714 57.210903
000130 27 b6 08 42 e4 98 6e 42 cf 4d 22 42 8b 9d a7 41
       34.177883 59.649307 40.575985 20.951925
000140 cd 4d cb 41 dd f6 00 43 9f 17 e3 41 32 fd 48 42
       25.412989 128.96431 28.386534 50.24726
000150 5e fb d9 41 8d 5b 57 41 1a 05 b5 41 19 78 1d 42
       27.247738 13.459851 22.627491 39.367283
000160 43 b6 54 41 db d4 37 42 b0 5d 93 40 9a 33 39 40
       13.2944975 45.957867 4.6051865 2.8937745
000170 44 d3 b6 41 a7 9a e0 41 d2 2a 05 42 8f bf c1 41
       22.853157 28.075514 33.291817 24.218534
000180 24 49 14 42 ac 7c 60 42 95 0f 2d 42 e8 21 92 42
       37.071426 56.12175 43.265217 73.06622
000190 86 49 3c 41 fb 16 38 41 5a 4f b9 41 d8 a8 5c 42
       11.76795 11.50561 23.163746 55.164886
0001a0 f9 9c c0 41 0e c4 60 41 fb eb 00 42 ce f8 e4 41
       24.076647 14.047865 32.23045 28.621487
0001b0 8a 0e ef 41 11 3c 62 42 f5 9d a3 42 a7 c5 3f 42
       29.8821 56.55866 81.80851 47.94302
0001c0 bb a1 a8 42 41 30 2c 41 6d 16 9d 42 85 44 38 42
       84.31588 10.761781 78.5438 46.066914
0001d0 7b 8e 6e 42 13 61 88 42 ec ac 19 42 97 2b 6b 42
       59.63914 68.1896 38.41887 58.79257
0001e0 8f be 1f 42 fd 62 54 42 d0 52 50 42 8a 89 7d 40
       39.936092 53.09667 52.08087 3.9615197
0001f0 62 83 f4 41 ed aa 0f 42 f1 ae 39 42 6a 5e 18 41
       30.564152 35.91692 46.42084 9.52305

bn2.weight f4 [128]
000000 a0 2b 82 3f c3 d1 b3 3e c1 0c 45 3f c5 5b 07 3f
       1.0169563 0.35120973 0.76972586 0.52874404
000010 21 16 a2 3f 11 d1 7e 3f 36 b0 8c 3f 64 46 41 3f
       1.2663003 0.9953776 1.0991275 0.7549803
000020 e1 99 bc 3f eb 76 8e 3f 8e 06 a5 3f ae 2a 22 3f
       1.473446 1.1130041 1.2892625 0.63346374
000030 23 b9 ac 3f 98 3e 87 3f f9 af 9e 3f 08 6b 96 3f
       1.3493999 1.0565977 1.2397453 1.1751413
000040 f3 db 8a 3f db 59 cf 3e f8 c1 4f 3f c8 7d 5c 3f
       1.0848373 0.40498242 0.8115535 0.86129427
000050 31 95 93 3f b4 c5 64 3f e4 b0 f7 3e af 7d 08 3f
       1.1529905 0.8936417 0.48377144 0.5331678
000060 3f 83 59 3f 9e 4a 11 3f af 0c f2 3e 04 7a 4c 3f
       0.8496589 0.5675448 0.47275302 0.7987368
000070 e3 ba 84 3f 4b 5b a4 3f 03 56 35 3f 0d 81 73 3f
       1.0369533 1.284036 0.7083437 0.9511879
000080 23 91 ea 3f e7 2e a5 3f 29 f5 0e 3f e0 b3 99 3f
       1.8325542 1.2904938 0.55842835 1.2008018
000090 04 da 5a 3f 4b 99 e4 3e 49 88 20 3f 00 04 98 3f
       0.85488915 0.44648203 0.62707955 1.1876221
0000a0 36 73 2c 3f e1 dc 78 3f 83 c5 eb 3e 9f 88 8d 3f
       0.673633 0.97212034 0.46049127 1.1057318
0000b0 80 4e 9e 3f 1e fb 67 3f 17 fb 8c 3f 20 dd 43 3f
       1.2367706 0.9061755 1.1014127 0.76509285
0000c0 31 59 08 3f f4 f8 9d 3f 2f 9a 83 3f 43 a0 c0 3f
       0.53261095 1.23416 1.0281428 1.5048908
0000d0 d7 06 84 3f fc 5f 76 3f 89 14 b0 3f 5b a3 4f 3f
       1.0314587 0.9624021 1.3756267 0.81108636
0000e0 f4 eb 85 3f 0c 41 99 3f 0b 05 9b 3f 4b a4 98 3f
       1.0462632 1.1972976 1.2110914 1.1925138
0000f0 1c d5 56 3f 0e ed 04 3f 20 11 a3 3f 9d 92 2b 3f
       0.8391893 0.51924217 1.2739601 0.6702059
000100 35 f8 54 3f 5e 1d 8e 3f 68 30 4c 3f a5 8c b1 3e
       0.83191234 1.1102712 0.7976136 0.34677616
000110 0b 16 8c 3f 5f d3 a7 3f 06 a5 d4 3e 78 02 73 3f
       1.0944227 1.311138 0.41532153 0.9492564
000120 5c 1d 64 3f 21 b3 5c 3f a1 c5 99 3f 51 3a 7a 3f
       0.891073 0.8621083 1.2013437 0.97745234
000130 6c df 92 3f 21 f7 5b 3f f9 1f 51 3f c5 25 d8 3e
       1.1474433 0.85923964 0.8168941 0.42216316
000140 9b 01 6d 3f 74 44 de 3f fb a1 6e 3f 64 5c 5d 3f
       0.92580575 1.736464 0.9321591 0.864691
000150 6f 55 8b 3f 8c 0e 96 3f ee 60 77 3f 8d 4b 33 3f
       1.0885447 1.1723189 0.9663228 0.70037156
000160 62 ac 9c 3f 27 f1 5f 3f 53 54 a0 3f 6b b1 b8 3f
       1.2240107 0.87477344 1.2525734 1.4429144
000170 dc 75 8b 3f 3b 9b 05 3f 93 e9 c7 3f 82 70 76 3f
       1.0895343 0.5218999 1.5618156 0.96265423
000180 d1 a9 42 3f 23 8d 5c 3f d2 2c 26 3f 6a b2 6f 3f
       0.7604037 0.8615286 0.6491214 0.93631613
000190 1b bf 95 3f a3 c0 39 3f ae 8c 70 3f 01 c6 98 3f
       1.1698946 0.72559565 0.9396466 1.1935426
0001a0 96 41 f1 3f b2 8b 0b 3f cc e1 8a 3f e6 70 80 3f
       1.884814 0.54510033 1.0850158 1.0034454
0001b0 12 7e 57 3f 12 63 9e 3f dd 33 8c 3f e8 c7 83 3f
       0.84176743 1.2373984 1.0953327 1.0295382
0001c0 e9 1c c8 3f f2 fd 7e 3f 29 ed f3 3e 5e 70 a1 3f
       1.5633823 0.9960624 0.47641876 1.2612417
0001d0 32 ed 4e 3f 25 0f 9a 3e 29 91 35 3f 09 58 0e 3f
       0.8083068 0.3008968 0.7092462 0.5560308
0001e0 60 50 f5 3e 5a b0 a9 3e d5 26 ac 3f 5c 97 0f 3f
       0.47912884 0.33142358 1.344935 0.5609033
0001f0 5a c8 9c 3e e7 39 69 3f 36 6d 3b 3f 38 96 86 3f
       0.30621606 0.91103977 0.7321352 1.0514593
