checkpoint_actor.pth (torch_old, 86840 bytes, 18 tensors)

fc1.weight f4 [128, 24]
0.09084937 0.483862 0.030381434 0.11341951 0.09765857 -0.51014 -0.030147487 0.1787954
0.13761996 0.38874966 0.06781199 0.112950936 -0.2766375 -0.80813426 -0.060201183 0.01851479
0.045500956 0.42725632 0.06688605 0.08062693 -0.35347942 -0.6890191 -0.019190319 0.046503387
-0.03741724 0.13013999 0.010947106 -0.17908774 0.06855554 -0.16512854 0.0049109594 -0.19107954
-0.14457962 -0.024967939 -0.068322875 -0.10317914 -0.041990943 0.4383758 0.037672177 -0.1359693
-0.020822 -0.08575375 -0.012768176 -0.8404775 0.034857433 0.64459497 0.0064661596 -0.8126751
0.29500675 -0.26438072 0.011464368 -0.077645525 0.013732721 -1.1990803 -0.035524767 -0.1062684
0.1723602 -0.4545669 -0.030493947 -0.024457853 0.23154224 -0.46393874 0.023859613 -0.0007911961
0.017429685 -0.714817 0.025342697 -0.039788604 0.18304215 -0.5241549 -0.008889027 -0.0978721
-0.18250883 0.21602601 0.074269064 0.23275447 0.44328454 0.099060215 0.08578961 0.31399697
-0.109692365 0.3615733 0.108495265 0.07995717 0.30339864 0.43488207 -0.03615251 0.14944081
-0.17097035 0.40594968 -0.025798943 0.053625595 0.27402607 0.7236767 0.10365287 0.08045629
-0.0717031 -0.07116507 -0.017598346 -0.039454732 0.029228663 0.042571593 0.03603165 -0.03654718
-0.004852495 -0.047100917 -0.08417153 0.023676222 0.022544298 -0.02736959 0.021517731 -0.08297942
-0.07488233 -0.080607496 -0.088379726 -0.03805472 -0.062827654 0.059639845 0.052345283 0.002379593
0.10549542 0.4862185 -0.007819239 0.42134678 0.5963747 -0.53821707 -0.0021719392 0.42202207
0.26348984 0.36216226 0.054636523 0.13616112 0.04650394 -0.19911093 -0.03737367 0.14987831
0.27118662 0.80568534 -0.012341633 0.009131478 -0.22974008 -0.07921712 -0.0046336665 0.031697728
0.37210864 -0.03488196 0.01165735 0.10824371 -0.07560313 0.16990109 -0.020909103 0.06259579
0.5071245 0.07214088 -0.017489716 0.37440497 0.18898384 -0.012056456 -0.032225706 0.49990398
0.59875697 0.16468434 0.05375086 0.09743794 0.5635017 0.15224266 -0.0154665895 0.14975508
-0.06739079 -0.16062577 -0.028281318 0.0046055513 0.79717463 -0.22406456 0.09339662 0.07924203
0.16429296 -0.14456889 -0.054366454 -0.02972892 -0.02015606 -0.21175656 0.06497336 -0.031826407
0.20389505 -0.21727857 -0.030401977 0.26491433 -0.43133417 -0.0025802322 0.02144206 0.39639038
0.30610195 -0.67794913 0.00660636 -0.117751956 0.26227224 -0.39332223 -0.076300405 -0.100980505
0.3153101 -0.65739113 -0.013026102 -0.10801242 0.13091247 -0.27115056 -0.049893 -0.19450921
0.4596605 -0.86699444 -0.06340039 0.023654383 0.123774774 0.097538084 0.03345911 -0.037092518
0.015434049 0.10641374 -0.0913531 0.2839907 0.25615174 0.6252556 -0.06616003 0.33262932
0.08490201 0.05560629 0.073408104 -0.0067636413 0.25159281 0.36659607 0.14803255 -0.050684053
0.05766185 -0.42497456 0.042638443 -0.23489869 0.20117632 0.49312046 0.084260985 -0.3213644
-0.06483752 0.46674788 0.076571785 0.018777044 -0.11921147 -0.060417734 -0.07015164 -0.08165423
-0.026604118 0.41339615 0.009460163 -0.2053693 -0.032597274 -0.7679345 -0.0077464413 -0.056671344
00000000: 3c0f ba3d c3bc f73e 7ce2 f83c 7d48 e83d
00000010: 3701 c83d 8998 02bf ddf7 f6bc 2416 373e
00000020: 3fec 0c3e 320a c73e 03e1 8a3d d252 e73d
00000030: 6ea3 8dbe e3e1 4ebf 8495 76bd 54ac 973c
00000040: 365f 3a3d 57c1 da3e 8efb 883d bb1f a53d
00000050: 41fb b4be 8e63 30bf 0435 9dbc 567a 3e3d
00000060: d242 19bd 6b43 053e 7e5b 333c c762 37be
00000070: d966 8c3d 7517 29be 1dec a03b 5baa 43be
00000080: ae0c 14be 9089 ccbc ddec 8bbd 964f d3bd
00000090: b2fe 2bbd cb72 e03e 244e 1a3d 893b 0bbe
000000a0: e692 aabc a99f afbd 9d31 51bc 8929 57bf
000000b0: abc6 0e3d 2d04 253f 14e2 d33b 7a0b 50bf
000000c0: 200b 973e e95c 87be 0bd5 3b3c 9e04 9fbd
000000d0: 35ff 603c 777b 99bf 6b82 11bd 3fa3 d9bd
000000e0: 317f 303e febc e8be 71ce f9bc d65b c8bc
000000f0: 6919 6d3e 6189 edbe 3c75 c33c 4568 4fba
00000100: b3c8 8e3c 3ffe 36bf 7d9b cf3c 60f9 22bd
00000110: 676f 3b3e 042f 06bf 48a3 11bc 2b71 c8bd
00000120: 98e3 3abe ec35 5d3e 611a 983d 3057 6e3e
00000130: 31f6 e23e 15e0 ca3d 77b2 af3d 36c4 a03e
00000140: 64a6 e0bd 2320 b93e c432 de3d 96c0 a33d
00000150: 1157 9b3e dda8 de3e a814 14bd 0307 193e
00000160: da12 2fbe a3d8 cf3e 4e58 d3bc 83a6 5b3d
00000170: 254d 8c3e e042 393f f547 d43d 44c6 a43d
00000180: 13d9 92bd febe 91bd 682a 90bc 499b 21bd
00000190: f370 ef3c 8d5f 2e3d ec95 133d 7fb2 15bd
000001a0: ae01 9fbb e4ec 40bd 2062 acbd a3f4 c13c
000001b0: d2ae b83c 3136 e0bc f445 b03c 1df1 a9bd
000001c0: e85b 99bd 8b15 a5bd 6e00 b5bd 44df 1bbd
000001d0: c9ab 80bd e948 743d 0268 563d f2f2 1b3b
000001e0: fc0d d83d a2f1 f83e 441c 00bc c4ba d73e
000001f0: 03ac 183f 98c8 09bf 1857 0ebb 4713 d83e
00000200: 24e8 863e 556d b93e 8cca 5f3d d26d 0b3e
00000210: ea7a 3e3d bce3 4bbe 2215 19bd b379 193e
00000220: f9d8 8a3e 6541 4e3f 9034 4abc 329c 153c
00000230: fc40 6bbe 963c a2bd 03d6 97bb 7ad5 013d
00000240: 0685 be3e 63e0 0ebd 78fe 3e3c e1ae dd3d
00000250: d0d5 9abd 8dfa 2d3e 9149 abbc 3932 803d
00000260: e9d2 013f 99be 933d 9846 8fbc 02b2 bf3e
00000270: fb84 413e 7188 45bc 1aff 03bd 6af3 ff3e
00000280: 2348 193f 03a3 283e dd29 5c3d 8b8d c73d
00000290: a641 103f 80e5 1b3e 9467 7dbc 6559 193e
000002a0: 2f04 8abd 157b 24be 39ae e7bc 2aea 963b
000002b0: a313 4c3f 2e71 65be ba46 bf3d a549 a23d
000002c0: 6a3c 283e de09 14be 5caf 5ebd 108a f3bc
000002d0: 521e a5bc b6d6 58be c110 853d 685c 02bd
000002e0: ddc9 503e 467e 5ebe 910d f9bc daa2 873e
000002f0: d5d7 dcbe 1d19 29bb 42a7 af3c aef3 ca3e
00000300: 65b9 9c3e 138e 2dbf 2a7a d83b f027 f1bd
00000310: 8c48 863e 8861 c9be 6343 9cbd dece cebd
00000320: 5370 a13e c94a 28bf 6f6b 55bc 9e35 ddbd
00000330: eb0d 063e 3fd4 8abe 9a5c 4cbd 6c2d 47be
00000340: 9f58 eb3e 59f3 5dbf 10d8 81bd d6c6 c13c
00000350: a17d fd3d 0cc2 c73d 6b0c 093d 53ee 17bd
00000360: 18df 7c3c 72ef d93d 5617 bbbd 3b67 913e
00000370: 5226 833e c010 203f e97e 87bd 644e aa3e
00000380: 1be1 ad3d 6cc3 633d fd56 963d 89a1 ddbb
00000390: c6d0 803e 7bb2 bb3e d895 173e 159a 4fbd
000003a0: d52e 6c3d 4496 d9be a6a5 2e3d 4889 70be
000003b0: 2a01 4e3e 497a fc3e 0691 ac3d e089 a4be
000003c0: 89c9 84bd 94f9 ee3e abd1 9c3d 51d2 993c
000003d0: 2525 f4bd 9678 77bd aaab 8fbd 553a a7bd
000003e0: e1f0 d9bc a9a8 d33e cdfe 1a3c 544c 52be
000003f0: b884 05bd 5b97 44bf dcd5 fdbb 3620 68bd

fc1.bias f4 [128]
0.115230404 0.0963065 -0.0009987322 -0.12090806 0.007721141 0.12287662 0.0818232 -0.048861578
0.17673337 -0.047706112 0.0473277 0.02572487 0.12210502 0.19432928 -0.19389072 -0.119417064
0.0047655497 0.13956289 -0.12787049 0.0063650305 -0.070235915 -0.1966782 -0.09786665 -0.1778258
-0.12620178 -0.1603894 -0.0052760052 -0.02958077 0.12744376 -0.05887557 0.105884396 0.1645468
-0.12221508 0.1347629 -0.18951549 -0.016778614 -0.0012762425 -0.09007294 -0.02537895 0.08261261
-0.07747244 0.05459527 -0.19205953 -0.040847104 0.13546672 0.11974573 0.0075096167 -0.013324398
0.19877917 0.16035935 0.13465929 -0.0738184 -0.0831334 0.16729975 -0.17551081 0.08640702
0.13695267 0.0013903406 0.12065327 -0.04757869 0.13607995 -0.013439796 -0.08799597 0.08680669
0.06519609 0.066503115 -0.04102687 0.08633098 0.123788744 -0.070858136 0.07857085 0.16664988
-0.09148977 0.13747883 -0.053408373 0.16623248 -0.078639366 0.049068436 -0.024291534 0.06149223
0.16616733 0.0730443 0.05178592 0.12270451 -0.03485096 -0.06113017 -0.076087125 0.0441496
0.1056315 -0.12041216 -0.1238569 0.12261797 0.11901309 0.041022148 -0.13038097 -0.07854072
-0.06072755 0.03656435 0.0076811253 0.1498032 0.008740719 -0.12733416 0.005757521 -0.029056258
0.08445158 0.1432262 0.067111135 -0.08215548 -0.19011766 -0.06871635 0.09167115 -0.012362266
-0.1471691 -0.037595335 -0.14081408 0.04196206 0.10935774 -0.18952923 -0.14068669 0.0030621616
0.15742077 -0.03494061 0.012897391 0.17662916 0.026154213 0.12170677 -0.12185905 0.010293755
00000000: ebfd eb3d 583c c53d e4e7 82ba a59e f7bd
00000010: a001 fd3b bda6 fb3d ec92 a73d 1423 48bd
00000020: 98f9 343e 7c67 43bd b1da 413d f6bc d23c
00000030: 3212 fa3d 41fe 463e 4a8b 46be ef90 f4bd
00000040: 5428 9c3b 93e9 0e3e 7bf0 02be bf91 d03b
00000050: d9d7 8fbd 0366 49be 4f6e c8bd f717 36be
00000060: 0a3b 01be 1e3d 24be 57e2 acbb 5f53 f2bc
00000070: 9e80 023e 8227 71bd ebd9 d83d f57e 283e
00000080: e64b fabd 49ff 093e 5910 42be 4e73 89bc
00000090: 9847 a7ba 2978 b8bd 84e7 cfbc cd30 a93d
000000a0: dfa9 9ebd 4a9f 5f3d 41ab 44be 4b4f 27bd
000000b0: cab7 0a3e 403d f53d 3b13 f63b 934e 5abc
000000c0: c48c 4b3e 3e35 243e 20e4 093e 1a2e 97bd
000000d0: d841 aabd a050 2b3e 1bb9 33be 2af6 b03d
000000e0: 523d 0c3e 173c b63a 1019 f73d dfe1 42bd
000000f0: 8b58 0b3e 9732 5cbc 3b37 b4bd b5c7 b13d
00000100: 8785 853d c932 883d cb0b 28bd 4cce b03d
00000110: f484 fd3d 121e 91bd c1e9 a03d 44a6 2a3e
00000120: fd5e bbbd 40c7 0c3e bdc2 5abd d938 2a3e
00000130: ad0d a1bd fcfb 483d 0aff c6bc 47df 7b3d
00000140: c527 2a3e 4098 953d 791d 543d 814c fb3d
00000150: e1bf 0ebd a163 7abd 91d3 9bbd 36d6 343d
00000160: 5455 d83d a79a f6bd b0a8 fdbd 211f fb3d
00000170: 23bd f33d d706 283d 9782 05be f5d9 a0bd
00000180: 74bd 78bd 80c4 153d f3b1 fb3b 0366 193e
00000190: 3c35 0f3c e363 02be 96a9 bc3b 6407 eebc
000001a0: f3f4 ac3d e4a9 123e 9071 893d 2241 a8bd
000001b0: 34ae 42be 28bb 8cbd 15be bb3d 1a8b 4abc
000001c0: 7fb3 16be 91fd 19bd 9131 10be 69e0 2b3d
000001d0: f3f6 df3d f313 42be 2c10 10be 8cae 483b
000001e0: e932 213e e31d 0fbd 944f 533c 46de 343e
000001f0: 5c41 d63c 6641 f93d 3d91 f9bd 23a7 283c

fc2.weight f4 [128, 128]
0.13399556 0.1833139 0.28871828 0.41706774 0.00903658 -0.012832613 0.17384954 0.24570774
0.040745508 0.20935217 0.08549604 0.14056541 -0.13550961 0.236491 0.01230734 0.17384265
0.4693383 -0.45102108 -0.056636248 0.41959706 0.048061177 0.20958118 0.33174163 -0.094288535
-0.1463508 0.20873833 0.1813444 0.45636314 -0.07071359 -0.039921474 -0.16372511 0.17944123
0.07185027 0.06725553 0.2474128 -0.06395279 0.22122744 0.15995099 -0.042369142 0.059694566
0.33755893 -0.045145705 0.11497131 -0.12438431 -0.12071911 0.18087116 0.0037852686 0.37678432
0.24167986 0.27366495 0.06115117 0.14266318 0.5072639 0.21631832 0.17468953 0.101952285
0.288684 -0.025729306 0.46650663 0.1743688 0.14368677 0.08054453 -0.001956937 0.081336334
-0.15012471 0.1152764 0.28176436 0.09790436 0.19271784 0.08038893 0.41646364 -0.07488434
-0.080761775 -0.01708332 0.26493546 0.46891642 -0.041482985 -0.14322783 0.015034589 -0.20632361
0.0642317 0.15383242 -0.036079515 0.20537946 0.5174235 0.09790309 -0.10646193 0.16690534
0.04411079 0.03198027 0.034232862 -0.027687235 -0.17378192 0.056268573 0.17834158 0.23866148
0.17714107 -0.079602644 0.35347614 0.21872312 0.14898135 -0.014679648 0.3209755 0.023979895
0.21752541 -0.021931894 0.21314281 0.17123781 -0.15499936 -0.009755894 -0.07460701 0.2086355
-0.069622226 -0.35955843 0.21155883 -0.10141993 0.1089082 0.20858136 0.22211683 0.22407934
0.18472372 -0.15972637 0.3223433 0.018704297 0.120005056 0.14246884 -0.031161748 0.4094018
-0.024328891 -0.16366905 0.71546584 0.2283333 0.0037868237 -0.062828235 0.13215078 -0.23974036
0.09785732 0.12022157 0.41512612 -0.19179341 0.022091635 -0.0028723755 0.14949384 0.25272834
0.49401575 -0.21009716 -0.046601955 0.08635134 -0.106798105 0.07188027 -0.15737925 -0.08395848
-0.25746793 0.09863085 -0.057380088 -0.63137317 0.08097113 -0.53596187 0.29763713 0.10640172
-0.05524262 -0.5489512 0.36196256 -0.24918999 -0.2647834 -0.22517125 0.19394071 0.118430406
0.079742864 0.49290165 -0.059217576 -0.0418815 0.092274725 -0.032356374 -0.24877714 0.5119819
0.14905122 0.018579978 0.3454196 -0.09378405 -0.1976859 0.28749713 0.20640795 -0.23706786
-0.08205097 0.40680516 0.1652712 0.38594887 -0.075083025 -0.4814884 -0.15454693 -0.5175352
-0.092975974 -0.2633178 -0.14171179 -0.036135916 0.21486798 -0.021076396 -0.5599504 -0.09647453
0.08625508 -0.1466137 0.100897625 0.15709524 0.1053222 -0.00085903914 -0.19181097 -0.4483914
-0.12821148 -0.5126566 0.20900373 -0.1267535 0.37808213 -0.055995308 -0.1366313 -0.15370148
0.12557183 0.12192868 0.18199533 -0.029151848 -0.19940518 -0.12013071 -0.106779754 -0.5942495
0.06286861 -0.092948005 0.28916982 -0.18931302 -0.06273862 -0.0784994 0.03374439 -0.117534295
0.0190732 -0.06718278 0.47691497 0.11216998 -0.17705166 0.008750008 -0.030386884 0.15780646
0.049797587 -0.014341316 -0.035280265 0.008786148 -0.25429174 0.40954882 -0.2808544 0.39885253
0.043681186 0.035927996 -0.16695172 0.078854285 0.07251244 0.16990791 0.09762982 0.14935854
00000000: 2236 093e a4b6 3b3e e2d2 933e e789 d53e
00000010: 2a0e 143c e13f 52bc 9d05 323e cf9a 7b3e
00000020: c3e4 263d 6a60 563e 8c18 af3d 61f0 0f3e
00000030: 08c3 0abe b22a 723e baa4 493c cf03 323e
00000040: 1c4d f03e 3cec e6be 69fb 67bd 6dd5 d63e
00000050: ccdb 443d 739c 563e 0ada a93e 591a c1bd
00000060: fcdc 15be 80bf 553e 59b2 393e 6ea8 e93e
00000070: 49d2 90bd b384 23bd 8ea7 27be 71bf 373e
00000080: 3c26 933d 44bd 893d c859 7d3e aef9 82bd
00000090: 7289 623e 31ca 233e 448b 2dbd 4a82 743d
000000a0: 86d4 ac3e b4ea 38bd 1476 eb3d 33bd febd
000000b0: 953b f7bd 4a36 393e 4512 783b e0e9 c03e
000000c0: ed7a 773e d01d 8c3e a679 7a3d 4c16 123e
000000d0: 0cdc 013f 8d82 5d3e d0e1 323e 5ccc d03d
000000e0: 64ce 933e 44c6 d2bc f5d9 ee3e bc8d 323e
000000f0: a022 133e 88f4 a43d f43f 00bb aa93 a63d
00000100: 4bba 19be 0916 ec3d 6b43 903e 1582 c83d
00000110: d357 453e f4a2 a43d b93a d53e f65c 99bd
00000120: 6e66 a5bd 52f2 8bbc 9fa5 873e d015 f03e
00000130: 10ea 29bd 51aa 12be a353 763c 7f46 53be
00000140: e98b 833d 3f86 1d3e 1dc8 13bd fe4e 523e
00000150: de75 043f 6a81 c83d b608 dabd 3ce9 2a3e
00000160: 84ad 343d befd 023d c237 0c3d 57d0 e2bc
00000170: e3f3 31be e079 663d 2d9f 363e ad63 743e
00000180: 7864 353e b606 a3bd d3fa b43e f4f8 5f3e
00000190: 918e 183e e882 70bc e756 a43e 7c71 c43c
000001a0: fbbe 5e3e 84aa b3bc 1c42 5a3e f758 2f3e
000001b0: 27b8 1ebe 2fd7 1fbc 8fcb 98bd 8ba4 553e
000001c0: 1996 8ebd 0b18 b8be e1a2 583e 41b5 cfbd
000001d0: 430b df3d 5a96 553e 9872 633e 0e75 653e
000001e0: 3728 3d3e 4f8f 23be 2e0a a53e c139 993c
000001f0: 36c5 f53d 5ae3 113e ec46 ffbc 1d9d d13e
00000200: 624d c7bc dc98 27be c528 373f 34d0 693e
00000210: 5c2c 783b 17ac 80bd 8952 073e 7f7e 75be
00000220: 6b69 c83d ba36 f63d 698b d43e 7e65 44be
00000230: 84f9 b43c 773e 3cbb ea14 193e 9c65 813e
00000240: a2ef fc3e b623 57be b1e1 3ebd f9d8 b03d
00000250: f7b8 dabd f735 933d 0728 21be 6cf2 abbd
00000260: d6d2 83be f9fe c93d 6207 6bbd aca1 21bf
00000270: 31d4 a53d cc34 09bf e563 983e 25e9 d93d
00000280: 1646 62bd 1188 0cbf 2853 b93e a92b 7fbe
00000290: b191 87be 4b93 66be 6598 463e a48b f23d
000002a0: 3a50 a33d 9b5d fc3e 218e 72bd f08b 2bbd
000002b0: 88fa bc3d 1e88 04bd 6fbf 7ebe 3f11 033f
000002c0: e2a0 183e 0a35 983c d6da b03e da11 c0bd
000002d0: 2c6e 4abe d332 933e 9b5c 533e ebc1 72be
000002e0: 570a a8bd c448 d03e da3c 293e 179b c53e
000002f0: 21c5 99bd a685 f6be 8d41 1ebe 307d 04bf
00000300: 306a bebd 97d1 86be e51c 11be 4103 14bd
00000310: 5a06 5c3e 68a8 acbc e958 0fbf 7094 c5bd
00000320: 81a6 b03d e721 16be 6aa3 ce3d 93dd 203e
00000330: 2ab3 d73d 2431 61ba 186a 44be 8f93 e5be
00000340: df49 03be 773d 03bf 1305 563e abcb 01be
00000350: fb93 c13e 565b 65bd 13e9 0bbe ec63 1dbe
00000360: e795 003e beb5 f93d fc5c 3a3e dbcf eebc
00000370: df30 4cbe 1707 f6bd 58af dabd bc20 18bf
00000380: 42c1 803d 865b bebd 110e 943e 46db 41be
00000390: 1b7d 80bd 4bc4 a0bd 8f37 0a3d d2b5 f0bd
000003a0: 663f 9c3c 2097 89bd 332e f43e 60b9 e53d
000003b0: 084d 35be 325c 0f3c eaed f8bc 0498 213e
000003c0: 8ef8 4b3d d7f7 6abc 0a82 10bd c7f3 0f3c
000003d0: 8732 82be 62b0 d13e 26cc 8fbe 6636 cc3e
000003e0: 0beb 323d 3c29 133d 64f5 2abe 5b7e a13d
000003f0: 6781 943d 57fc 2d3e 25f2 c73d 72f1 183e

fc2.bias f4 [128]
-0.058960065 0.08043337 -0.04059273 0.02088309 0.014144207 -0.010447248 0.039134275 -0.085697345
0.042966887 -0.019518835 -0.031945936 -0.056015637 0.079222605 0.011177446 -0.055103574 -0.025780398
0.0076867025 -0.042277433 0.0013318944 0.074626364 0.06402461 0.08615854 0.0073011857 -0.05866843
-0.037374932 0.041026954 -0.07917261 0.010432413 -0.030316647 -0.08770056 -0.08130209 -0.06425688
-0.052812472 0.066261515 0.07800222 -0.022934344 0.007850995 -0.067400604 -0.010557748 0.06688267
-0.08734878 -0.049209736 -0.018581938 0.085500844 0.0045512677 -0.025728315 0.08236232 0.053833462
-0.054114033 -0.0045323353 0.07265695 -0.04896102 0.00937181 0.027996562 -0.039149757 0.055511195
-0.065620355 0.052843064 -0.056149416 0.032733396 -0.08533739 0.03980548 0.011654824 -0.016354896
-0.038266964 -0.085105084 -0.05698464 -0.08090051 0.07852434 0.06603059 0.06850488 0.03585155
-0.024227902 -0.081704244 -0.024274088 -0.019351091 0.008830339 0.079335846 0.067741126 0.011619541
0.02155387 -0.08330301 -0.08576271 -0.058990814 0.005031215 -0.011888024 -0.010762065 -0.030077854
-0.08079379 0.068257205 0.0018343347 -0.044999406 0.023701942 -0.0476383 0.059574928 0.010501336
0.054283623 0.05411441 -0.07428652 -0.058225114 0.028989192 0.034627765 -0.04096133 0.0092519
0.028608434 -0.037021395 0.070700414 -0.08502669 0.08615924 -0.08710863 -0.07357944 -0.07769597
0.016244823 -0.054302044 -0.040171005 -0.03881156 0.07959846 0.058525592 -0.022153955 -0.08062362
0.042350434 0.0015680575 0.05811992 -0.06762656 -0.030513227 0.07751631 0.05063559 0.08615417
00000000: 1c80 71bd 40ba a43d 9044 26bd 0413 ab3c
00000010: 1bbd 673c ef2a 2bbc 434b 203d 1782 afbd
00000020: 0cfe 2f3d f7e5 9fbc bed9 02bd a770 65bd
00000030: 763f a23d 9b21 373c 49b4 61bd 6a31 d3bc
00000040: bce0 fb3b 1a2b 2dbd f692 ae3a b5d5 983d
00000050: 561f 833d e373 b03d c93e ef3b 4f4e 70bd
00000060: 7516 19bd e10b 283d 4025 a2bd b6ec 2a3c
00000070: 9e5a f8bc 5a9c b3bd b681 a6bd 1c99 83bd
00000080: e451 58bd 1eb4 873d a1bf 9f3d cee0 bbbc
00000090: 76a1 003c 5409 8abd 68fa 2cbc c8f9 883d
000000a0: ebe3 b2bd 2690 49bd 2639 98bc 111b af3d
000000b0: cd22 953b 30c4 d2bc 93ad a83d 7a80 5c3d
000000c0: ada6 5dbd fc83 94bb 2bcd 943d 5a8b 48bd
000000d0: 388c 193c 0c59 e53c 7f5b 20bd b55f 633d
000000e0: f763 86bd f871 583d eefc 65bd 7413 063d
000000f0: 5fc5 aebd 120b 233d e0f3 3e3c b4fa 85bc
00000100: d2bd 1cbd 934b aebd ba68 69bd 2baf a5bd
00000110: 5fd1 a03d 0c3b 873d 494c 8c3d 13d9 123d
00000120: 9879 c6bc 8e54 a7bd 74da c6bc 2e86 9ebc
00000130: 20ad 103c d57a a23d dcbb 8a3d e35f 3e3c
00000140: be91 b03c c59a aabd 5ca4 afbd 5aa0 71bd
00000150: e4dc a43b fdc5 42bc 5f53 30bc d565 f6bc
00000160: 3777 a5bd 6fca 8b3d 0f6e f03a 4c51 38bd
00000170: 932a c23c 6120 43bd d704 743d cc0d 2c3c
00000180: 8158 5e3d 12a7 5d3d 8823 98bd 757d 6ebd
00000190: be7a ed3c d8d5 0d3d 11c7 27bd 4895 173c
000001a0: 3c5c ea3c bfa3 17bd 61cb 903d 7922 aebd
000001b0: 4174 b03d 0266 b2bd d1b0 96bd 111f 9fbd
000001c0: dd13 853c d26b 5ebd 5a8a 24bd dff8 1ebd
000001d0: 8404 a33d 88b8 6f3d 367c b5bc ff1d a5bd
000001e0: a677 2d3d 4787 cd3a 270f 6e3d cb7f 8abd
000001f0: e0f6 f9bc dfc0 9e3d 4467 4f3d 9971 b03d

fc3.weight f4 [2, 128]
0.5467866 1.2323596 1.0250785 -0.007884425 0.68510497 0.84880465 0.5741544 -0.43577895
-0.22476219 0.32357115 1.2154163 -0.88889253 -1.0851072 0.8471047 0.523453 -0.63331175
0.32689053 0.66062856 0.20340753 -0.42961875 0.3226688 -1.213709 -0.8877818 -0.69264925
-0.98303884 0.94346374 0.44642293 -0.022093976 -0.83558595 0.9007109 0.5941284 -0.58363265
0.58726835 -0.08333322 0.5802414 -0.2632241 1.3912139 -0.6818743 0.14079465 0.047360748
0.6643575 -0.31249887 -0.98542947 -0.25630766 -0.23600973 -0.9169843 0.5568334 -0.5971821
-0.14562704 0.21786207 0.22141533 -0.644309 0.5481291 -0.21413445 0.7461879 0.51473427
-0.4890127 -0.7672652 -1.2170154 0.051175736 -0.67892283 0.59160143 0.72392505 -0.6176133
0.039971907 1.4830295 0.14354037 0.08698342 0.3888097 -0.28683683 -0.8370228 -1.3412603
0.75274765 0.9061872 0.20019859 0.90007687 0.022869913 -0.43250063 -1.2535468 0.046684433
-0.45476934 0.34250328 0.7182092 -0.08325364 0.49041834 0.2859723 -0.8190458 -1.1260623
0.2163812 -0.8022285 0.9605941 0.40602928 1.2082295 1.2599756 0.17519566 0.09418046
1.1478835 -0.011693794 0.3697227 -0.37818462 0.24302344 0.54623365 -0.34417188 -0.002011568
1.7014538 0.5441097 1.8993958 -0.34113365 0.8982794 0.9966583 -0.8901296 0.023224585
-0.70996004 0.059526257 -1.1780405 -0.21770076 -0.27116364 0.805149 -0.0020002977 -0.221651
0.10349532 0.34604815 -0.47266462 -0.7058988 -1.0319071 -0.9113279 0.8948933 1.5540154
0.033687785 -0.22752394 -0.9518154 -4.0602665 0.17158492 0.03950643 0.69100255 0.12553991
-0.32770753 0.31663737 0.07537614 -0.26246363 -0.03310921 0.04141617 0.38295773 0.053476978
-0.3138387 0.28498957 -1.1501647 -0.11391326 0.30285338 0.07682816 0.11687161 0.2151585
0.035368215 0.31987977 -1.377552 0.46714053 0.046109445 -0.050263017 0.16940898 -0.6355446
0.15463232 -0.25736448 0.16249888 0.09699988 0.060760617 -0.024149014 0.15578137 -1.2743741
-0.07654196 -2.5879521 0.0072736647 0.03024961 1.080419 0.06440166 0.33625764 0.15958275
0.2180821 0.72106206 0.36888164 -1.9312085 0.2656691 -0.7822941 -1.6629751 -0.44373775
-0.022443518 -0.09933591 0.11858889 -0.32121083 -0.41737866 -0.39785475 -0.1465831 0.070378974
-0.3073007 8.1516155e-05 -0.94369656 -0.73962384 -0.61747485 0.1662682 -0.18702124 -0.13108717
0.9218323 0.43823972 -0.5128514 -0.063455656 -0.4434524 -3.077894 -0.62096435 -1.282599
-0.64912385 -0.28621623 0.025655642 -0.032669183 -1.7419698 -0.7513785 -0.034101255 -0.00405399
-0.28995687 0.018112093 0.1408332 0.30622032 -0.0775931 -0.017793007 0.4910541 -2.9601386
-0.23341684 0.7553022 -0.13291058 -0.2005971 0.48370862 0.795302 -0.22313274 0.09438529
-0.05001654 -0.016403923 -0.099642865 0.37151694 0.018049931 0.04350492 -0.024226706 -0.8196464
0.05309686 -0.6073986 0.10654289 -0.35905966 -0.5647008 -0.4616222 -2.566437 0.089327745
-0.6385085 0.12786888 0.14846465 -0.16434872 -0.88036937 -0.061484933 0.08607789 -0.011548773
00000000: 35fa 0b3f f6bd 9d3f c635 833f ad2d 01bc
00000010: 0a63 2f3f 434b 593f c8fb 123f 6b1e dfbe
00000020: 0f28 66be 1eab a53e c392 9b3f 768e 63bf
00000030: cbe4 8abf dbdb 583f 0401 063f b820 22bf
00000040: 325e a73e f41e 293f 104a 503e fdf6 dbbe
00000050: d834 a53e d15a 9bbf ab45 63bf 7651 31bf
00000060: 6fa8 7bbf d786 713f 8c91 e43e 6dfe b4bc
00000070: f6e8 55bf fd94 663f cc18 183f f368 15bf
00000080: 3857 163f 9baa aabd b38a 143f 4fc5 86be
00000090: 4c13 b23f 508f 2ebf 792c 103e 58fd 413d
000000a0: 5513 2a3f daff 9fbe 1b45 7cbf c23a 83be
000000b0: 89ac 71be 7cbf 6abf a28c 0e3f ede0 18bf
000000c0: 411f 15be 3c17 5f3e b3ba 623e 6ff1 24bf
000000d0: 3052 0c3f 1046 5bbe 2c06 3f3f a0c5 033f
000000e0: df5f fabe 7e6b 44bf 29c7 9bbf a69d 513d
000000f0: e3cd 2dbf 3173 173f 2753 393f e81b 1ebf
00000100: 95b9 233d e9d3 bd3f 3ffc 123e 5d24 b23d
00000110: 1112 c73e 47dc 92be 2047 56bf 6bae abbf
00000120: 12b4 403f e2fb 673f dc00 4d3e 706b 663f
00000130: af59 bb3c b970 ddbe 3974 a0bf 2d38 3f3d
00000140: 87d7 e8be 975c af3e 8fdc 373f e280 aabd
00000150: 1d18 fb3e f66a 923e fcac 51bf cf22 90bf
00000160: 0993 5d3e d95e 4dbf 7fe9 753f 12e3 cf3e
00000170: 44a7 9a3f e146 a13f 7e66 333e afe1 c03d
00000180: d9ed 923f 5497 3fbc 4b4c bd3e 6aa1 c1be
00000190: 23db 783e f8d5 0b3f 4c37 b0be 83d4 03bb
000001a0: 3dc9 d93f c64a 0b3f 671f f33f 12a9 aebe
000001b0: a4f5 653f 0025 7f3f 89df 63bf 7c41 be3c
000001c0: f1bf 35bf ced1 733d 08ca 96bf f3ec 5ebe
000001d0: f6d5 8abe 3f1e 4e3f 6d17 03bb 7bf8 62be
000001e0: 5bf5 d33d 392d b13e 1901 f2be c9b5 34bf
000001f0: 8815 84bf c94c 69bf ba17 653f fae9 c63f
00000200: 34fc 093d 09fc 68be 2daa 73bf b4ed 81c0
00000210: f5b3 2f3e 7fd1 213d 8be5 303f 898d 003e
00000220: 48c9 a7be 4b1e a23e ce5e 9a3d a261 86be
00000230: 869d 07bd 00a4 293d 0913 c43e ad0a 5b3d
00000240: 77af a0be 27ea 913e 9938 93bf 5b4b e9bd
00000250: 990f 9b3e 1558 9d3d 625a ef3d 8352 5c3e
00000260: 43de 103d 48c7 a33e a053 b0bf 0b2d ef3e
00000270: 42dd 3c3d 98e0 4dbd 8c79 2d3e 0db3 22bf
00000280: ef57 1e3e 47c5 83be 1b66 263e e0a7 c63d
00000290: 20e0 783d 27d4 c5bc 2785 1f3e b11e a3bf
000002a0: 08c2 9cbd 02a1 25c0 ec57 ee3b 08ce f73c
000002b0: 2b4b 8a3f 04e5 833d f629 ac3e a969 233e
000002c0: ea50 5f3e 8697 383f 0ede bc3e d731 f7bf
000002d0: c805 883e 6d44 48bf 5edc d4bf 9831 e3be
000002e0: 78db b7bc a070 cbbd bbde f23d bf75 a4be
000002f0: a8b2 d5be 9eb3 cbbe e119 16be da22 903d
00000300: 8456 9dbe a7f3 aa38 1996 71bf fd57 3dbf
00000310: d512 1ebf 3642 2a3e 7f82 3fbe b73b 06be
00000320: 34fd 6b3f f560 e03e 3b4a 03bf 0af5 81bd
00000330: 310c e3be 37fc 44c0 85f7 1ebf 342c a4bf
00000340: fb2c 26bf ef8a 92be c82b d23c 1fd0 05bd
00000350: def8 debf 575a 40bf c2ad 0bbd 55d7 84bb
00000360: 3a75 94be d05f 943c 9436 103e e9c8 9c3e
00000370: 22e9 9ebd a4c2 91bc 716b fb3e e972 3dc0
00000380: d304 6fbe 7c5b 413f b619 08be 5469 4dbe
00000390: a8a8 f73e e998 4b3f e97c 64be 134d c13d
000003a0: 25de 4cbd 8561 86bc 8f11 ccbd 7837 be3e
000003b0: 73dd 933c 3732 323d 1677 c6bc 59d4 51bf
000003c0: 187c 593d 7a7e 1bbf 2933 da3d abd6 b7be
000003d0: 3b90 10bf bf59 ecbe 8140 24c0 77f1 b63d
000003e0: 4b75 23bf 0ff0 023e 1e07 183e 084b 28be
000003f0: e35f 61bf a0d7 7bbd 9b49 b03d 1137 3dbc

fc3.bias f4 [2]
-0.059506144 0.1475772
00000000: b7bc 73bd 7a1e 173e

bn0.weight f4 [24]
0.33755726 0.5990409 0.31919414 0.27153027 0.08368814 0.7721968 0.5135496 0.5429107
0.3287524 0.35618424 0.30225748 0.9371123 0.603797 0.6126897 0.082451105 0.11753434
0.47838354 0.87014896 0.21336532 0.8003845 0.3222674 0.26591986 0.014026761 0.9562296
00000000: 4ed4 ac3e bf5a 193f 6a6d a33e 0406 8b3e
00000010: b064 ab3d b1ae 453f fd77 033f 32fc 0a3f
00000020: 3c52 a83e c85d b63e 7ec1 9a3e 97e6 6f3f
00000030: 7192 1a3f 3bd9 1c3f 20dc a83d d8b5 f03d
00000040: b0ee f43e 15c2 5e3f 707c 5a3e 00e6 4c3f
00000050: 3c00 a53e a626 883e 80d0 653c 77cb 743f

bn0.bias f4 [24]
0.0 0.0 0.0 0.0 0.0 0.0 0.0 0.0
0.0 0.0 0.0 0.0 0.0 0.0 0.0 0.0
0.0 0.0 0.0 0.0 0.0 0.0 0.0 0.0
00000000: 0000 0000 0000 0000 0000 0000 0000 0000
00000010: 0000 0000 0000 0000 0000 0000 0000 0000
00000020: 0000 0000 0000 0000 0000 0000 0000 0000
00000030: 0000 0000 0000 0000 0000 0000 0000 0000
00000040: 0000 0000 0000 0000 0000 0000 0000 0000
00000050: 0000 0000 0000 0000 0000 0000 0000 0000

bn0.running_mean f4 [24]
-6.564669 -1.1196756 2.5625467 -0.075905316 0.0 2.4209347 2.5625467 -0.075905316
-6.67337 -1.1498418 2.7694342 -0.10576054 0.0 2.36209 2.7694342 -0.10576054
-6.880013 -1.1917466 2.541912 -0.06902686 0.0 2.3404665 2.541912 -0.06902686
00000000: c511 d2c0 8851 8fbf c400 2440 3f74 9bbd
00000010: 0000 0000 98f0 1a40 c400 2440 3f74 9bbd
00000020: 3f8c d5c0 042e 93bf 693e 3140 fb98 d8bd
00000030: 0000 0000 7c2c 1740 693e 3140 fb98 d8bd
00000040: 1129 dcc0 278b 98bf b0ae 2240 f45d 8dbd
00000050: 0000 0000 34ca 1540 b0ae 2240 f45d 8dbd

bn0.running_var f4 [24]
14.190153 0.98822206 261.25934 6.258587 33.307835 4.0433717 261.25934 6.258587
13.618379 0.98135424 258.9358 6.437476 34.63771 4.2099576 258.9358 6.437476
12.582245 0.95620465 266.68814 6.6297994 36.613823 4.5974064 266.68814 6.6297994
00000000: de0a 6341 1ffc 7c3f 32a1 8243 5846 c840
00000010: 393b 0542 4d63 8140 32a1 8243 5846 c840
00000020: e1e4 5941 083a 7b3f c877 8143 ceff cd40
00000030: 048d 0a42 f9b7 8640 c877 8143 ceff cd40
00000040: e050 4941 d4c9 743f 1558 8543 5127 d440
00000050: 8e74 1242 f41d 9340 1558 8543 5127 d440

bn1.weight f4 [128]
0.5362202 0.37546277 0.3734447 0.33325276 0.0003008071 0.3554506 0.28757268 0.14552218
0.31217086 0.21061169 0.8108154 0.49363503 0.28296626 0.48212397 0.56823426 0.3610907
0.31133696 0.51253283 0.2023588 0.453487 0.5837482 0.6624954 0.49291113 0.6085296
0.6487108 0.43263638 0.78317946 0.74022496 0.25764626 0.4154153 0.530337 0.46523988
0.013612424 0.32679212 0.5201673 0.7033305 0.1753555 0.29987893 0.51461947 0.29011345
0.868156 0.38533515 0.6646455 0.76312655 0.15799294 0.3250566 0.7191003 0.25566202
0.5584043 0.5428862 0.41049904 0.4801414 0.3273648 0.39636323 0.617006 0.25865346
0.21632294 0.36180025 0.51907337 0.48266795 0.34101886 0.4037394 0.25920352 0.5564364
0.08938326 0.2938094 0.15104328 0.40144944 0.72150725 0.0020145706 0.32746047 0.30136308
0.58457756 0.3664809 0.20452173 0.6226651 0.71326804 0.11175155 0.31152505 0.43302402
0.5163183 0.6836804 0.19834659 0.12645665 0.4092061 0.3273417 0.5992343 0.32047
0.44800812 0.26758403 0.72184664 0.16695331 0.25717133 0.4805311 0.2012853 0.3871271
0.45804808 0.2315025 0.69233793 0.9903742 0.5465009 0.34784824 0.52400446 0.44556534
0.23220773 0.20702438 0.49290824 0.8220617 0.5125982 0.5534686 0.5611686 0.35605058
0.22341602 0.46544433 0.39913666 0.7590514 0.28612915 0.58762765 0.61416495 0.24303341
0.29606903 0.5037099 0.48170432 0.0016063302 0.20583092 0.5011554 0.44432262 0.5123524
00000000: ba45 093f a83c c03e 2534 bf3e 1ba0 aa3e
00000010: a5b5 9d39 9ffd b53e ba3c 933e c403 153e
00000020: dcd4 9f3e 97aa 573e 9991 4f3f bbbd fc3e
00000030: f4e0 903e f4d8 f63e cd77 113f e1e0 b83e
00000040: 8f67 9f3e 5a35 033f 2537 4f3e 732f e83e
00000050: 8670 153f 4c99 293f d95e fc3e 99c8 1b3f
00000060: e911 263f 8482 dd3e 737e 483f 627f 3d3f
00000070: 36ea 833e 50b1 d43e 2ac4 073f ec33 ee3e
00000080: a506 5f3c 4c51 a73e af29 053f 780d 343f
00000090: 6490 333e bb89 993e 1abe 033f c089 943e
000000a0: 793f 5e3f a64a c53e 3526 2a3f 435c 433f
000000b0: e7c8 213e d26d a63e f516 383f 22e6 823e
000000c0: 96f3 0e3f 97fa 0a3f ee2c d23e 18d5 f53e
000000d0: 5c9c a73e 1ff0 ca3e 1bf4 1d3f 3a6e 843e
000000e0: c383 5d3e e23d b93e fee1 043f 4120 f73e
000000f0: 069a ae3e eeb6 ce3e 53b6 843e 9e72 0e3f
00000100: 920e b73d 306e 963e 17ab 1a3e c88a cd3e
00000110: b3b4 383f e306 043b e6a8 a73e 434c 9a3e
00000120: e0a6 153f 62a3 bb3e 256e 513e fb66 1f3f
00000130: bc98 363f ffdd e43d 3680 9f3e 53b5 dd3e
00000140: 702d 043f ae05 2f3f 5e1b 4b3e da7d 013e
00000150: 7683 d13e 5599 a73e 6b67 193f a514 a43e
00000160: 5261 e53e c600 893e f1ca 383f cff5 2a3e
00000170: f6ab 833e 2c08 f63e bc1d 4e3e 8635 c63e
00000180: 4785 ea3e fe0e 6d3e 0f3d 313f 2a89 7d3f
00000190: 7ce7 0b3f 2a19 b23e 2825 063f 2421 e43e
000001a0: ddc7 6d3e 33fe 533e 785e fc3e a372 523f
000001b0: a339 033f 1eb0 0d3f bfa8 0f3f 434c b63e
000001c0: 2bc7 643e b84e ee3e a45b cc3e 3151 423f
000001d0: 857f 923e c46e 163f ea39 1d3f c0dd 783e
000001e0: 5c96 973e 22f3 003f f3a1 f63e 7f8b d23a
000001f0: 57c5 523e b84b 003f 417e e33e 8729 033f

bn1.bias f4 [128]
-0.7115616 -0.10729916 -0.48215026 -0.4236627 -0.0061127264 0.020065675 -0.3909126 -0.0058661466
-0.19949688 -0.3113882 -0.9183604 -0.44719705 -0.0967592 -0.51638275 -0.5025771 -0.023467448
-0.3431959 -0.13438322 -0.20747682 -0.1872634 -0.2558142 -0.63756347 -0.35916242 -0.14031251
-0.059671313 -0.24569973 0.10729847 -0.3584552 -0.24702299 -0.1860788 -0.06095433 -0.26356485
-0.105948366 -0.51666725 -0.21713915 -0.599234 -0.051210605 -0.11979682 0.28160012 -0.16318546
0.4590794 -0.50770533 0.059084795 -0.1876522 -0.13141733 -0.31573194 -0.41920963 -0.39915994
-0.40516123 0.010875289 -0.42259908 -0.6213151 -0.60187495 -0.2822069 -0.5419802 -0.08228553
-0.07969444 -0.15557615 -0.3668793 -0.5447669 0.015842883 -0.40712634 -0.3311581 -0.59176385
-0.32654735 -0.114914514 -0.043168545 -0.37132728 -0.44008324 -0.028502231 -0.5422266 -0.30112383
-0.6220008 0.10481728 -0.30190772 -0.2667894 -0.13711892 -0.08649782 -0.2436098 -0.3838468
-0.37658346 0.08763702 -0.009608721 -0.0027338606 -0.35450107 -0.053764857 -0.26370078 -0.4026791
-0.48567775 -0.13305335 -0.17809005 0.034345064 -0.2744187 -0.2687338 -0.18695047 -0.24941386
-0.6295367 -0.019861637 -0.44019184 -0.2642844 -0.47125685 0.03989089 -0.10189916 -0.46902752
-0.042754874 -0.088595636 -0.41599217 -0.22527264 -0.17049392 -0.3294377 -0.10902993 -0.17568524
-0.36427128 -0.39062473 -0.36618325 -0.5840803 -0.25868964 -0.026998587 -0.4342887 -0.24865155
-0.30193824 -0.22751044 -0.2514921 -0.015370734 0.03439264 -0.39695507 -0.09585338 0.07490946
00000000: e728 36bf a9bf dbbd 66dc f6be 51ea d8be
00000010: 444d c8bb c560 a43c b225 c8be ce38 c0bb
00000020: e948 4cbe 466e 9fbe ab19 6bbf 03f7 e4be
00000030: b029 c6bd a931 04bf e5a8 00bf ce3e c0bc
00000040: 5fb7 afbe c19b 09be ce74 54be fac1 3fbe
00000050: 14fa 82be 5c37 23bf 23e4 b7be 15ae 0fbe
00000060: e869 74bd b698 7bbe 4dbf db3d 7187 b7be
00000070: 98f3 7cbe 718b 3ebe 3fab 79bd f9f1 86be
00000080: 75fb d8bd 4e44 04bf ba59 5ebe 6667 19bf
00000090: 36c2 51bd 0958 f5bd e42d 903e 171a 27be
000000a0: 750c eb3e faf8 01bf e602 723d e627 40be
000000b0: 4492 06be 9ea7 a1be a5a2 d6be b15e ccbe
000000c0: 4b71 cfbe 452e 323c e85e d8be 820e 1fbf
000000d0: 7a14 1abf 6c7d 90be 37bf 0abf 5185 a8bd
000000e0: d736 a3bd 5b4f 1fbe 9bd7 bbbe d875 0bbf
000000f0: efc8 813c dd72 d0be 8e8d a9be d67d 17bf
00000100: 3731 a7be 4d58 ebbd 80d1 30bd 9c1e bebe
00000110: 9752 e1be 837d e9bc 5dcf 0abf e72c 9abe
00000120: 723b 1fbf 71aa d63d a693 9abe 9f98 88be
00000130: e768 0cbe c525 b1bd d974 79be 9187 c4be
00000140: 8ccf c0be 0a7b b33d e66d 1dbc 922a 33bb
00000150: 2a81 b5be 8a38 5cbd ca03 87be f42b cebe
00000160: c1aa f8be 233f 08be 3d5d 36be 69ad 0c3d
00000170: 9c80 8cbe 7a97 89be f26f 3fbe 5966 7fbe
00000180: 5129 21bf dfb4 a2bc d360 e1be 4950 87be
00000190: 9448 f1be a164 233d 82b0 d0bd 6024 f0be
000001a0: bc1f 2fbd a171 b5bd edfc d4be dfad 66be
000001b0: f595 2ebe 0fac a8be 154b dfbd d5e6 33be
000001c0: c481 babe f7ff c7be 5f7c bbbe 4986 15bf
000001d0: f872 84be 242c ddbc 175b debe 839e 7ebe
000001e0: a697 9abe 7ff8 68be 93c3 80be 88d5 7bbc
000001f0: 4cdf 0c3d b23d cbbe c74e c4bd 226a 993d

bn1.running_mean f4 [128]
-7.823428 3.6339242 -6.754517 5.5632358 1.2305309 -8.226781 -9.5423975 -2.444684
-6.2661295 3.2679303 -4.2933545 -8.279261 -2.1672661 2.5961752 -2.546094 0.94137746
-6.806303 4.2294493 -1.1479108 -4.924014 2.498905 -6.7156596 -6.165698 -0.073434636
-1.4330249 13.796387 0.5660067 -12.632372 4.95549 2.448481 -11.309148 1.4680161
0.13741344 2.4241207 -4.739396 -6.330398 -6.394546 -1.3376819 -1.3599516 3.7698555
-0.81788003 -6.0600815 4.617614 -0.18276122 -5.4198246 5.2263303 1.8553723 5.2099276
4.995139 -1.4319173 2.4851089 -1.869896 -4.608917 -6.7335443 2.207544 -1.4078127
-1.1031936 -0.7741464 -1.5236868 -1.084196 -0.8022566 -3.4870288 11.52189 -3.7990005
3.7750158 -0.9108674 -5.988202 2.1038933 -7.990929 -1.2294104 -5.482847 -7.527061
-2.8976781 -0.4638889 0.8115419 6.5982585 1.4432782 -10.62438 -10.620333 3.3978584
5.65645 -3.6228101 -2.417439 -6.669684 1.9315662 -5.962751 6.311135 4.210064
-1.9479456 0.58216757 0.048192058 -2.1093445 6.9217167 -1.1845319 9.737614 -2.0017617
-8.586781 4.1075287 4.6088347 -0.94368 3.535353 3.6496384 11.407401 5.081856
6.741776 -2.0871289 1.6372797 1.4865403 -7.2473903 -2.5207033 11.025182 -5.239859
-5.677444 4.0196257 -0.52944094 0.5968754 -8.798767 -0.5024264 -0.8652909 0.23553346
-0.0559749 4.0448647 -5.809117 -0.47357842 -2.2026675 -8.0953045 -2.0074854 11.901658
00000000: 8659 fac0 3792 6840 0125 d8c0 0706 b240
00000010: 0982 9d3f e5a0 03c1 a9ad 18c1 b475 1cc0
00000020: 2284 c8c0 c525 5140 2963 89c0 da77 04c1
00000030: 7db4 0ac0 bc27 2640 34f3 22c0 1dfe 703f
00000040: 3ccd d9c0 a657 8740 beee 92bf 8691 9dc0
00000050: 0fee 1f40 afe6 d6c0 664d c5c0 e664 96bd
00000060: 5c6d b7bf 00be 5c41 d1e5 103f 321e 4ac1
00000070: 6093 9e40 eab3 1c40 45f2 34c1 f4e7 bb3f
00000080: 1cb6 0c3e cb24 1b40 22a9 97c0 9f92 cac0
00000090: 1fa0 ccc0 2939 abbf e512 aebf 5045 7140
000000a0: 9660 51bf 30ec c1c0 7ec3 9340 c225 3bbe
000000b0: 346f adc0 193e a740 d77c ed3f bab7 a640
000000c0: 2ed8 9f40 1149 b7bf 060c 1f40 c158 efbf
000000d0: 407c 93c0 3279 d7c0 6748 0d40 3533 b4bf
000000e0: 7335 8dbf 752e 46bf 2b08 c3bf efc6 8abf
000000f0: b060 4dbf 7b2b 5fc0 a959 3841 d322 73c0
00000100: dc99 7140 9b2e 69bf 5a9f bfc0 30a6 0640
00000110: b1b5 ffc0 525d 9dbf 7c73 afc0 afdd f0c0
00000120: 8f73 39c0 d982 edbe 36c1 4f3f ef24 d340
00000130: 57bd b83f 76fd 29c1 e2ec 29c1 8376 5940
00000140: a301 b540 1fdc 67c0 52b7 1ac0 0d6e d5c0
00000150: 903d f73f dbce bec0 d1f4 c940 d8b8 8640
00000160: 4856 f9bf ef08 153f 0965 453d 80ff 06c0
00000170: b47e dd40 be9e 97bf 44cd 1b41 dd1c 00c0
00000180: 7463 09c1 e070 8340 937b 9340 0395 71bf
00000190: 3943 6240 ad93 6940 b784 3641 909e a240
000001a0: a1bc d740 8593 05c0 6292 d13f f446 be3f
000001b0: 9fea e7c0 3453 21c0 2567 3041 edac a7c0
000001c0: 9fad b5c0 c6a0 8040 7189 07bf d4cc 183f
000001d0: c0c7 0cc1 049f 00bf b483 5dbf af2f 713e
000001e0: f045 65bd 886f 8140 49e4 b9c0 df78 f2be
000001f0: 81f8 0cc0 5e86 01c1 a47a 00c0 316d 3e41

bn1.running_var f4 [128]
27.007635 34.124123 29.766827 58.627064 2.3154328 28.856327 62.950798 14.031685
28.776558 48.98507 23.2018 25.14358 98.47493 36.534737 120.216545 27.1119
43.011204 30.771019 82.39171 23.845968 9.724293 19.874027 16.4225 9.636525
10.091705 66.39542 3.6600082 62.73407 96.82293 42.50146 34.864017 153.50426
32.898315 44.5362 23.45653 78.89538 93.44224 104.28441 3.1580286 15.343471
3.3703723 34.287052 40.311977 2.7343903 32.027412 49.868626 6.894099 41.985233
19.55404 32.35409 21.46194 31.460485 44.31394 52.64635 27.117678 53.56279
77.27024 41.83463 58.210403 15.319823 102.38469 38.94835 75.054634 75.89788
29.286858 110.71975 90.03646 36.29324 47.519623 6.0061707 58.5925 38.023113
25.493929 70.057785 52.913235 56.99136 24.83815 39.18876 44.87159 18.195282
19.196053 13.822089 37.338196 155.41875 20.705276 49.48286 37.03493 61.52785
74.06231 34.23838 11.65052 144.14052 88.893074 107.05751 109.35103 55.89186
19.248089 183.86131 59.419167 9.351141 23.237701 58.145973 24.358917 100.24542
57.82522 142.17859 20.881044 14.921787 41.72226 105.20359 78.86015 36.614815
37.77401 52.985172 31.216766 14.249322 29.008785 11.827279 21.675562 60.99231
81.320694 38.733746 21.395151 3.8150938 95.39465 37.80968 64.29838 30.528889
00000000: a30f d841 1a7f 0842 7622 ee41 1d82 6a42
00000010: 0d30 1440 c2d9 e641 9ecd 7b42 c881 6041
00000020: 6436 e641 b6f0 4342 499d b941 0d26 c941
00000030: 2af3 c442 9223 1242 df6e f042 2ce5 d841
00000040: 790b 2c42 0c2b f641 8ec8 a442 8bc4 be41
00000050: b496 1b41 02fe 9e41 4861 8341 352f 1a41
00000060: a077 2141 74ca 8442 933d 6a40 b0ef 7a42
00000070: 57a5 c142 7f01 2a42 c174 0b42 1781 1943
00000080: e097 0342 1225 3242 f9a6 bb41 6fca 9d42
00000090: 6de2 ba42 9e91 d042 241d 4a40 db7e 7541
000000a0: 2eb4 5740 f125 0942 773f 2142 4000 2f40
000000b0: 121c 0042 7979 4742 769c dc40 e1f0 2742
000000c0: ad6e 9c41 976a 0142 0eb2 ab41 13af fb41
000000d0: 7941 3142 dd95 5242 01f1 d841 4c40 5642
000000e0: 5d8a 9a42 a956 2742 74d7 6842 ff1d 7541
000000f0: f6c4 cc42 1ccb 1b42 f91b 9642 b7cb 9742
00000100: 7c4b ea41 8370 dd42 ab12 b442 472c 1142
00000110: 1814 3e42 8d32 c040 b85e 6a42 ab17 1842
00000120: 91f3 cb41 961d 8c42 27a7 5342 27f7 6342
00000130: 88b4 c641 4ac1 1c42 827c 3342 f08f 9141
00000140: 8491 9941 4727 5d41 505a 1542 336b 1b43
00000150: 68a4 a541 73ee 4542 c523 1442 851c 7642
00000160: e71f 9442 1af4 0842 8868 3a41 f923 1043
00000170: 41c9 b142 721d d642 bab3 da42 4491 5f42
00000180: 16fc 9941 7fdc 3743 3aad 6d42 469e 1541
00000190: d0e6 b941 7a95 6842 10df c241 a87d c842
000001a0: 064d 6742 b82d 0e43 610c a741 a4bf 6e41
000001b0: 98e3 2642 3d68 d242 66b8 9d42 9275 1242
000001c0: 9618 1742 d1f0 5342 f0bb f941 39fd 6341
000001d0: fe11 e841 893c 3d41 8d67 ad41 20f8 7342
000001e0: 32a4 a242 5bef 1a42 4529 ab41 7f2a 7440
000001f0: 10ca be42 1d3d 1742 c598 8042 2a3b f441

bn2.weight f4 [128]
1.1763791 0.7259212 0.7343912 1.003207 1.344089 0.4136228 0.972078 0.7760461
0.90731454 0.825355 1.4770352 0.8946439 1.3529608 0.8523008 1.3128172 1.0084574
0.90986717 0.65897423 0.96866775 0.78611535 0.9068454 1.3072811 1.173112 0.78093034
0.9019986 0.53172046 0.85100144 0.6671124 0.9254533 1.3604716 0.7488989 1.0984851
1.2172831 0.67443335 0.7267712 0.7606103 0.4810015 1.1176862 0.583945 1.4160615
1.0056107 0.95551175 0.7893567 0.6706426 1.6676021 1.3015461 0.6087387 1.1465888
0.63908887 0.9580481 0.8558544 0.8113688 0.655437 0.8507582 1.1205415 0.24111874
1.1297978 1.4578301 1.5466429 0.9583945 0.9349852 0.66784143 1.1187279 0.79863447
0.71872675 1.8933479 0.5202384 0.63145715 1.104965 0.7620488 0.6822823 1.2160081
1.0680761 1.2566903 1.2069908 1.3816297 0.6608822 0.9079349 0.57420623 0.45723602
0.97864234 0.8061559 1.0070956 0.27917704 1.4011635 0.5679981 1.3074402 1.3177795
0.624231 0.6625539 1.3238207 1.153436 1.3605479 0.55571777 0.51804256 0.9693848
0.70104855 1.0379785 0.5669443 0.8717507 1.0357716 0.76724994 0.6065934 0.7200705
1.1831439 1.0374628 1.2257743 1.2882193 0.8535939 0.81246954 1.5264474 0.69143534
1.5826144 0.71744555 0.82679474 0.42916605 0.554234 0.39044642 0.9550745 0.6856414
0.48669678 0.4141702 1.0537999 0.5062305 0.6647898 1.1629976 1.2966537 0.7716198
00000000: 9793 963f f9d5 393f 1001 3c3f 1669 803f
00000010: 1c0b ac3f 5ec6 d33e 1bda 783f f5aa 463f
00000020: c445 683f 774a 533f 7d0f bd3f 6207 653f
00000030: d22d ad3f 6330 5a3f 650a a83f 2215 813f
00000040: 0eed 683f 89b2 283f 9cfa 773f db3e 493f
00000050: 0527 683f fd54 a73f 8928 963f 0deb 473f
00000060: 61e9 663f d51e 083f 3bdb 593f e1c7 2a3f
00000070: 82ea 6c3f ef23 ae3f d7b7 3f3f 299b 8c3f
00000080: efcf 9b3f aaa7 2c3f ad0d 3a3f 5bb7 423f
00000090: d445 f63e 5710 8f3f 6b7d 153f 8141 b53f
000000a0: dab7 803f 6b9c 743f 4813 4a3f 3caf 2b3f
000000b0: fc73 d53f 1099 a63f 4dd6 1b3f 6cc3 923f
000000c0: 549b 233f a442 753f 4619 5b3f deb5 4f3f
000000d0: b8ca 273f 4acb 593f e76d 8f3f d5e7 763e
000000e0: 379d 903f 2d9a ba3f 65f8 c53f 5859 753f
000000f0: 315b 6f3f a8f7 2a3f 7a32 8f3f 4f73 4c3f
00000100: 7afe 373f 3959 f23f 582e 053f 2da7 213f
00000110: 7e6f 8d3f a115 433f 0eaa 2e3f 27a6 9b3f
00000120: b8b6 883f 3adb a03f ad7e 9a3f 3ed9 b03f
00000130: 932f 293f 6c6e 683f 2eff 123f d71a ea3e
00000140: 4e88 7a3f 3c60 4e3f 82e8 803f 4bf0 8e3e
00000150: 5359 b33f 5368 113f 335a a73f 00ad a83f
00000160: 9acd 1f3f 229d 293f f572 a93f caa3 933f
00000170: 6f26 ae3f 8543 0e3f 709e 043f 9a29 783f
00000180: eb77 333f 7bdc 843f 4323 113f 0e2b 5f3f
00000190: 2a94 843f 7e6a 443f b449 1b3f 8a56 383f
000001a0: 4271 973f 95cb 843f 2ce6 9c3f 5fe4 a43f
000001b0: 2185 5a3f 01fe 4f3f a162 c33f e801 313f
000001c0: 1c93 ca3f 83aa 373f d2a8 533f a7bb db3e
000001d0: 48e2 0d3f 98e8 c73e c37f 743f 3286 2f3f
000001e0: 5230 f93e 1e0e d43e eae2 863f 5298 013f
000001f0: aa2f 2a3f 1bdd 943f c0f8 a53f e088 453f

bn2.bias f4 [128]
-0.8229851 -0.48503128 -0.43706873 -0.9301405 -0.3226297 -0.31886128 -0.84477884 0.030376941
-0.37167034 -0.5320978 -0.503195 -0.74380016 -0.48842543 -0.4981985 -0.053919137 -0.53578913
-0.51125187 -0.19255148 -0.93822455 -0.20881963 -0.40781572 -0.42288125 -0.110249065 -0.5026352
-0.64117575 -0.57956374 -0.77143604 -0.033105467 -0.5258939 -0.8355943 0.02568905 -0.8989091
-0.47869498 -0.32463688 -0.25369698 -0.32605025 -0.50660807 0.041768853 -0.16838966 -0.903671
-0.23201667 -1.1508303 -0.33485034 -0.31417793 -0.23436038 -0.26051453 -0.38236648 -0.30286577
-0.027795335 -0.06905005 -0.20117778 -0.77348536 -0.14045392 -0.5771282 -1.0402299 -0.4906346
-0.30671614 -0.05184027 -0.81451845 -0.29959154 -0.28883466 -0.5569371 -0.6256469 -0.075797655
-0.17789602 -0.8473678 -0.4912616 -0.36098933 -0.6364895 -0.16111608 -0.1446828 -0.4225012
-0.59973603 -0.39725977 -0.80949116 -0.13718231 -0.47320673 -0.81535417 -0.73379225 -0.5002428
-0.5513569 -0.45550695 -0.33698842 -0.12674695 -1.1968496 -0.46281332 -0.4216715 -0.7019201
-0.25844398 -0.35937533 -0.7845011 -0.32162625 -0.85225123 -0.25120488 -0.22886856 -1.1677264
-0.4062874 0.28745455 -0.16132607 -0.23596245 0.02465892 -0.23993443 -0.2671003 -0.1378948
-0.32624653 -0.11677012 -1.0100852 -0.12240286 -0.7888461 -0.863067 -0.5905264 -0.2987744
-0.5828202 -0.44940442 -0.5190142 -0.0998285 -0.35887274 -0.40855947 -0.9424533 -0.05095843
-0.6112659 0.11972652 -0.028304597 -0.15062961 -0.62682587 -0.384234 -0.23516311 -0.6961907
00000000: 27af 52bf 0556 f8be 79c7 dfbe b01d 6ebf
00000010: b82f a5be c941 a3be 6d43 58bf 10d9 f83c
00000020: 934b bebe 9037 08bf 63d1 00bf b069 3ebf
00000030: e612 fabe e013 ffbe 50da 5cbd 7a29 09bf
00000040: 67e1 02bf 372c 45be 7c2f 70bf d0d4 55be
00000050: 39cd d0be e483 d8be 43ca e1bd b3ac 00bf
00000060: 1824 24bf 4a5e 14bf d57c 45bf 9999 07bd
00000070: fca0 06bf 82e9 55bf d871 d23c e81e 66bf
00000080: 8217 f5be ce36 a6be 92e4 81be 0ff0 a6be
00000090: 11b1 01bf d115 2b3d 576e 2cbe fc56 67bf
000000a0: c795 6dbe 684e 93bf 8171 abbe eedb a0be
000000b0: 2bfc 6fbe 2962 85be 8ac5 c3be 3911 9bbe
000000c0: 0bb3 e3bc 1d6a 8dbd 8c01 4ebe 2303 46bf
000000d0: 27d3 0fbe acbe 13bf 4126 85bf 7534 fbbe
000000e0: e609 9dbe 7756 54bd 4884 50bf 1064 99be
000000f0: 23e2 93be 6e93 0ebf 652a 20bf cd3b 9bbd
00000100: 602a 36be 19ed 58bf a486 fbbe 98d3 b8be
00000110: faf0 22bf 9dfb 24be ba27 14be 1452 d8be
00000120: 4d88 19bf a265 cbbe d03a 4fbf 8579 0cbe
00000130: 2748 f2be 0dbb 50bf cfd9 3bbf ea0f 00bf
00000140: ba25 0dbf 3538 e9be bf89 acbe f4c9 01be
00000150: 5e32 99bf def5 ecbe 54e5 d7be 09b1 33bf
00000160: c552 84be 0b00 b8be 10d5 48bf 32ac a4be
00000170: 232d 5abf ed9d 80be 855c 6abe 0f78 95bf
00000180: e704 d0be 3e2d 933e a932 25be 24a0 71be
00000190: 8101 ca3c 5fb1 75be 5fc1 88be 4b34 0dbe
000001a0: c909 a7be 2c25 efbd 794a 81bf 5aae fabd
000001b0: d1f1 49bf f5f1 5cbf bd2c 17bf f5f8 98be
000001c0: b433 15bf 5618 e6be 1dde 04bf e272 ccbd
000001d0: 2bbe b7be b52e d1be 9f44 71bf c9b9 50bd
000001e0: ec7b 1cbf 2d33 f53d 0bdf e7bc a63e 1abe
000001f0: a977 20bf 52ba c4be 99ce 70be 8e39 32bf

bn2.running_mean f4 [128]
1.1609392 -0.06818881 0.07890704 -0.8099886 -0.028350929 0.52925557 0.31837815 0.2340142
0.28654075 0.14584726 -0.11673341 -0.7196668 -0.3320909 -0.23705767 -0.63786256 -0.22899556
0.5076121 -0.23106188 0.15736453 0.40765914 0.16363873 0.2988766 0.4840346 -0.43529928
-0.014191965 -0.24534619 -0.6046567 0.8231532 1.0851525 -0.2834033 0.20891607 -0.26450565
0.20151772 -0.40350676 -0.59367615 0.8303559 0.8763208 -0.02547851 -1.0916333 -0.27413413
0.0015450743 -0.5244364 -0.17149335 -0.31201777 0.2143512 0.39161342 1.0298798 0.46839213
-0.16145009 -0.9303653 0.24816555 -0.5397099 0.10332158 -0.22859398 -0.43993413 0.74603367
0.57768506 0.9827384 0.1342297 -0.83031785 0.41584387 0.19922747 0.5103416 0.3689868
-1.0099354 0.048817616 -0.0028091073 -0.15575647 0.6422039 0.15190718 1.1371207 0.55324954
-0.38169643 -0.15602654 -0.49624696 0.30807084 0.16425726 -0.9293658 0.28756636 -0.17226908
0.06436806 -0.42280304 0.2680396 0.6838823 -0.17779757 -0.39043635 -0.43845865 0.68451566
-0.7407699 1.3644376 0.2740272 0.3681558 0.407793 -0.5939338 -0.36360464 -0.4395521
0.23927687 -0.5638484 -0.009108803 -0.016564602 0.40483025 -0.43727896 -0.035869174 -1.0149447
0.26575074 -0.32910994 -0.14817551 -0.15994683 1.2360604 0.54146 0.31772086 -0.95205534
-0.23226582 0.13432507 0.52020323 -0.36099198 -0.3683995 0.2655027 -0.26100072 -0.6295832
-0.22737335 -1.5056964 0.17289326 0.08933227 -0.72460824 -0.09967955 0.078895435 0.16313313
00000000: a899 943f 93a6 8bbd 049a a13d 6a5b 4fbf
00000010: 3540 e8bc 4b7d 073f 7602 a33e 6ba1 6f3e
00000020: 78b5 923e fc58 153e ed11 efbd 153c 38bf
00000030: d207 aabe 3fbf 72be f64a 23bf d07d 6abe
00000040: def2 013f 7c9b 6cbe 2b24 213e b3b8 d03e
00000050: e990 273e 5b06 993e 62d3 f73e 8cdf debe
00000060: 6a85 68bc 083c 7bbe c8ca 1abf 2bba 523f
00000070: 47e6 8a3f 3d1a 91be 18ee 553e 496d 87be
00000080: a95a 4e3e 7098 cebe 29fb 17bf 3492 543f
00000090: 8f56 603f 4fb8 d0bc a4ba 8bbf 4f5b 8cbe
000000a0: 1784 ca3a 7741 06bf f49b 2fbe cbc0 9fbe
000000b0: e27e 5b3e 8e81 c83e 1ad3 833f 18d1 ef3e
000000c0: 2c53 25be 6c2c 6ebf 1c1f 7e3e 6e2a 0abf
000000d0: 449a d33d 8a14 6abe 0c3f e1be 10fc 3e3f
000000e0: 2be3 133f be94 7b3f 8373 093e b68f 54bf
000000f0: 7de9 d43e 4902 4c3e bfa5 023f d6eb bc3e
00000100: 9045 81bf fbf4 473d 0019 38bb a07e 1fbe
00000110: 7a67 243f 8e8d 1b3e 2c8d 913f c3a1 0d3f
00000120: b76d c3be 6cc5 1fbe 1514 febe 76bb 9d3e
00000130: 0e33 283e ebea 6dbf e63b 933e 4e67 30be
00000140: 67d3 833d a479 d8be 7d3c 893e e912 2f3f
00000150: 9110 36be 46e7 c7be a77d e0be 6b3c 2f3f
00000160: 19a3 3dbf e4a5 ae3f 4b4d 8c3e eb7e bc3e
00000170: 3eca d03e 0c0c 18bf 632a babe f90c e1be
00000180: ff04 753e 5e58 10bf 173d 15bc 7db2 87bc
00000190: e945 cf3e 07e3 dfbe 8eeb 12bd b5e9 81bf
000001a0: 7b10 883e 1981 a8be 52bb 17be 1ac9 23be
000001b0: 3a37 9e3f 1f9d 0a3f 4fac a23e e6b9 73bf
000001c0: 17d7 6dbe 838c 093e 0a2c 053f f1d3 b8be
000001d0: dc9e bcbe f8ef 873e e3a1 85be 5d2c 21bf
000001e0: 8fd4 68be a9ba c0bf ee0a 313e d6f3 b63d
000001f0: ed7f 39bf cb24 ccbd ee93 a13d 5f0c 273e
