checkpoint_critic.pth (torch_old, 87350 bytes, 17 tensors)

fcs1.weight f4 [128, 24]
0	0x3af73b4e	0.0018862279
1	0x3dd19a85	0.102345504
2	0xbca6600a	-0.020309467
3	0x3cab8b00	0.020940304
4	0xbe60d931	-0.21957852
5	0x3e0d0a54	0.13773471
6	0xbc513ea3	-0.012771281
7	0xbd9a8ee0	-0.075467825
8	0xbd64adbe	-0.055829756
9	0xbdc1a27d	-0.0945482
10	0xbd2a6422	-0.0415994
11	0xbaf4c8cb	-0.0018675564
12	0xbcca3c70	-0.024687022
13	0x3e3f871e	0.18703887
14	0xbcdec732	-0.027194593
15	0xbc61ddd1	-0.013785795
16	0x3d772a9b	0.060343366
17	0x3d904e3f	0.07046174
18	0x3e086e91	0.13323428
19	0x3d6f82d1	0.058474366
20	0x3e0e80d8	0.13916337
21	0xbe078aa1	-0.13236476
22	0x3de7e2c7	0.11322551
23	0x3d106d06	0.035260223
24	0xbe7a9735	-0.24471743
25	0xbd72ac8a	-0.059246577
26	0x3d18f49a	0.037342645
27	0x3de37614	0.11106506
28	0xbd1fadb4	-0.038984016
29	0xbcd94b5a	-0.026525188
30	0xbc1442b6	-0.009049108
31	0x3dc3d559	0.09562177
32	0xbe448b2d	-0.19193716
33	0xbd1279ec	-0.035760805
34	0xbc2d296d	-0.010568959
35	0xbd171e20	-0.036893964
36	0xbe08c43b	-0.13356106
37	0xbea11e02	-0.31468207
38	0x3c4a4941	0.012346567
39	0x3d032d8f	0.03202587
40	0xbe02313a	-0.12714091
41	0xbd7803af	-0.060550388
42	0x3eb5c5e6	0.35502547
43	0xbdc567e2	-0.09638955
44	0x3e3da9f9	0.1852187
45	0x3e96a773	0.2942463
46	0x3e9355e1	0.28776458
47	0xbb2a12e2	-0.0025951196
48	0xbdafb71d	-0.08579848
49	0x3c6c14c9	0.014409252
50	0x3c29a7cb	0.010354946
51	0xbe0b6ae3	-0.13614993
52	0x3ebf6e70	0.37388945
53	0xbd3b1b77	-0.04568049
54	0x3d3720e0	0.044709086
55	0xbd96852e	-0.07349621
56	0x3bc91b11	0.00613726
57	0x3ca44056	0.020050209
58	0x3b7af5fe	0.0038293595
59	0xbd4b4c2a	-0.049633183
60	0xbd93103c	-0.07180831
61	0x3c0775aa	0.008267799
62	0x3c0cc423	0.0085916845
63	0x3b5dbe0a	0.0033835196
64	0x3e785c50	0.24253964
65	0x3e247eac	0.16063946
66	0xbd4825c2	-0.048864134
67	0xbd7dd3a6	-0.06196942
68	0xbf3526d1	-0.70762354
69	0x3e4f6f79	0.20257367
70	0x3c409202	0.011753561
71	0xbe362f50	-0.17791486
72	0xbec008d1	-0.37506726
73	0xbd5ca5e6	-0.05386915
74	0x3d86a394	0.06574169
75	0x3df4c366	0.11951332
76	0x3bb785e8	0.0056006797
77	0xbd4f2a67	-0.050577547
78	0xbe2ad488	-0.16682637
79	0x3d9e90cd	0.07742462
80	0xbeb1109f	-0.34582993
81	0x3d86d591	0.06583703
82	0x3ec60137	0.38672802
83	0xbdc3a4ff	-0.09552955
84	0x3d285db3	0.041104984
85	0xbe8b8b08	-0.2725451
86	0xbcf5bf1f	-0.02999836
87	0x3d804a96	0.06264226
88	0xbe6c815c	-0.23096222
89	0xbd87d18d	-0.066317655
90	0x3ecf2842	0.40460402
91	0xbd2f14d7	-0.042744484
92	0xbb897ee6	-0.0041960357
93	0xbe41a2bd	-0.18909736
94	0x3eb2e927	0.34943506
95	0xbc453c97	-0.0120383715
96	0xbe074962	-0.13211587
97	0x3d065dda	0.032804348
98	0x3d2d4a66	0.04230728
99	0xbc8dd5f0	-0.017313927
100	0xbd5549a2	-0.052072175
101	0x3d772a9c	0.06034337
102	0xbd07b324	-0.033129826
103	0x3d0a4d1a	0.033764936
104	0xbe537a8c	-0.20652217
105	0xbd5fe912	-0.054665633
106	0xbe43b4ee	-0.19111988
107	0xbd9d56f0	-0.07682598
108	0x3c1ea280	0.009682298
109	0x3ec14394	0.3774687
110	0xbce43de6	-0.027861547
111	0xbdd14bfd	-0.10219572
112	0xbe92ce3b	-0.28672966
113	0xbe3737b9	-0.1789235
114	0x3b591dd5	0.0033129354
115	0x3ea276b4	0.31731188
116	0x3e354bbb	0.1770467
117	0xbe4cf7c0	-0.20016384
118	0xbbe71ce8	-0.0070530064
119	0x3e2dffcd	0.16992112
120	0xbe211e93	-0.1573432
121	0xbd3c2542	-0.04593397
122	0x3bee92ea	0.007280697
123	0x3e80a0aa	0.25122577
124	0xbde4ac87	-0.111657195
125	0xbdd6eff8	-0.10494989
126	0xbd20418b	-0.039125007
127	0x3e8b14e4	0.27164376
128	0xbdad2162	-0.08453633
129	0x3ca4857c	0.020083182
130	0x3d2c7b3d	0.042109717
131	0x3cac8c00	0.021062851
132	0x3c65fb53	0.014036971
133	0x3dfd3588	0.12363726
134	0xbc05cbce	-0.008166267
135	0x3e91b9af	0.28461978
136	0xbdce0a17	-0.10060518
137	0xbc7e66c9	-0.015527436
138	0x3e67194d	0.22568245
139	0x3dc9523c	0.09830138
140	0x3dcf3a5a	0.101185516
141	0x3e3de7ea	0.185455
142	0x3e46a1cf	0.19397663
143	0xbcbe44a3	-0.023226088
144	0x3d92b937	0.07164233
145	0xbe14a803	-0.14517216
146	0xbc041281	-0.008061052
147	0xbdbfabe4	-0.093589574
148	0xbda2f292	-0.07956423
149	0xbda8e2b2	-0.08246364
150	0xbe0cc35a	-0.13746396
151	0xbd95c500	-0.073129654
152	0xbd150439	-0.03638098
153	0x3dd2b70b	0.10288819
154	0xbe350d1b	-0.1768078
155	0xbc174ea4	-0.009235058
156	0x3cfc08ed	0.030765975
157	0xbe3d28d4	-0.18472606
158	0xbd1714b1	-0.036884967
159	0x3dcbca90	0.09950745
160	0xbdb1cb12	-0.08681311
161	0x3d667ea8	0.056273133
162	0xbd77addc	-0.06046854
163	0x3ca336d3	0.019923603
164	0x3db233d5	0.087012924
165	0x3ec8d497	0.39224693
166	0x3cd827a1	0.026386084
167	0x3c80836c	0.015687667
168	0xbdd4771b	-0.1037428
169	0x3cb89141	0.0225302
170	0x3ce19e37	0.027541263
171	0x3a7e9f70	0.0009713089
172	0xbe92f797	-0.2870452
173	0x3dc18199	0.09448547
174	0x3e03e4e7	0.12880288
175	0x3df4664b	0.11933573
176	0xbc2e5157	-0.01063951
177	0x3c5879ff	0.01321268
178	0xbde1e736	-0.11030428
179	0xbcb1ac2d	-0.021688545
180	0x3d067c81	0.03283358
181	0xbdb10fd2	-0.086455956
182	0x3da73d66	0.08166008
183	0x3d65e0a6	0.056122445
184	0x3e75018f	0.23926376
185	0x3d70f870	0.05883068
186	0xbdf9df90	-0.12200844
187	0x3dbb0248	0.091312945
188	0x3f3d64be	0.73981845
189	0x3df9734a	0.12180193
190	0xbe02cfc7	-0.12774573
191	0xbdb4e4fd	-0.088327385
192	0xbe1ff794	-0.15621787
193	0x3daa4aad	0.083150245
194	0x3cac522b	0.021035274
195	0x3d85b6a3	0.06528976
196	0xbe632976	-0.22183785
197	0x3d4918d8	0.04909596
198	0xbda959e7	-0.08269101
199	0x3d619f9f	0.055083867
200	0xbd2c0008	-0.041992217
201	0xbdb11072	-0.08645715
202	0x3e3756c9	0.179042
203	0xbcc2fedf	-0.023803173
204	0x3d89a536	0.067209646
205	0x3e5fe530	0.21864772
206	0x3c63c511	0.013901965
207	0xbbd1056b	-0.0063788197
208	0x3e165d5b	0.1468405
209	0xbe1cc0e2	-0.15307954
210	0x3e8c0243	0.27345476
211	0xbd30dc0d	-0.043178607
212	0x3e9d2c43	0.30697832
213	0x3e6c9530	0.23103786
214	0x3e854420	0.26028538
215	0x3ce20d75	0.027594307
216	0x3d0431fa	0.032274224
217	0x3e1c8894	0.15286475
218	0xbc051c17	-0.008124373
219	0x3c826812	0.015918765
220	0x3f0118a0	0.504282
221	0xbd5ff9e3	-0.05468167
222	0x3cf7e91d	0.030262524
223	0x3d4d955f	0.05019128
224	0x3ca4297c	0.020039313
225	0xbbe31dd9	-0.0069310484
226	0x3c8f91c9	0.01752557
227	0xbb225f84	-0.002477617
228	0x3f103997	0.56337875
229	0x3de12fb1	0.109954245
230	0xbce6c223	-0.028168743
231	0x3ddae3f1	0.106880076
232	0xbc7ae6f6	-0.015313854
233	0x3f1d5f40	0.61473465
234	0xbce6b9ba	-0.028164733
235	0x3e4ff0ab	0.20306651
236	0x3f6b290a	0.91859496
237	0x3cc7efc7	0.024406327
238	0x3d6f2fb7	0.058395114
239	0x3e9f7eeb	0.31151518
240	0x3d96d193	0.07364192
241	0xbdb02841	-0.08601428
242	0x3d441784	0.04787399
243	0x3c32d87b	0.010915871
244	0x3d00a8e5	0.03141107
245	0xbd70eb80	-0.05881834
246	0x3e8ef0a0	0.27917957
247	0x3bdf0be3	0.006806837
248	0xbdbc807f	-0.09204196
249	0xbcc2b8d2	-0.02376977
250	0xbddf40f3	-0.1090106
251	0x3cd71d28	0.02625902
252	0x3d1baaa6	0.03800454
253	0xbeb3edac	-0.35142267
254	0xbc9295c9	-0.017893689
255	0x3d10a804	0.035316482

fcs1.bias f4 [128]
0	0x3dd25f1c	0.10272047
1	0x3d44e009	0.04806522
2	0xbd466d29	-0.048443947
3	0xbe8e57b6	-0.27801293
4	0x3d10b7cb	0.03533153
5	0x3d89e2b8	0.06732696
6	0x3dfc1b4a	0.123098925
7	0xbd6f67e2	-0.05844868
8	0xbcbcdac7	-0.02305354
9	0xbc0ee532	-0.008721637
10	0x3dd281ee	0.10278688
11	0xbd2c810b	-0.042115252
12	0xbdddf68a	-0.10838039
13	0x3b87a21a	0.004139197
14	0xbedf361f	-0.4359598
15	0xbe38c315	-0.18043168
16	0xbdc50b91	-0.09621347
17	0x3dc4320b	0.095798574
18	0xbe594c0f	-0.2122042
19	0xbb075d50	-0.0020654984
20	0xbe564f0a	-0.20928589
21	0xbedc4aa8	-0.43025708
22	0xbe9b34ea	-0.30313808
23	0xbc42de86	-0.011893874
24	0xbdc68bfc	-0.09694669
25	0xbecef26e	-0.40419334
26	0xbb427d5a	-0.0029676766
27	0xbb6820fb	-0.0035420049
28	0x3c96f7b6	0.018428665
29	0xbe480f62	-0.19537118
30	0xbc67c728	-0.014146604
31	0xbc3a97a4	-0.011388693
32	0xbd1ffafd	-0.03905772
33	0x3e49ae7f	0.19695471
34	0xbe9d8471	-0.30765107
35	0xbd78d31b	-0.0607482
36	0xbd8fd18f	-0.07022392
37	0xbd69b432	-0.057056613
38	0xbd7e3ea3	-0.062071454
39	0xbe71d5b8	-0.23616683
40	0x3cee3a98	0.029080674
41	0x3d613763	0.05498446
42	0xbe608a7b	-0.21927826
43	0xbde2f6d7	-0.11082237
44	0x3cfb0190	0.030640393
45	0x3cec3c6a	0.028837401
46	0xbd617893	-0.05504663
47	0xbe1ea5f0	-0.15492988
48	0x3dac0206	0.083988234
49	0xbdaa06f6	-0.08302109
50	0x3d85d1cc	0.06534156
51	0xbe9e5b2e	-0.3092894
52	0xbe3b5dfb	-0.1829757
53	0x3dc41c12	0.095756665
54	0xbe8524bb	-0.26004586
55	0x3d2d844a	0.04236249
56	0x3d4b5e03	0.049650203
57	0xbd06d31e	-0.03291618
58	0x3bec5e89	0.007213418
59	0xbe0f2378	-0.13978374
60	0x3e311d58	0.1729635
61	0xbe043caa	-0.12913767
62	0xbdf1bbc8	-0.118033946
63	0x3d72486e	0.059151106
64	0xbd6ac9ad	-0.05732124
65	0xbe56466c	-0.20925301
66	0xbe010409	-0.12599196
67	0x3df3f85d	0.11912606
68	0xbab150df	-0.001352813
69	0xbddbc0fb	-0.107301675
70	0x3d509e7a	0.050932385
71	0x3d9e0687	0.07716089
72	0xbe1e8cfc	-0.15483469
73	0x3cb86c67	0.022512628
74	0xbe062249	-0.13099016
75	0x3de71ca3	0.11284759
76	0xbeb336d4	-0.35002768
77	0xbccaf7eb	-0.02477642
78	0xbd52afd7	-0.051437225
79	0x3dce0a88	0.100606024
80	0x3d474574	0.04865022
81	0x3d122353	0.03567822
82	0xbd81d773	-0.06339922
83	0x3ce443bc	0.02786433
84	0xbe1019ec	-0.14072388
85	0xbe6b474d	-0.22976418
86	0xbe195326	-0.14973125
87	0x3dc0685c	0.09394905
88	0xbc8b2f51	-0.016990336
89	0xbdcb4728	-0.09925681
90	0xbea939b5	-0.3305184
91	0x3d899a0a	0.06718834
92	0x3c53ee9f	0.01293531
93	0xbd0e6e34	-0.034773067
94	0xbdf9562a	-0.121746376
95	0xbe1374c9	-0.14400019
96	0xbda064f4	-0.07831755
97	0x3d57e047	0.052704122
98	0xbe75931e	-0.23981902
99	0x3e4dac49	0.20085253
100	0xbe5ecdbb	-0.21758167
101	0xbe8f596b	-0.27997908
102	0xba151f03	-0.000568852
103	0xbdfeb2ba	-0.12436433
104	0x3d9d507e	0.07681368
105	0x3c38c88c	0.011278283
106	0x3d694ade	0.056956165
107	0xbe1d298e	-0.15347883
108	0xbecdb149	-0.4017432
109	0xbe483452	-0.19551209
110	0xbd6bcfbf	-0.05757117
111	0x3b8c8597	0.004288386
112	0xbe4fdbdd	-0.20298715
113	0xbd6f7035	-0.05845662
114	0xbec679c6	-0.3876478
115	0x3c4e019f	0.012573629
116	0xbd190a73	-0.03736348
117	0xbe37c616	-0.17946658
118	0xbe878606	-0.2646944
119	0xbdb84500	-0.08997536
120	0xbb6a8d41	-0.003578976
121	0x3db36d2f	0.087610595
122	0xbb368503	-0.0027850277
123	0x3e11af09	0.14226927
124	0xbdf799ca	-0.1208988
125	0xbd7377dc	-0.05944048
126	0xbdd21872	-0.10258569
127	0xbda59af6	-0.08086197

fc2.weight f4 [128, 130]
0	0xbddf7af6	-0.10912125
1	0xbde671e1	-0.112521894
2	0x3e0d5edb	0.13805716
3	0xbc196ddc	-0.009364571
4	0xbe122346	-0.14271268
5	0xbd8c05ee	-0.068370685
6	0xbdffd5cc	-0.124919504
7	0x3e3deb89	0.18546881
8	0x3d12dfea	0.035858072
9	0x3dda9b1a	0.106741145
10	0xbdfc555a	-0.12320967
11	0x3e477eb6	0.1948193
12	0x3e39795b	0.181127
13	0xbdd418c8	-0.10356289
14	0xbf15e2a8	-0.58548975
15	0xbb071017	-0.0020608956
16	0x3df3e267	0.11908417
17	0x3c07cf6b	0.008289198
18	0x3d9f03b5	0.07764379
19	0xbd81f867	-0.06346207
20	0xbdaa9285	-0.08328728
21	0xbe85444d	-0.26028672
22	0xbdbda236	-0.09259455
23	0x3ed0b5b6	0.40763634
24	0xbf1bd980	-0.60878754
25	0xbdd94d6a	-0.10610469
26	0x3e836d45	0.25669304
27	0xbe27cc88	-0.16386616
28	0xbddd96ae	-0.108197555
29	0xbc3944f8	-0.011307947
30	0x3d8bf28a	0.0683337
31	0x3db4e0af	0.088319175
32	0xbc7edb4e	-0.015555216
33	0xbe35caff	-0.17753218
34	0x3e42fa53	0.19040804
35	0xbe197fbe	-0.14990136
36	0xbe07f4df	-0.13277005
37	0xbf4b2cb7	-0.79365104
38	0x3e8b61dc	0.27223098
39	0x3963d043	0.0002172599
40	0xbb680702	-0.0035404568
41	0x3b97794a	0.004622613
42	0xbebefcdd	-0.37302294
43	0x3d974f64	0.073881894
44	0x3e3ba14e	0.18323252
45	0xbce06d57	-0.027395887
46	0xbeb97c88	-0.36227822
47	0xbc32ef76	-0.01092135
48	0xbd909e01	-0.07061387
49	0x3e3e60cb	0.18591611
50	0x3d0cc99c	0.034371957
51	0xbdab1075	-0.08352748
52	0xbdee3886	-0.11631875
53	0xbe300be2	-0.17192033
54	0x3e8aff36	0.27147835
55	0xbc6de305	-0.014519458
56	0xbe240cd9	-0.16020526
57	0x3d44b7fe	0.04802703
58	0x3e686679	0.2269534
59	0x3d3c07b9	0.045905802
60	0xbe8f7334	-0.2801758
61	0xbe7d5caa	-0.2474238
62	0xbe38ac1d	-0.18034406
63	0xbf6ef78f	-0.93346494
64	0x3e0e5714	0.13900405
65	0xbe899afe	-0.26876062
66	0xbe0e4f8d	-0.13897534
67	0xbea6a63c	-0.32548702
68	0xbdbb7d8b	-0.09154805
69	0xbe93b71a	-0.28850633
70	0x3e4801cb	0.19531934
71	0xbef56f3d	-0.4793643
72	0x3cd898d5	0.026440063
73	0x3e09ff9d	0.13476415
74	0x3e59b01a	0.21258584
75	0xbf03040e	-0.5117806
76	0xbe0ff70a	-0.14059082
77	0x3df06328	0.117376626
78	0x3de2c705	0.11073116
79	0x3db505f2	0.088390246
80	0xbcc233c2	-0.02370632
81	0xbbc90d66	-0.0061356304
82	0x3c99a386	0.018754732
83	0xbe8f76e0	-0.28020382
84	0x3d1c473f	0.038153883
85	0x3df524a4	0.11969879
86	0x3e46248f	0.19349883
87	0xbde31e05	-0.1108971
88	0x3d7a9eb2	0.0611865
89	0x3e9daa88	0.30794168
90	0x3c9113f6	0.017709713
91	0xbf2c43dc	-0.67291045
92	0xbd28a181	-0.041169647
93	0xbeb000a2	-0.34375483
94	0x3dbc84ea	0.09205039
95	0xbdda5cd7	-0.10662239
96	0xbea6056c	-0.32426012
97	0x3a627e9b	0.00086400815
98	0xbd12e9a5	-0.035867352
99	0xbe0fea41	-0.14054205
100	0xbe628dfa	-0.22124472
101	0x3e79be0b	0.24388902
102	0x3d9d02cb	0.07666548
103	0x3dab671a	0.083692744
104	0x3db9b9a4	0.09068611
105	0x39ca6b05	0.00038608178
106	0xbe95d1f0	-0.29261732
107	0x3e3e500b	0.18585221
108	0xbf1fb8c4	-0.62391305
109	0xbce85f01	-0.028365614
110	0x3d55d0d8	0.052201122
111	0xbf3914a9	-0.7229715
112	0xbef66c15	-0.48129335
113	0x3dc4c764	0.09608343
114	0x3e5824aa	0.21107736
115	0x3d8e5f55	0.06951777
116	0xbdbf7f9a	-0.0935051
117	0xbe908a92	-0.2823072
118	0xbe6e4711	-0.23269297
119	0x3e173375	0.14765723
120	0xbca6af4d	-0.020347262
121	0xbf0ace13	-0.54220694
122	0x3e2a2627	0.16616116
123	0x3e1e7c40	0.15477085
124	0xbd389723	-0.04506601
125	0x3cccd80d	0.025005365
126	0xbe8c732d	-0.27431622
127	0xbdccb71c	-0.09995863
128	0xbac6e2a6	-0.0015173748
129	0xbd823f2c	-0.06359705
130	0x3e06a79a	0.13149872
131	0x3e0b1a29	0.13584198
132	0xbee0aaf3	-0.43880424
133	0x3ce24841	0.027622344
134	0x3d7a8d7c	0.061170086
135	0x3d83edf4	0.0644187
136	0xbec88ff5	-0.3917233
137	0xbde807e8	-0.11329633
138	0x3da410b5	0.08010999
139	0xbda67fc9	-0.08129842
140	0xbdde3177	-0.108492784
141	0x3d2fa781	0.042884354
142	0xbeb260d1	-0.3483949
143	0xbe557ebf	-0.20849131
144	0xbf3fccaf	-0.749217
145	0xbe0a7d09	-0.1352426
146	0x3db93139	0.090425916
147	0xbe8751a1	-0.26429465
148	0xbdca09eb	-0.09865173
149	0xbd3a1101	-0.045426372
150	0xbe6f1f57	-0.23351799
151	0xbedc9ee9	-0.4308999
152	0x3dea3dfc	0.11437604
153	0xbe9df456	-0.30850476
154	0x3e051ec9	0.13000025
155	0xbe7938bc	-0.24338049
156	0xbe8e9c24	-0.278535
157	0xbda13c35	-0.07872812
158	0x3cf40167	0.029785825
159	0x3d1ca692	0.03824479
160	0xbe0a2951	-0.13492323
161	0xbd541e0e	-0.051786475
162	0x3dbfcbbf	0.09365033
163	0xbe8fdc8b	-0.28097948
164	0x3a183634	0.0005806417
165	0xbebf0ce0	-0.3731451
166	0xbd045a8e	-0.032312922
167	0x3e0c69fb	0.13712303
168	0xbdab1411	-0.08353437
169	0xbdb5cc48	-0.08876854
170	0xbe7a050c	-0.24415988
171	0xbf341336	-0.70341814
172	0xbd76eef5	-0.06028648
173	0x3cfc7120	0.030815661
174	0xbe523baf	-0.2053058
175	0x3de41c69	0.11138231
176	0xbe1b16a7	-0.1514536
177	0xbb815c5f	-0.003947779
178	0xbf2bedb2	-0.6715957
179	0xbe296e3c	-0.16545957
180	0xbdcc6f05	-0.09982113
181	0xbceeaac4	-0.029134162
182	0xbc5b6d8c	-0.013392817
183	0xbe46317c	-0.19354814
184	0xbecd4144	-0.40088856
185	0xbe3a9670	-0.1822145
186	0x3ddce888	0.10786539
187	0x3db23a59	0.08702535
188	0x3d292356	0.041293465
189	0xbe029d3d	-0.12755294
190	0x3e1234ec	0.14278
191	0xbc6da1d3	-0.014503914
192	0xbe6b3503	-0.22969441
193	0xbe577989	-0.21042456
194	0x3e2bf331	0.16791989
195	0xbda8439f	-0.08216023
196	0xbdf48dbe	-0.11941098
197	0x3dae8c07	0.08522802
198	0xbe1d8817	-0.15383945
199	0xbee5304e	-0.44763416
200	0xbea2f313	-0.31826076
201	0xbe6b11c2	-0.22955993
202	0x3e90000c	0.28125036
203	0xbbfdb1c1	-0.007742137
204	0xbeaa2846	-0.3323385
205	0x3dc972e1	0.098363645
206	0x3d63bb14	0.055598333
207	0xbea1f116	-0.31629246
208	0xbdc00f2a	-0.09377892
209	0xbdd685e5	-0.10474757
210	0xbe17954f	-0.1480305
211	0xbcbc4910	-0.022984058
212	0xbef97bc3	-0.48727235
213	0x3de6138b	0.11234196
214	0xbed96ec0	-0.42467308
215	0x3ccd82ab	0.025086721
216	0xbda6d533	-0.08146133
217	0xbebcad5c	-0.36851013
218	0x3e329a3c	0.17441648
219	0xbd8a4a0a	-0.06752403
220	0x3d535588	0.05159524
221	0xbc2b9cba	-0.010474378
222	0xbf840f0e	-1.0317094
223	0x3c8c02d0	0.017091185
224	0xbe2cc4c5	-0.16871937
225	0xbe8c4137	-0.27393505
226	0xbc979e0f	-0.018507985
227	0xbe6567b3	-0.2240284
228	0x3d75641f	0.059909936
229	0xbe7d81d1	-0.24756552
230	0x3d009beb	0.031398695
231	0xbd7c696c	-0.061623976
232	0xbdb2c30c	-0.087286085
233	0x3bb2a410	0.0054516867
234	0xbed26e43	-0.41099748
235	0xbe7d5327	-0.24738751
236	0xbc26b45b	-0.010174836
237	0xbef54d19	-0.47910383
238	0x3aecf49c	0.001807827
239	0xbe0b0332	-0.13575438
240	0xbdbb86d3	-0.09156575
241	0x3dc070a2	0.09396483
242	0xbe6b4304	-0.22974783
243	0xbe05ec31	-0.13078381
244	0xbdd495c4	-0.10380128
245	0xbe29fe13	-0.16600828
246	0xbee9184e	-0.45526356
247	0xbef49eb6	-0.47777337
248	0x3ce3a88f	0.027790336
249	0xbaff432a	-0.0019474973
250	0xbea5a397	-0.32351372
251	0x3da41794	0.0801231
252	0xbe2bdce1	-0.16783477
253	0x3d1d0655	0.038336117
254	0x3dc7a144	0.09747556
255	0xbe9020af	-0.28149936

fc2.bias f4 [128]
0	0xbe33294f	-0.17496227
1	0xbd4f8439	-0.050663207
2	0x3e0eb640	0.1393671
3	0x3de52c37	0.11190074
4	0x3d43304a	0.047653474
5	0xbdc15db5	-0.09441701
6	0x3a8b00cb	0.0010605095
7	0xbe53a45d	-0.20668168
8	0xbceebdbe	-0.02914321
9	0x3da998c0	0.08281088
10	0xbdc14107	-0.09436231
11	0xbe1e933a	-0.1548585
12	0xbceb10f9	-0.028694617
13	0xbdba0a6f	-0.09084021
14	0xbe0ae490	-0.13563752
15	0xbd9da802	-0.076980606
16	0x3c4735e9	0.012158849
17	0xbd6611e2	-0.056169398
18	0xbde1d975	-0.11027805
19	0xbe06a52f	-0.1314895
20	0x3e16898b	0.14700906
21	0xbda9e6af	-0.082959525
22	0xbe02decc	-0.12780303
23	0xbe3255cd	-0.17415543
24	0xbdd7957d	-0.105265595
25	0xbd856af9	-0.06514544
26	0xbd8de302	-0.06928064
27	0x3de1691b	0.110063754
28	0x3d520fc7	0.051284578
29	0xbd894b92	-0.06703867
30	0xbe2c01a5	-0.16797502
31	0xbd9c3869	-0.07627947
32	0xbb1ae929	-0.002363751
33	0xbad65b0e	-0.0016354041
34	0xbdf2fb7a	-0.118643716
35	0x3cbb6bfd	0.022878641
36	0x3cf8ece0	0.030386388
37	0xbe01212d	-0.12610312
38	0xbdb0e5dd	-0.08637593
39	0x3d429140	0.047501802
40	0xbd63072c	-0.05542676
41	0x3deaf16b	0.11471828
42	0x3dd030cd	0.10165558
43	0xbdb31603	-0.08744433
44	0xbd0c014c	-0.034180924
45	0x3d243cc1	0.040097002
46	0xbe2695b4	-0.16268045
47	0xbd68bc1e	-0.056820028
48	0x3df7ffae	0.12109314
49	0xbd236606	-0.03989222
50	0x3e4a7034	0.19769365
51	0xbdde2ee8	-0.108487904
52	0xbd988f77	-0.07449239
53	0x3cb8e557	0.022570295
54	0xbd889a9d	-0.06670115
55	0xbda1e37b	-0.079047166
56	0xbc195ff2	-0.009361254
57	0x3db6bc2c	0.0892261
58	0x3ceee9e5	0.029164264
59	0x3dd6abbb	0.10481974
60	0xbe02d4ba	-0.12776461
61	0xbc32b8ac	-0.010908287
62	0xbdf700f7	-0.12060731
63	0xbdb8d5f3	-0.090251826
64	0xbcab8e5e	-0.02094191
65	0xbd7193f7	-0.058979
66	0xbc99a8e8	-0.018757299
67	0x3decffb5	0.1157221
68	0x3d8f4296	0.06995122
69	0xbc5697aa	-0.013097683
70	0xbdbb9634	-0.09159508
71	0x3d9fadfb	0.07796856
72	0x3d861a49	0.06547982
73	0xbda6c83a	-0.08143659
74	0xbe16d390	-0.14729142
75	0xbdfcd291	-0.1234485
76	0xbdf5ef06	-0.12008481
77	0xbdb61ef8	-0.088926256
78	0xbdf160fb	-0.11786076
79	0xbbddc00b	-0.006767278
80	0xbdc737ac	-0.097274154
81	0xbe00540f	-0.12532066
82	0xbd246987	-0.0401397
83	0xbd902933	-0.07039108
84	0xbd74d3e3	-0.059772383
85	0xbda9fd40	-0.08300257
86	0x3cb80593	0.022463595
87	0xbcba22e8	-0.022721723
88	0xbdda9531	-0.10672987
89	0x3c1d92e1	0.009617538
90	0xbd3ba93b	-0.045815688
91	0xbd11bfb9	-0.03558323
92	0x3e8c13c8	0.27358842
93	0xbcd5b174	-0.026085593
94	0x3ddcde95	0.10784642
95	0xbe01e97a	-0.1268672
96	0xbc54dc77	-0.012992016
97	0x3e2fa5bb	0.17153065
98	0x3ddcf3da	0.107886985
99	0xbdd3d203	-0.10342791
100	0xbe1457f8	-0.14486682
101	0xbe373dd1	-0.17894675
102	0xbe26c800	-0.16287231
103	0xbd4ae6c6	-0.04953649
104	0xbda53ffd	-0.080688454
105	0xbd88f0bf	-0.06686544
106	0xba0793bd	-0.0005171856
107	0x3da8fa80	0.08250904
108	0x3dc6f748	0.09715134
109	0xbe6bfba0	-0.23045206
110	0xbdbd1329	-0.0923217
111	0xbcb2cb39	-0.02182542
112	0x3dc9f7bc	0.09861705
113	0x3c447583	0.011990908
114	0xbdaa8ce3	-0.08327653
115	0xbe509dea	-0.2037274
116	0xbe07e562	-0.13271096
117	0x3c88b96f	0.016689984
118	0xbe0d7a49	-0.1381618
119	0xbc5411a6	-0.012943661
120	0xbdc4299a	-0.09578247
121	0x3e305106	0.17218408
122	0xbda6c592	-0.08143152
123	0x3dae7115	0.085176624
124	0xbccd9895	-0.02509717
125	0xbd5e828f	-0.05432373
126	0xbbb027b8	-0.0053758286
127	0xbcecd990	-0.028912336

fc5.weight f4 [1, 128]
0	0xbdd2ae01	-0.10287095
1	0xbe2e3980	-0.17014122
2	0x3da2ec61	0.07955242
3	0x3ee9a604	0.45634472
4	0xbe166ca4	-0.1468988
5	0x3b930743	0.0044869496
6	0x3b8d1ad6	0.0043061776
7	0xbe2f0372	-0.17091158
8	0xb9ccefa1	-0.0003908845
9	0xbde7289f	-0.11287045
10	0x3c55dcfe	0.013053177
11	0xbd66cbd4	-0.05634673
12	0xbddcd4bf	-0.107827656
13	0xbafe894c	-0.001941958
14	0x3be36bc4	0.006940337
15	0xbc3d5d89	-0.011557945
16	0xbe609b64	-0.21934277
17	0xba8bc8cb	-0.0010664699
18	0xbb53a1b2	-0.0032292423
19	0x3e8e972c	0.2784971
20	0xbe1f211f	-0.15539978
21	0x3cdc1e05	0.026869783
22	0x3b477ea2	0.003044047
23	0xbe02b5d2	-0.12764671
24	0x3c0c5ec0	0.008567512
25	0x3c66b33f	0.014080822
26	0x3bc52813	0.00601674
27	0x3e464863	0.19363551
28	0xbdf246da	-0.1182992
29	0x3e08d032	0.1336067
30	0x3d2af00e	0.04173284
31	0xbcc24352	-0.023713741
32	0xbc26bf8f	-0.010177507
33	0xbd70fcf4	-0.058834985
34	0x3cb3bc26	0.021940302
35	0xbe7499a1	-0.2388673
36	0xbe1595f1	-0.1460798
37	0xbdede9e7	-0.11616879
38	0xbb3d0806	-0.0028843894
39	0xbe76fd96	-0.24120173
40	0x3ae67f08	0.0017585466
41	0x3d5e661c	0.054296598
42	0xbdfbaab8	-0.122884214
43	0xbbf73f51	-0.0075453897
44	0x3c4f8359	0.012665593
45	0x3d991f06	0.074766204
46	0xbe304e43	-0.17217354
47	0x3c68c584	0.014207248
48	0xbdd71377	-0.105017595
49	0xbd8b36db	-0.06797572
50	0x3ec5b822	0.38617045
51	0xbde6624d	-0.11249218
52	0x3e04c71d	0.1296658
53	0xbde45fcf	-0.111510865
54	0xbd7f0685	-0.062262077
55	0x3b49e597	0.0030807012
56	0xbdd6bffc	-0.10485837
57	0xbde42024	-0.11138943
58	0xbef7732f	-0.48330066
59	0xbd89f3f5	-0.06735984
60	0x3ced0385	0.028932342
61	0xbdada1c0	-0.08478117
62	0xbe481a82	-0.19541362
63	0xbcad0e8c	-0.0211251
64	0xbbbddc72	-0.0057941014
65	0xbc99feac	-0.018798195
66	0xbcec4568	-0.02884169
67	0xbd83a89c	-0.06428644
68	0xbe0ec3e2	-0.13941911
69	0xbc40ac7b	-0.011759873
70	0xbbbbc341	-0.005730063
71	0x3e893dce	0.26804966
72	0x3ece8b78	0.4034078
73	0x3c2834fd	0.01026654
74	0xbec10f9d	-0.37707224
75	0x3aa1ebbf	0.0012353583
76	0xbe44fb6c	-0.19236535
77	0x3bce4964	0.00629537
78	0x3cc5dd97	0.024153514
79	0xbb22a7e7	-0.0024819316
80	0x3d157539	0.036488745
81	0xbbc84b39	-0.006112483
82	0xbc2350e5	-0.009968017
83	0x3c2f689e	0.010706095
84	0x3c095e29	0.008384266
85	0xbc06c0a9	-0.008224645
86	0xbecef2b6	-0.4041955
87	0x3e190533	0.1494339
88	0x3c97325f	0.018456636
89	0xbaae3ed3	-0.001329387
90	0x3b256ae6	0.0025240718
91	0xbb417739	-0.0029520525
92	0xbdda20ed	-0.10650811
93	0xbd1faea0	-0.038984895
94	0x3e5a91e3	0.21344714
95	0xbba067bc	-0.0048951786
96	0x3c0af331	0.008480833
97	0x3def2341	0.11676646
98	0xbe169f8c	-0.147093
99	0x3d1a9765	0.037742037
100	0x3ab3ea2c	0.0013726405
101	0xbd9644c7	-0.07337337
102	0x3e42ce9f	0.19024132
103	0xbc9484dc	-0.018129759
104	0xbd72a0e2	-0.05923546
105	0xbb326442	-0.0027220403
106	0xbe566fc4	-0.20941073
107	0xbd51374d	-0.05107813
108	0xbe5e1cd4	-0.21690685
109	0xbdc4b815	-0.09605423
110	0xbced4f72	-0.028968547
111	0xbdc46d56	-0.09591167
112	0xbebd72ca	-0.3700164
113	0xbdb16fc7	-0.08663898
114	0xbdded337	-0.1088013
115	0xbe378365	-0.17921217
116	0xbe00e6b1	-0.12588002
117	0xbda61e07	-0.08111196
118	0x3a56c79f	0.0008193198
119	0x3c4b7082	0.012416961
120	0xbc8ebdf7	-0.017424567
121	0x3db51afd	0.08843038
122	0x3cb105c9	0.021609204
123	0xbdc68e1e	-0.096950755
124	0xba50c6f5	-0.0007964217
125	0x3b81f699	0.0039661643
126	0x3c8abab8	0.016934738
127	0xbc9d70bf	-0.0192188

bn0.weight f4 [24]
0	0x3e27d47c	0.1638965
1	0x3ea7caea	0.32772
2	0x3a271f72	0.000637523
3	0x3c635cf7	0.013877145
4	0x3f839026	1.0278366
5	0x3f2b9614	0.67025876
6	0x3d804c37	0.06264537
7	0x3dbe44ac	0.09290442
8	0x3dbdabd8	0.09261292
9	0xbb824dd4	-0.003976563
10	0x3dbf7cf7	0.09350007
11	0x3b6a01c6	0.0035706623
12	0x3ee9c8f2	0.45661122
13	0x3e918306	0.28420275
14	0x3b89c6ae	0.0042045927
15	0x3df85bd9	0.121268936
16	0x3ea9d951	0.33173612
17	0x3ea69fe9	0.32543877
18	0x3dda7baa	0.10668118
19	0x3e0ac6c3	0.13552384
20	0x3f3b5e2f	0.7319059
21	0x3ee6217e	0.44947428
22	0x3d3a3c16	0.04546746
23	0x3e46bd1b	0.19408076

bn0.bias f4 [24]
0	0xba935d0b	-0.0011242939
1	0x3db5f211	0.08884061
2	0x39e9457e	0.00044493
3	0x3af939bb	0.0019014397
4	0x3e33eb26	0.17570171
5	0x3e7018df	0.23446988
6	0x3b9c2fdd	0.004766448
7	0xbbf88c8d	-0.0075851143
8	0xbcd60e7b	-0.026129952
9	0xbacd2aba	-0.0015652992
10	0xbbf9cbbd	-0.0076231644
11	0xbaa98cea	-0.0012935672
12	0x3e21def2	0.15807703
13	0x3de2d26d	0.11075292
14	0xbbdea228	-0.006794233
15	0xbc5fb9cb	-0.013655136
16	0xbe04fb9c	-0.12986606
17	0x3dbc8f9d	0.092070796
18	0xbb85a07c	-0.004077969
19	0xbac0f7fd	-0.0014722344
20	0x3cb8d234	0.02256117
21	0x3d76197c	0.060082898
22	0x3bf0f18a	0.0073530125
23	0xbc96c45c	-0.018404178

bn0.running_mean f4 [24]
0	0xc0d14377	-6.5394855
1	0xbf8e3f52	-1.1113074
2	0x40229016	2.5400443
3	0xbd527a87	-0.051386382
4	0x00000000	0.0
5	0x401b5c41	2.4275057
6	0x40229016	2.5400443
7	0xbd527a87	-0.051386382
8	0xc0d45772	-6.6356745
9	0xbf916c4c	-1.1361175
10	0x402d4def	2.7078817
11	0xbdce6312	-0.1007749
12	0x00000000	0.0
13	0x40169c4d	2.3532898
14	0x402d4def	2.7078817
15	0xbdce6312	-0.1007749
16	0xc0db60bc	-6.8555584
17	0xbf972e53	-1.1811012
18	0x4021e49f	2.529579
19	0xbda028f7	-0.078203134
20	0x00000000	0.0
21	0x4015e482	2.342072
22	0x4021e49f	2.529579
23	0xbda028f7	-0.078203134

bn0.running_var f4 [24]
0	0x41617784	14.091679
1	0x3f7f846c	0.99811435
2	0x4385434f	266.52585
3	0x40c6ea11	6.2160726
4	0x420490de	33.14147
5	0x4080ecd6	4.0289106
6	0x4385434f	266.52585
7	0x40c6ea11	6.2160726
8	0x415a45a0	13.641998
9	0x3f7f1b32	0.9965087
10	0x438188b7	259.06808
11	0x40cd46ae	6.414878
12	0x420959d9	34.33774
13	0x4085fb11	4.1868978
14	0x438188b7	259.06808
15	0x40cd46ae	6.414878
16	0x414a4d7a	12.643915
17	0x3f783509	0.96955925
18	0x43869d30	269.22803
19	0x40d3de7b	6.6209083
20	0x421195d5	36.39632
21	0x40937875	4.608454
22	0x43869d30	269.22803
23	0x40d3de7b	6.6209083

bn1.weight f4 [128]
0	0x3f3ba30e	0.73295677
1	0x3f7c3d08	0.98530626
2	0x3e714910	0.23563027
3	0x3dea4b88	0.11440188
4	0x3e45e8fc	0.19327158
5	0x3f621e30	0.8832731
6	0x3dab6468	0.0836876
7	0x3f5acd56	0.8546957
8	0x3ee716bc	0.45134532
9	0x3f4d1831	0.8011504
10	0x3f4cd9e7	0.8001999
11	0x3f5c62e3	0.8608839
12	0x3f034a8b	0.5128562
13	0x3f5b2100	0.8559723
14	0x3ed89dc2	0.4230786
15	0x3f706af6	0.9391321
16	0x3f782159	0.96925884
17	0x3f551a2b	0.83243054
18	0x3eb6adf0	0.3567958
19	0x3f3ae16c	0.73000216
20	0x3f1d3193	0.6140377
21	0x3f473061	0.77808195
22	0x3e9dd016	0.3082282
23	0x3eb07746	0.34465998
24	0x3f053091	0.5202723
25	0x3efda38a	0.49538833
26	0x3e58c71c	0.21169704
27	0x3eaf71fe	0.34266657
28	0x3e836ad2	0.25667435
29	0x3f257fe9	0.646483
30	0x3f5e77df	0.8690166
31	0x3e5c5134	0.21515352
32	0x3f5345b1	0.82528216
33	0x3f6655a5	0.89974433
34	0x3f48743f	0.7830238
35	0x3f0e6ffb	0.5563962
36	0x3f2b4138	0.6689639
37	0x3da93d00	0.08263588
38	0x3ed35554	0.41276038
39	0x3f300e52	0.6877185
40	0x3f628574	0.88484883
41	0x3f251b66	0.6449493
42	0x3f26076d	0.6485508
43	0x3e253a58	0.16135538
44	0x3f449506	0.7678989
45	0x3f578c91	0.8419886
46	0x3f1fe5c8	0.62459993
47	0x3ec4939c	0.38393867
48	0x3f37ddc2	0.7182275
49	0x3ee75982	0.45185477
50	0x3eec1e82	0.46117026
51	0x3f0cb8ba	0.5496937
52	0x3e87d32e	0.26528305
53	0x3ec62bd0	0.387053
54	0x3f0187e9	0.5059801
55	0x3f3755a5	0.7161506
56	0x3e202814	0.15640289
57	0x3f3e364f	0.7430162
58	0x3f31a4a4	0.69391847
59	0x3f5eb9b4	0.8700211
60	0x3f58d524	0.84700227
61	0x3f0dd0ec	0.55396914
62	0x3eee3f94	0.4653288
63	0x3f663631	0.8992644
64	0x3eac38cc	0.33637083
65	0x3f1232f7	0.57109016
66	0x3f7c746a	0.98615134
67	0x3e67bd64	0.2263084
68	0x3e892780	0.2678795
69	0x3f1a3166	0.60231626
70	0x3f50e280	0.8159561
71	0x3d661810	0.05617529
72	0x3ebb0cee	0.36533302
73	0x3f130df6	0.5744318
74	0x3f2d8ea6	0.6779579
75	0x3f7350e4	0.95045304
76	0x3ef52a7c	0.47883976
77	0x3f103304	0.56327844
78	0x3e038d54	0.12846881
79	0x3da9e410	0.082954526
80	0x3cff7b80	0.03118682
81	0x3f37c958	0.717916
82	0x3f3356c0	0.70054245
83	0x3f09c708	0.5381932
84	0x3ef5c28e	0.47999996
85	0x3f7356db	0.95054406
86	0x3e3820a4	0.17981201
87	0x3f742a05	0.95376617
88	0x3f08ebe2	0.5348493
89	0x3eb1ce98	0.3472793
90	0x3e5da1f4	0.21643811
91	0x3f41eac3	0.7574884
92	0x3f5f3b42	0.87199795
93	0x3f13ed0c	0.5778358
94	0x3d96b410	0.07358563
95	0x3eb0659e	0.34452528
96	0x3eef937c	0.4679221
97	0x3e6a59ec	0.22885865
98	0x3e9cbdfc	0.30613697
99	0x3e3b7484	0.18306166
100	0x3f27004d	0.65234834
101	0x3f1f94a0	0.6233616
102	0x3e80506c	0.25061357
103	0x3ef320e6	0.47486037
104	0x3f6ff2c1	0.9372979
105	0x3ec5a9c4	0.38606083
106	0x3efea1b8	0.49732757
107	0x3f12456e	0.5713719
108	0x3f769ba7	0.96331257
109	0x3f3c2c1c	0.73504806
110	0x3f145054	0.5793507
111	0x3f715e24	0.9428427
112	0x3ed0903c	0.40735042
113	0x3f7ba706	0.9830173
114	0x3f20cb80	0.62810516
115	0x3e2f119c	0.17096561
116	0x3d8c79f8	0.06859201
117	0x3ed04474	0.40677226
118	0x3db67070	0.089081645
119	0x3ee2bf84	0.4428674
120	0x3f23efda	0.6403786
121	0x3ebb55f8	0.36589026
122	0x3db078f0	0.08616817
123	0x3f5d1980	0.86367035
124	0x3d1bcbd0	0.038036168
125	0x3e6857d0	0.22689748
126	0x3ef0edc0	0.4705639
127	0x3ee47618	0.44621348

bn1.bias f4 [128]
0	0x00000000	0.0
1	0x00000000	0.0
2	0x00000000	0.0
3	0x00000000	0.0
4	0x00000000	0.0
5	0x00000000	0.0
6	0x00000000	0.0
7	0x00000000	0.0
8	0x00000000	0.0
9	0x00000000	0.0
10	0x00000000	0.0
11	0x00000000	0.0
12	0x00000000	0.0
13	0x00000000	0.0
14	0x00000000	0.0
15	0x00000000	0.0
16	0x00000000	0.0
17	0x00000000	0.0
18	0x00000000	0.0
19	0x00000000	0.0
20	0x00000000	0.0
21	0x00000000	0.0
22	0x00000000	0.0
23	0x00000000	0.0
24	0x00000000	0.0
25	0x00000000	0.0
26	0x00000000	0.0
27	0x00000000	0.0
28	0x00000000	0.0
29	0x00000000	0.0
30	0x00000000	0.0
31	0x00000000	0.0
32	0x00000000	0.0
33	0x00000000	0.0
34	0x00000000	0.0
35	0x00000000	0.0
36	0x00000000	0.0
37	0x00000000	0.0
38	0x00000000	0.0
39	0x00000000	0.0
40	0x00000000	0.0
41	0x00000000	0.0
42	0x00000000	0.0
43	0x00000000	0.0
44	0x00000000	0.0
45	0x00000000	0.0
46	0x00000000	0.0
47	0x00000000	0.0
48	0x00000000	0.0
49	0x00000000	0.0
50	0x00000000	0.0
51	0x00000000	0.0
52	0x00000000	0.0
53	0x00000000	0.0
54	0x00000000	0.0
55	0x00000000	0.0
56	0x00000000	0.0
57	0x00000000	0.0
58	0x00000000	0.0
59	0x00000000	0.0
60	0x00000000	0.0
61	0x00000000	0.0
62	0x00000000	0.0
63	0x00000000	0.0
64	0x00000000	0.0
65	0x00000000	0.0
66	0x00000000	0.0
67	0x00000000	0.0
68	0x00000000	0.0
69	0x00000000	0.0
70	0x00000000	0.0
71	0x00000000	0.0
72	0x00000000	0.0
73	0x00000000	0.0
74	0x00000000	0.0
75	0x00000000	0.0
76	0x00000000	0.0
77	0x00000000	0.0
78	0x00000000	0.0
79	0x00000000	0.0
80	0x00000000	0.0
81	0x00000000	0.0
82	0x00000000	0.0
83	0x00000000	0.0
84	0x00000000	0.0
85	0x00000000	0.0
86	0x00000000	0.0
87	0x00000000	0.0
88	0x00000000	0.0
89	0x00000000	0.0
90	0x00000000	0.0
91	0x00000000	0.0
92	0x00000000	0.0
93	0x00000000	0.0
94	0x00000000	0.0
95	0x00000000	0.0
96	0x00000000	0.0
97	0x00000000	0.0
98	0x00000000	0.0
99	0x00000000	0.0
100	0x00000000	0.0
101	0x00000000	0.0
102	0x00000000	0.0
103	0x00000000	0.0
104	0x00000000	0.0
105	0x00000000	0.0
106	0x00000000	0.0
107	0x00000000	0.0
108	0x00000000	0.0
109	0x00000000	0.0
110	0x00000000	0.0
111	0x00000000	0.0
112	0x00000000	0.0
113	0x00000000	0.0
114	0x00000000	0.0
115	0x00000000	0.0
116	0x00000000	0.0
117	0x00000000	0.0
118	0x00000000	0.0
119	0x00000000	0.0
120	0x00000000	0.0
121	0x00000000	0.0
122	0x00000000	0.0
123	0x00000000	0.0
124	0x00000000	0.0
125	0x00000000	0.0
126	0x00000000	0.0
127	0x00000000	0.0

bn1.running_mean f4 [128]
0	0x00000000	0.0
1	0x00000000	0.0
2	0x00000000	0.0
3	0x00000000	0.0
4	0x00000000	0.0
5	0x00000000	0.0
6	0x00000000	0.0
7	0x00000000	0.0
8	0x00000000	0.0
9	0x00000000	0.0
10	0x00000000	0.0
11	0x00000000	0.0
12	0x00000000	0.0
13	0x00000000	0.0
14	0x00000000	0.0
15	0x00000000	0.0
16	0x00000000	0.0
17	0x00000000	0.0
18	0x00000000	0.0
19	0x00000000	0.0
20	0x00000000	0.0
21	0x00000000	0.0
22	0x00000000	0.0
23	0x00000000	0.0
24	0x00000000	0.0
25	0x00000000	0.0
26	0x00000000	0.0
27	0x00000000	0.0
28	0x00000000	0.0
29	0x00000000	0.0
30	0x00000000	0.0
31	0x00000000	0.0
32	0x00000000	0.0
33	0x00000000	0.0
34	0x00000000	0.0
35	0x00000000	0.0
36	0x00000000	0.0
37	0x00000000	0.0
38	0x00000000	0.0
39	0x00000000	0.0
40	0x00000000	0.0
41	0x00000000	0.0
42	0x00000000	0.0
43	0x00000000	0.0
44	0x00000000	0.0
45	0x00000000	0.0
46	0x00000000	0.0
47	0x00000000	0.0
48	0x00000000	0.0
49	0x00000000	0.0
50	0x00000000	0.0
51	0x00000000	0.0
52	0x00000000	0.0
53	0x00000000	0.0
54	0x00000000	0.0
55	0x00000000	0.0
56	0x00000000	0.0
57	0x00000000	0.0
58	0x00000000	0.0
59	0x00000000	0.0
60	0x00000000	0.0
61	0x00000000	0.0
62	0x00000000	0.0
63	0x00000000	0.0
64	0x00000000	0.0
65	0x00000000	0.0
66	0x00000000	0.0
67	0x00000000	0.0
68	0x00000000	0.0
69	0x00000000	0.0
70	0x00000000	0.0
71	0x00000000	0.0
72	0x00000000	0.0
73	0x00000000	0.0
74	0x00000000	0.0
75	0x00000000	0.0
76	0x00000000	0.0
77	0x00000000	0.0
78	0x00000000	0.0
79	0x00000000	0.0
80	0x00000000	0.0
81	0x00000000	0.0
82	0x00000000	0.0
83	0x00000000	0.0
84	0x00000000	0.0
85	0x00000000	0.0
86	0x00000000	0.0
87	0x00000000	0.0
88	0x00000000	0.0
89	0x00000000	0.0
90	0x00000000	0.0
91	0x00000000	0.0
92	0x00000000	0.0
93	0x00000000	0.0
94	0x00000000	0.0
95	0x00000000	0.0
96	0x00000000	0.0
97	0x00000000	0.0
98	0x00000000	0.0
99	0x00000000	0.0
100	0x00000000	0.0
101	0x00000000	0.0
102	0x00000000	0.0
103	0x00000000	0.0
104	0x00000000	0.0
105	0x00000000	0.0
106	0x00000000	0.0
107	0x00000000	0.0
108	0x00000000	0.0
109	0x00000000	0.0
110	0x00000000	0.0
111	0x00000000	0.0
112	0x00000000	0.0
113	0x00000000	0.0
114	0x00000000	0.0
115	0x00000000	0.0
116	0x00000000	0.0
117	0x00000000	0.0
118	0x00000000	0.0
119	0x00000000	0.0
120	0x00000000	0.0
121	0x00000000	0.0
122	0x00000000	0.0
123	0x00000000	0.0
124	0x00000000	0.0
125	0x00000000	0.0
126	0x00000000	0.0
127	0x00000000	0.0

bn1.running_var f4 [128]
0	0x3f800000	1.0
1	0x3f800000	1.0
2	0x3f800000	1.0
3	0x3f800000	1.0
4	0x3f800000	1.0
5	0x3f800000	1.0
6	0x3f800000	1.0
7	0x3f800000	1.0
8	0x3f800000	1.0
9	0x3f800000	1.0
10	0x3f800000	1.0
11	0x3f800000	1.0
12	0x3f800000	1.0
13	0x3f800000	1.0
14	0x3f800000	1.0
15	0x3f800000	1.0
16	0x3f800000	1.0
17	0x3f800000	1.0
18	0x3f800000	1.0
19	0x3f800000	1.0
20	0x3f800000	1.0
21	0x3f800000	1.0
22	0x3f800000	1.0
23	0x3f800000	1.0
24	0x3f800000	1.0
25	0x3f800000	1.0
26	0x3f800000	1.0
27	0x3f800000	1.0
28	0x3f800000	1.0
29	0x3f800000	1.0
30	0x3f800000	1.0
31	0x3f800000	1.0
32	0x3f800000	1.0
33	0x3f800000	1.0
34	0x3f800000	1.0
35	0x3f800000	1.0
36	0x3f800000	1.0
37	0x3f800000	1.0
38	0x3f800000	1.0
39	0x3f800000	1.0
40	0x3f800000	1.0
41	0x3f800000	1.0
42	0x3f800000	1.0
43	0x3f800000	1.0
44	0x3f800000	1.0
45	0x3f800000	1.0
46	0x3f800000	1.0
47	0x3f800000	1.0
48	0x3f800000	1.0
49	0x3f800000	1.0
50	0x3f800000	1.0
51	0x3f800000	1.0
52	0x3f800000	1.0
53	0x3f800000	1.0
54	0x3f800000	1.0
55	0x3f800000	1.0
56	0x3f800000	1.0
57	0x3f800000	1.0
58	0x3f800000	1.0
59	0x3f800000	1.0
60	0x3f800000	1.0
61	0x3f800000	1.0
62	0x3f800000	1.0
63	0x3f800000	1.0
64	0x3f800000	1.0
65	0x3f800000	1.0
66	0x3f800000	1.0
67	0x3f800000	1.0
68	0x3f800000	1.0
69	0x3f800000	1.0
70	0x3f800000	1.0
71	0x3f800000	1.0
72	0x3f800000	1.0
73	0x3f800000	1.0
74	0x3f800000	1.0
75	0x3f800000	1.0
76	0x3f800000	1.0
77	0x3f800000	1.0
78	0x3f800000	1.0
79	0x3f800000	1.0
80	0x3f800000	1.0
81	0x3f800000	1.0
82	0x3f800000	1.0
83	0x3f800000	1.0
84	0x3f800000	1.0
85	0x3f800000	1.0
86	0x3f800000	1.0
87	0x3f800000	1.0
88	0x3f800000	1.0
89	0x3f800000	1.0
90	0x3f800000	1.0
91	0x3f800000	1.0
92	0x3f800000	1.0
93	0x3f800000	1.0
94	0x3f800000	1.0
95	0x3f800000	1.0
96	0x3f800000	1.0
97	0x3f800000	1.0
98	0x3f800000	1.0
99	0x3f800000	1.0
100	0x3f800000	1.0
101	0x3f800000	1.0
102	0x3f800000	1.0
103	0x3f800000	1.0
104	0x3f800000	1.0
105	0x3f800000	1.0
106	0x3f800000	1.0
107	0x3f800000	1.0
108	0x3f800000	1.0
109	0x3f800000	1.0
110	0x3f800000	1.0
111	0x3f800000	1.0
112	0x3f800000	1.0
113	0x3f800000	1.0
114	0x3f800000	1.0
115	0x3f800000	1.0
116	0x3f800000	1.0
117	0x3f800000	1.0
118	0x3f800000	1.0
119	0x3f800000	1.0
120	0x3f800000	1.0
121	0x3f800000	1.0
122	0x3f800000	1.0
123	0x3f800000	1.0
124	0x3f800000	1.0
125	0x3f800000	1.0
126	0x3f800000	1.0
127	0x3f800000	1.0

bn2.weight f4 [128]
0	0x3e6de7a4	0.23232895
1	0x3f054bb4	0.5206864
2	0x3f2554ee	0.6458272
3	0x3edf88b2	0.43658978
4	0x3e6f1cf0	0.23350883
5	0x3f1ebc9d	0.6200655
6	0x3ebcb27c	0.36854923
7	0x3dc0e480	0.09418583
8	0x3f1a73b9	0.6033283
9	0x3f4f373b	0.8094365
10	0x3f049b2d	0.5179928
11	0x3f6ed665	0.9329589
12	0x3f6415c8	0.89095736
13	0x3d387e00	0.045042038
14	0x3d9d1838	0.07670635
15	0x3e55d1e4	0.20880848
16	0x3eb6a74a	0.35674506
17	0x3f30d8dd	0.6908091
18	0x3ed09274	0.40736735
19	0x3f3f227d	0.74662
20	0x3f22038b	0.63286656
21	0x3df0b810	0.11753857
22	0x3ea101b2	0.31446606
23	0x3e84f720	0.2596979
24	0x3ee131f0	0.43983412
25	0x3f77351f	0.9656543
26	0x3f53b856	0.8270315
27	0x3e0e7dbc	0.13915151
28	0x3f198d66	0.5998138
29	0x3f06c194	0.52639127
30	0x3d1aab40	0.037760973
31	0x3dd70cf8	0.105005205
32	0x3f082fa9	0.53197724
33	0x3f1164b0	0.5679426
34	0x3f0541a9	0.52053314
35	0x3eca3bc0	0.3949871
36	0x3e76a604	0.24086767
37	0x3e113768	0.14181292
38	0x3edd0492	0.4316755
39	0x3f7e9d4f	0.99458784
40	0x3d62d600	0.055379868
41	0x3f5068b1	0.81409746
42	0x3f73c2bf	0.95219034
43	0x3f5e7df0	0.86910915
44	0x3d95e2a0	0.07318616
45	0x3f6ffe8e	0.93747795
46	0x3e9d307c	0.30701053
47	0x3f7a58c2	0.97791684
48	0x3e6bfca8	0.230456
49	0x3f7488bf	0.9552116
50	0x3f09cc31	0.53827196
51	0x3f500315	0.812547
52	0x3f4be1de	0.7964152
53	0x3dacf880	0.08445835
54	0x3ddf79c8	0.109119
55	0x3f0bf6f3	0.5467369
56	0x3f226ea9	0.63450104
57	0x3f0e8a40	0.556797
58	0x3e69bed4	0.22826701
59	0x3e8a981a	0.2706917
60	0x3dc62438	0.09674877
61	0x3f6aebbb	0.91765946
62	0x3ed7c172	0.42139775
63	0x3f140280	0.57816315
64	0x3e6c29a0	0.23062754
65	0x3ea9b8ba	0.33148748
66	0x3eeabff0	0.45849562
67	0x3f619c9f	0.8812961
68	0x3f4a05b1	0.78914934
69	0x3f03f1c1	0.5154076
70	0x3de184d8	0.11011666
71	0x3f3009f5	0.68765193
72	0x3eebd0f4	0.46057856
73	0x3f2bfb17	0.6718001
74	0x3f41356f	0.7547216
75	0x3f25de6f	0.6479253
76	0x3e2143ac	0.15748471
77	0x3f0da970	0.55336666
78	0x3f05263a	0.52011454
79	0x3f368d69	0.71309525
80	0x3f1df84b	0.6170699
81	0x3e96cf6c	0.29455125
82	0x3ea95af0	0.33077192
83	0x3f63cce2	0.889845
84	0x3ef48b58	0.4776256
85	0x3f61a11d	0.88136464
86	0x3f333c83	0.7001421
87	0x3d929d88	0.07158953
88	0x3f5ee550	0.87068653
89	0x3f1fb769	0.62389237
90	0x3f720227	0.94534534
91	0x3e320848	0.17385972
92	0x3f06d840	0.5267372
93	0x3f7d094d	0.98842317
94	0x3f04650c	0.51716685
95	0x3f67f946	0.90614736
96	0x3f2db329	0.678515
97	0x3dc12830	0.09431493
98	0x3dc79160	0.09744525
99	0x3ecd0028	0.40039182
100	0x3e8dc1b2	0.2768684
101	0x3f2a933f	0.6663093
102	0x3f3da68b	0.7408225
103	0x3f342a34	0.70376897
104	0x3e962d84	0.293316
105	0x3ef1dd5e	0.47239202
106	0x3e6f2998	0.2335571
107	0x3cc36260	0.02385062
108	0x3f224963	0.6339323
109	0x3f20e9a8	0.6285653
110	0x3eb0c6ac	0.34526575
111	0x3f1f28ff	0.6217193
112	0x3cfaa600	0.030596733
113	0x3d9c3dd8	0.07628983
114	0x3d345090	0.044022143
115	0x388d6000	6.741285e-05
116	0x3e91bb00	0.28462982
117	0x3e151834	0.14560014
118	0x3f566223	0.83743495
119	0x3f4bcf0f	0.7961282
120	0x3f036b9e	0.51336086
121	0x3da54ba0	0.08071065
122	0x3f341e11	0.7035838
123	0x3f2dcb13	0.6788799
124	0x3ef92fb8	0.4866922
125	0x3f7771c5	0.96657974
126	0x3efdccca	0.49570304
127	0x3f35f8ac	0.7108257

bn2.bias f4 [128]
0	0x00000000	0.0
1	0x00000000	0.0
2	0x00000000	0.0
3	0x00000000	0.0
4	0x00000000	0.0
5	0x00000000	0.0
6	0x00000000	0.0
7	0x00000000	0.0
8	0x00000000	0.0
9	0x00000000	0.0
10	0x00000000	0.0
11	0x00000000	0.0
12	0x00000000	0.0
13	0x00000000	0.0
14	0x00000000	0.0
15	0x00000000	0.0
16	0x00000000	0.0
17	0x00000000	0.0
18	0x00000000	0.0
19	0x00000000	0.0
20	0x00000000	0.0
21	0x00000000	0.0
22	0x00000000	0.0
23	0x00000000	0.0
24	0x00000000	0.0
25	0x00000000	0.0
26	0x00000000	0.0
27	0x00000000	0.0
28	0x00000000	0.0
29	0x00000000	0.0
30	0x00000000	0.0
31	0x00000000	0.0
32	0x00000000	0.0
33	0x00000000	0.0
34	0x00000000	0.0
35	0x00000000	0.0
36	0x00000000	0.0
37	0x00000000	0.0
38	0x00000000	0.0
39	0x00000000	0.0
40	0x00000000	0.0
41	0x00000000	0.0
42	0x00000000	0.0
43	0x00000000	0.0
44	0x00000000	0.0
45	0x00000000	0.0
46	0x00000000	0.0
47	0x00000000	0.0
48	0x00000000	0.0
49	0x00000000	0.0
50	0x00000000	0.0
51	0x00000000	0.0
52	0x00000000	0.0
53	0x00000000	0.0
54	0x00000000	0.0
55	0x00000000	0.0
56	0x00000000	0.0
57	0x00000000	0.0
58	0x00000000	0.0
59	0x00000000	0.0
60	0x00000000	0.0
61	0x00000000	0.0
62	0x00000000	0.0
63	0x00000000	0.0
64	0x00000000	0.0
65	0x00000000	0.0
66	0x00000000	0.0
67	0x00000000	0.0
68	0x00000000	0.0
69	0x00000000	0.0
70	0x00000000	0.0
71	0x00000000	0.0
72	0x00000000	0.0
73	0x00000000	0.0
74	0x00000000	0.0
75	0x00000000	0.0
76	0x00000000	0.0
77	0x00000000	0.0
78	0x00000000	0.0
79	0x00000000	0.0
80	0x00000000	0.0
81	0x00000000	0.0
82	0x00000000	0.0
83	0x00000000	0.0
84	0x00000000	0.0
85	0x00000000	0.0
86	0x00000000	0.0
87	0x00000000	0.0
88	0x00000000	0.0
89	0x00000000	0.0
90	0x00000000	0.0
91	0x00000000	0.0
92	0x00000000	0.0
93	0x00000000	0.0
94	0x00000000	0.0
95	0x00000000	0.0
96	0x00000000	0.0
97	0x00000000	0.0
98	0x00000000	0.0
99	0x00000000	0.0
100	0x00000000	0.0
101	0x00000000	0.0
102	0x00000000	0.0
103	0x00000000	0.0
104	0x00000000	0.0
105	0x00000000	0.0
106	0x00000000	0.0
107	0x00000000	0.0
108	0x00000000	0.0
109	0x00000000	0.0
110	0x00000000	0.0
111	0x00000000	0.0
112	0x00000000	0.0
113	0x00000000	0.0
114	0x00000000	0.0
115	0x00000000	0.0
116	0x00000000	0.0
117	0x00000000	0.0
118	0x00000000	0.0
119	0x00000000	0.0
120	0x00000000	0.0
121	0x00000000	0.0
122	0x00000000	0.0
123	0x00000000	0.0
124	0x00000000	0.0
125	0x00000000	0.0
126	0x00000000	0.0
127	0x00000000	0.0

bn2.running_mean f4 [128]
0	0x00000000	0.0
1	0x00000000	0.0
2	0x00000000	0.0
3	0x00000000	0.0
4	0x00000000	0.0
5	0x00000000	0.0
6	0x00000000	0.0
7	0x00000000	0.0
8	0x00000000	0.0
9	0x00000000	0.0
10	0x00000000	0.0
11	0x00000000	0.0
12	0x00000000	0.0
13	0x00000000	0.0
14	0x00000000	0.0
15	0x00000000	0.0
16	0x00000000	0.0
17	0x00000000	0.0
18	0x00000000	0.0
19	0x00000000	0.0
20	0x00000000	0.0
21	0x00000000	0.0
22	0x00000000	0.0
23	0x00000000	0.0
24	0x00000000	0.0
25	0x00000000	0.0
26	0x00000000	0.0
27	0x00000000	0.0
28	0x00000000	0.0
29	0x00000000	0.0
30	0x00000000	0.0
31	0x00000000	0.0
32	0x00000000	0.0
33	0x00000000	0.0
34	0x00000000	0.0
35	0x00000000	0.0
36	0x00000000	0.0
37	0x00000000	0.0
38	0x00000000	0.0
39	0x00000000	0.0
40	0x00000000	0.0
41	0x00000000	0.0
42	0x00000000	0.0
43	0x00000000	0.0
44	0x00000000	0.0
45	0x00000000	0.0
46	0x00000000	0.0
47	0x00000000	0.0
48	0x00000000	0.0
49	0x00000000	0.0
50	0x00000000	0.0
51	0x00000000	0.0
52	0x00000000	0.0
53	0x00000000	0.0
54	0x00000000	0.0
55	0x00000000	0.0
56	0x00000000	0.0
57	0x00000000	0.0
58	0x00000000	0.0
59	0x00000000	0.0
60	0x00000000	0.0
61	0x00000000	0.0
62	0x00000000	0.0
63	0x00000000	0.0
64	0x00000000	0.0
65	0x00000000	0.0
66	0x00000000	0.0
67	0x00000000	0.0
68	0x00000000	0.0
69	0x00000000	0.0
70	0x00000000	0.0
71	0x00000000	0.0
72	0x00000000	0.0
73	0x00000000	0.0
74	0x00000000	0.0
75	0x00000000	0.0
76	0x00000000	0.0
77	0x00000000	0.0
78	0x00000000	0.0
79	0x00000000	0.0
80	0x00000000	0.0
81	0x00000000	0.0
82	0x00000000	0.0
83	0x00000000	0.0
84	0x00000000	0.0
85	0x00000000	0.0
86	0x00000000	0.0
87	0x00000000	0.0
88	0x00000000	0.0
89	0x00000000	0.0
90	0x00000000	0.0
91	0x00000000	0.0
92	0x00000000	0.0
93	0x00000000	0.0
94	0x00000000	0.0
95	0x00000000	0.0
96	0x00000000	0.0
97	0x00000000	0.0
98	0x00000000	0.0
99	0x00000000	0.0
100	0x00000000	0.0
101	0x00000000	0.0
102	0x00000000	0.0
103	0x00000000	0.0
104	0x00000000	0.0
105	0x00000000	0.0
106	0x00000000	0.0
107	0x00000000	0.0
108	0x00000000	0.0
109	0x00000000	0.0
110	0x00000000	0.0
111	0x00000000	0.0
112	0x00000000	0.0
113	0x00000000	0.0
114	0x00000000	0.0
115	0x00000000	0.0
116	0x00000000	0.0
117	0x00000000	0.0
118	0x00000000	0.0
119	0x00000000	0.0
120	0x00000000	0.0
121	0x00000000	0.0
122	0x00000000	0.0
123	0x00000000	0.0
124	0x00000000	0.0
125	0x00000000	0.0
126	0x00000000	0.0
127	0x00000000	0.0

bn2.running_var f4 [128]
0	0x3f800000	1.0
1	0x3f800000	1.0
2	0x3f800000	1.0
3	0x3f800000	1.0
4	0x3f800000	1.0
5	0x3f800000	1.0
6	0x3f800000	1.0
7	0x3f800000	1.0
8	0x3f800000	1.0
9	0x3f800000	1.0
10	0x3f800000	1.0
11	0x3f800000	1.0
12	0x3f800000	1.0
13	0x3f800000	1.0
14	0x3f800000	1.0
15	0x3f800000	1.0
16	0x3f800000	1.0
17	0x3f800000	1.0
18	0x3f800000	1.0
19	0x3f800000	1.0
20	0x3f800000	1.0
21	0x3f800000	1.0
22	0x3f800000	1.0
23	0x3f800000	1.0
24	0x3f800000	1.0
25	0x3f800000	1.0
26	0x3f800000	1.0
27	0x3f800000	1.0
28	0x3f800000	1.0
29	0x3f800000	1.0
30	0x3f800000	1.0
31	0x3f800000	1.0
32	0x3f800000	1.0
33	0x3f800000	1.0
34	0x3f800000	1.0
35	0x3f800000	1.0
36	0x3f800000	1.0
37	0x3f800000	1.0
38	0x3f800000	1.0
39	0x3f800000	1.0
40	0x3f800000	1.0
41	0x3f800000	1.0
42	0x3f800000	1.0
43	0x3f800000	1.0
44	0x3f800000	1.0
45	0x3f800000	1.0
46	0x3f800000	1.0
47	0x3f800000	1.0
48	0x3f800000	1.0
49	0x3f800000	1.0
50	0x3f800000	1.0
51	0x3f800000	1.0
52	0x3f800000	1.0
53	0x3f800000	1.0
54	0x3f800000	1.0
55	0x3f800000	1.0
56	0x3f800000	1.0
57	0x3f800000	1.0
58	0x3f800000	1.0
59	0x3f800000	1.0
60	0x3f800000	1.0
61	0x3f800000	1.0
62	0x3f800000	1.0
63	0x3f800000	1.0
64	0x3f800000	1.0
65	0x3f800000	1.0
66	0x3f800000	1.0
67	0x3f800000	1.0
68	0x3f800000	1.0
69	0x3f800000	1.0
70	0x3f800000	1.0
71	0x3f800000	1.0
72	0x3f800000	1.0
73	0x3f800000	1.0
74	0x3f800000	1.0
75	0x3f800000	1.0
76	0x3f800000	1.0
77	0x3f800000	1.0
78	0x3f800000	1.0
79	0x3f800000	1.0
80	0x3f800000	1.0
81	0x3f800000	1.0
82	0x3f800000	1.0
83	0x3f800000	1.0
84	0x3f800000	1.0
85	0x3f800000	1.0
86	0x3f800000	1.0
87	0x3f800000	1.0
88	0x3f800000	1.0
89	0x3f800000	1.0
90	0x3f800000	1.0
91	0x3f800000	1.0
92	0x3f800000	1.0
93	0x3f800000	1.0
94	0x3f800000	1.0
95	0x3f800000	1.0
96	0x3f800000	1.0
97	0x3f800000	1.0
98	0x3f800000	1.0
99	0x3f800000	1.0
100	0x3f800000	1.0
101	0x3f800000	1.0
102	0x3f800000	1.0
103	0x3f800000	1.0
104	0x3f800000	1.0
105	0x3f800000	1.0
106	0x3f800000	1.0
107	0x3f800000	1.0
108	0x3f800000	1.0
109	0x3f800000	1.0
110	0x3f800000	1.0
111	0x3f800000	1.0
112	0x3f800000	1.0
113	0x3f800000	1.0
114	0x3f800000	1.0
115	0x3f800000	1.0
116	0x3f800000	1.0
117	0x3f800000	1.0
118	0x3f800000	1.0
119	0x3f800000	1.0
120	0x3f800000	1.0
121	0x3f800000	1.0
122	0x3f800000	1.0
123	0x3f800000	1.0
124	0x3f800000	1.0
125	0x3f800000	1.0
126	0x3f800000	1.0
127	0x3f800000	1.0
