checkpoint_critic.pth (torch_old, 87350 bytes, 17 tensors)

fcs1.weight f4 [128, 24]
0	0x3ddd1278	0.10794538
1	0x3e558645	0.20852001
2	0xbc9a7da2	-0.018858735
3	0x3c946c4f	0.018118052
4	0x3ced78d4	0.02898828
5	0x3e591e7d	0.21203037
6	0xbd391df8	-0.045194596
7	0xbc7836f1	-0.015149818
8	0xbd69c0cd	-0.057068635
9	0x3c09698b	0.00838698
10	0x3d255755	0.04036649
11	0xbd453ea2	-0.048155434
12	0x3e2e335d	0.17011781
13	0x3dbfe215	0.093692936
14	0x3cd405e1	0.02588171
15	0xbd9ea7dd	-0.07746861
16	0xbc8d60aa	-0.017258007
17	0x3d5190b1	0.05116338
18	0x3acb3fcc	0.0015506684
19	0x3de61fe6	0.11236553
20	0xbdb070c5	-0.08615259
21	0xbe4646f2	-0.19363001
22	0xbcb244e1	-0.02176136
23	0x3ddedf06	0.10882382
24	0xbea16fbe	-0.31530565
25	0xbc820133	-0.015869712
26	0x3da5c90c	0.08094987
27	0xbc457e36	-0.012054017
28	0xbd57fe81	-0.05273295
29	0xbd94af63	-0.07260015
30	0xbd0a8add	-0.033823837
31	0xbe04d14d	-0.12970467
32	0xbde9c922	-0.11415316
33	0xbca45dd1	-0.020064266
34	0x3e05e098	0.13073957
35	0x3df2a41a	0.11847706
36	0xbdfcea26	-0.12349348
37	0xbd01895e	-0.031625144
38	0x3d8389c0	0.06422758
39	0x3d9a1ee1	0.07525421
40	0xbe808fb8	-0.2510965
41	0xbe81123a	-0.25209218
42	0x3d273edc	0.04083143
43	0xbd4fed4c	-0.050763413
44	0x3c162e1c	0.009166267
45	0x3eba2276	0.36354417
46	0xbc3430dd	-0.010997978
47	0x3d5c440d	0.053775836
48	0xbd3e807b	-0.046509247
49	0x3bd27b55	0.0064233937
50	0x3b69178f	0.003556702
51	0xbd4556c2	-0.04817844
52	0x3e0bdad8	0.13657701
53	0x3d930a93	0.07179751
54	0xbcec82b7	-0.028870923
55	0x3bdfe120	0.006832257
56	0x3d16a95d	0.03678261
57	0xbc9f3cae	-0.019438114
58	0xbc8cef8e	-0.017204072
59	0xbce4b817	-0.027919812
60	0xbe79e864	-0.24405056
61	0x3cb69df9	0.022292124
62	0x3de27762	0.11057927
63	0x3d687a42	0.05675722
64	0x3e841f4e	0.25805134
65	0xbb24998b	-0.0025115933
66	0xbcd2599a	-0.025677491
67	0xb9678947	-0.00022081017
68	0xbf1a07c4	-0.601681
69	0x3e308602	0.1723862
70	0x3b8f09ff	0.0043652053
71	0xbdcdfb40	-0.10057688
72	0x3d298cc9	0.04139403
73	0x3e957eae	0.2919821
74	0x3de6de73	0.112728976
75	0x3bfc654a	0.0077025043
76	0x3d174624	0.036932126
77	0x3de1d001	0.11026002
78	0x3c0c6cef	0.008570894
79	0x3ef384b3	0.4756218
80	0xbbb829ff	-0.0056202407
81	0x3cfe42df	0.031037746
82	0x3d874364	0.066046506
83	0xbd0683d9	-0.032840583
84	0xbbe33ece	-0.006934977
85	0xbdf50802	-0.11964418
86	0x3d159dcd	0.036527444
87	0x3e9f6ae0	0.31136227
88	0xbd1ffc41	-0.039058927
89	0x3e990be5	0.29891887
90	0xbb4d9add	-0.0031372823
91	0xbdaa7be3	-0.08324411
92	0xbd3347c1	-0.0437696
93	0xbebb92a4	-0.36635315
94	0xbcb36cba	-0.02190243
95	0xbd8eaf4f	-0.06967031
96	0xbd9bcaa3	-0.07607009
97	0xbe3dc370	-0.18531585
98	0x3e5507b7	0.20803724
99	0xbcb37f5b	-0.021911314
100	0xbc7bc723	-0.015367302
101	0x3e23b12c	0.15985554
102	0xbe058ce2	-0.13042024
103	0x3d9cbd67	0.07653313
104	0xbe74551b	-0.2386059
105	0xbd01e2a9	-0.0317103
106	0xbe2d7d62	-0.16942361
107	0x3d36c8e5	0.04462518
108	0xbbdd5acf	-0.00675521
109	0x3dca03b2	0.09863986
110	0xbcc3942d	-0.023874367
111	0x3dfaa571	0.12238587
112	0xbea2fff9	-0.31835917
113	0xbee32db9	-0.4437082
114	0x3ccac252	0.024750862
115	0x3e593ea8	0.21215308
116	0x3e135526	0.1438795
117	0xbe723ce7	-0.23656045
118	0xbac35168	-0.001490158
119	0x3d8b2b55	0.06795374
120	0xbc45b46e	-0.012066944
121	0xbce4c02c	-0.027923666
122	0x3df8ac91	0.121422894
123	0xb908cfab	-0.00013047333
124	0xbe370609	-0.17873396
125	0xbc1656ef	-0.009176
126	0xbc9fb58e	-0.019495752
127	0x3b0a3899	0.0021090864
128	0x3db1d8f0	0.08683956
129	0xbcfada3b	-0.030621639
130	0xbd550e49	-0.052015577
131	0x3bc97d21	0.0061489497
132	0xbce20de6	-0.027594518
133	0xbde93c6a	-0.11388476
134	0x3cb1f4f8	0.021723256
135	0x3e0365ca	0.12831798
136	0x3e0f686c	0.14004678
137	0x3df13d55	0.11779276
138	0xbccc29ce	-0.024922278
139	0x3da8cfb6	0.08242743
140	0x3e2ae0a5	0.16687258
141	0x3e13a9c2	0.14420226
142	0xbda1f956	-0.07908885
143	0xbd8256cc	-0.063642114
144	0xbd7d428c	-0.061831042
145	0xbde379b4	-0.111071974
146	0x3c1d628f	0.009606018
147	0xbcccfa3a	-0.025021661
148	0xbd9ef60f	-0.07761776
149	0xbe2e3430	-0.17012095
150	0xbc453cf2	-0.012038456
151	0xbd8e2858	-0.06941289
152	0xbd077359	-0.03306899
153	0x3d21fca2	0.03954757
154	0x3d5a594a	0.05330781
155	0xbd2b2685	-0.041784782
156	0x3da90f5a	0.08254881
157	0xbdf7518b	-0.120761
158	0xbb1e5f57	-0.0024165714
159	0xbc07e196	-0.00829353
160	0x3d4cd53a	0.050008036
161	0xbdabf46c	-0.08396229
162	0xbca108ea	-0.01965757
163	0x3bc04bfd	0.0058684335
164	0xbd46a236	-0.04849454
165	0x3ef1bf9d	0.47216502
166	0x3d1a9edd	0.03774916
167	0xbcd94dc7	-0.026526345
168	0xbcc3b22b	-0.023888668
169	0x3cf86f4b	0.030326506
170	0xbaf5144f	-0.0018698069
171	0x3af793f3	0.0018888697
172	0xbe91e83f	-0.28497502
173	0x3d2ba2bc	0.041903242
174	0xbbef1c08	-0.0072970428
175	0x3bc5714b	0.0060254685
176	0x39baab94	0.0003560452
177	0xbb986755	-0.00465099
178	0xbce46b45	-0.027883181
179	0x3b83f6cb	0.0040272227
180	0x3ef93a7d	0.48677436
181	0xbe11def4	-0.14245206
182	0xbbc742a8	-0.006080944
183	0x3d09105c	0.033462867
184	0x3c998477	0.018739922
185	0xbd3cfcfd	-0.046139706
186	0x3c01158c	0.007878672
187	0x3d8beaa7	0.06831866
188	0x4006b6c2	2.1049047
189	0x3d0c2b3b	0.034220915
190	0xbc82fd9e	-0.015990075
191	0xbd328760	-0.043586135
192	0x3da03a54	0.07823625
193	0xbe009527	-0.12556897
194	0x3dad764d	0.0846983
195	0x3d8e77c2	0.06956436
196	0x3d39e8b5	0.045387942
197	0x3e0622a2	0.13099149
198	0xbd503ad8	-0.050837368
199	0x3b01fae8	0.001983339
200	0x3ce02b02	0.027364258
201	0xbc95a5c7	-0.018267525
202	0xbdd37a1d	-0.10326026
203	0x3d15e6ef	0.03659719
204	0x3d94b494	0.07261005
205	0x3d6cc69c	0.057806596
206	0xbd0b5cb6	-0.034023963
207	0x3dd1cbc3	0.102439426
208	0x3e72a4e0	0.23695707
209	0xbf22ce0f	-0.6359567
210	0xbc827458	-0.015924618
211	0xbe61e940	-0.22061634
212	0x3dcf1417	0.10111254
213	0x3e53d61b	0.20687144
214	0x3bf2cec4	0.0074099023
215	0xbdffce1f	-0.12490486
216	0x3d321708	0.043478996
217	0xbe3e57b2	-0.1858814
218	0x3e025e0a	0.12731186
219	0xbc9423e0	-0.018083513
220	0xbd67f9b6	-0.056634627
221	0xbe237769	-0.1596352
222	0x3ba22507	0.0049482617
223	0xbd06d4ca	-0.032917775
224	0x3bed3fa4	0.0072402526
225	0x3bbd1f5b	0.00577156
226	0xbed0e5cc	-0.4080032
227	0x3d14940d	0.036274005
228	0x3d540720	0.051764607
229	0x3e94d6ce	0.29070133
230	0xbdaaefed	-0.083465435
231	0x3c8ac6f8	0.016940579
232	0xbe066915	-0.13126023
233	0xbe0bb769	-0.13644184
234	0xbdbc04c4	-0.091805965
235	0xbdb40e43	-0.08791783
236	0x3e8f7d82	0.28025442
237	0x3e8c6717	0.274224
238	0x3d7d4f62	0.061843283
239	0xbc1b4295	-0.009476324
240	0xbd0f0e2b	-0.03492562
241	0xbd7855c2	-0.06062866
242	0xbd1b8ee5	-0.03797807
243	0x3c004b06	0.007830387
244	0x3df98797	0.12184065
245	0xbd68a19f	-0.05679476
246	0x3c0efdae	0.008727474
247	0x3c4468f3	0.0119879125
248	0xbd91eada	-0.071248725
249	0xbcad4f75	-0.021156052
250	0xbc0fd2dc	-0.0087783
251	0x3cc45142	0.023964528
252	0x3d7a3ee5	0.061095137
253	0xbeef6914	-0.46759856
254	0x3d0c4030	0.0342409
255	0x3e9d4d33	0.3072296

fcs1.bias f4 [128]
0	0xbc0099db	-0.007849182
1	0x3c99e770	0.018787116
2	0xbe9bdb30	-0.30440664
3	0xbe85d60b	-0.26139864
4	0xbde93a1e	-0.11388038
5	0x3db57897	0.08860891
6	0x3d54ea65	0.05198135
7	0xbdf9420a	-0.12170799
8	0x3d5be5a0	0.053685784
9	0xbd250bb9	-0.040294383
10	0x3cd910e9	0.026497321
11	0xbd0e412f	-0.034730133
12	0xbd1c80ea	-0.03820888
13	0xbd1f6b9a	-0.038920976
14	0xbdd395c7	-0.10331302
15	0xbe7975bc	-0.24361318
16	0x3d29522e	0.04133814
17	0x3da43afb	0.08019062
18	0xbe59c7da	-0.21267644
19	0xbd1271ac	-0.035752937
20	0xbe41e1f5	-0.18933852
21	0xbeba9861	-0.3644438
22	0xbea02624	-0.312791
23	0xbe751674	-0.23934346
24	0xbe28a340	-0.16468525
25	0xbe904a3f	-0.28181645
26	0x3d54e571	0.051976625
27	0x3d65bbb2	0.056087203
28	0x3c4747c7	0.012163109
29	0xbe4f22c5	-0.20228107
30	0xbd85a287	-0.0652514
31	0x3d5d01bf	0.053956743
32	0xbe2b0783	-0.16702084
33	0x3df7f40a	0.12107094
34	0xbea0a5f4	-0.31376612
35	0xbe9a7fad	-0.30175534
36	0xbe07aa91	-0.1324866
37	0xbe6441ff	-0.222908
38	0xbd5549e2	-0.052072413
39	0xbe23a6c9	-0.15981592
40	0xbe7512db	-0.23932974
41	0x3acc74b3	0.0015598744
42	0xbe6d2861	-0.23159935
43	0xbdca4013	-0.098755024
44	0xbdadf743	-0.08494427
45	0x3cf3b91b	0.029751351
46	0xbcaee53c	-0.021349542
47	0xbe04878e	-0.12942335
48	0x3d7cfb71	0.06176323
49	0x3c23f82c	0.010007899
50	0x3d19ed44	0.03757979
51	0xbe26bdfe	-0.16283414
52	0xbe09d2a8	-0.13459265
53	0x3db161ba	0.08661218
54	0xbe95542d	-0.29165784
55	0xbd1f686c	-0.038917944
56	0x3e1b2241	0.15149786
57	0xbd513844	-0.05107905
58	0x3d290ceb	0.041272085
59	0xbe5f9f4f	-0.21838115
60	0x3e0d6122	0.13806584
61	0xbcdf3493	-0.027246749
62	0xbd3f5fa1	-0.04672206
63	0x3d361dd8	0.044462055
64	0xbdb27db6	-0.08715384
65	0xbd13ba30	-0.036066234
66	0xbdf5d294	-0.12003055
67	0x3da2b251	0.079441674
68	0x3cf0c805	0.029392252
69	0xbe04e6bd	-0.12978645
70	0x3d341909	0.043969188
71	0x3dbcbad9	0.09215326
72	0xbdc41e42	-0.09576084
73	0x3d0e6482	0.03476382
74	0xbe7e0c4a	-0.24809375
75	0xbd2befff	-0.041976925
76	0xbe02e229	-0.12781586
77	0x3c267f4f	0.010162189
78	0xbdecdb1c	-0.11565229
79	0xbe9308b5	-0.2871758
80	0xbc79d998	-0.015249632
81	0x3c163d7c	0.009169932
82	0x3d097d3c	0.0335667
83	0x3e134db5	0.14385112
84	0xbd051864	-0.032493964
85	0xbe064405	-0.13111885
86	0xbe8049dd	-0.25056353
87	0xbd38a532	-0.045079418
88	0x3d0376a5	0.03209557
89	0xbdea7eec	-0.1144999
90	0xbe81af37	-0.2532899
91	0x3b2590f0	0.0025263391
92	0x3bc51c66	0.0060153482
93	0xbe1e96eb	-0.15487258
94	0xbe5932e5	-0.21210821
95	0xbda823fb	-0.08209988
96	0xbde96dae	-0.11397873
97	0x3d276c58	0.04087481
98	0xbdf59cfe	-0.119928345
99	0x3dfc1cbd	0.12310169
100	0xbd66ccd3	-0.05634768
101	0xbe92d7b1	-0.28680184
102	0xbcf25ef4	-0.029586293
103	0xbe5f3a06	-0.21799478
104	0x3d60e5be	0.0549066
105	0xbc7aa1fc	-0.015297409
106	0x3d125036	0.035721026
107	0xbe2a888b	-0.1665365
108	0xbe98e3a3	-0.29861173
109	0xbe5b9554	-0.21443683
110	0x3cf6d8a1	0.030132594
111	0xbc9ede9a	-0.019393254
112	0xbe80bd3e	-0.2514438
113	0x3d52c040	0.051452875
114	0xbe99dc0f	-0.30050704
115	0xbda3b1c2	-0.07992889
116	0xbd80fa6f	-0.062977664
117	0xbe665024	-0.22491509
118	0xbe539c89	-0.20665182
119	0xbd8d69a2	-0.069049135
120	0x3c272eeb	0.010204057
121	0xbdc188fd	-0.094499566
122	0xbd82e802	-0.06391908
123	0x3e04a7df	0.12954663
124	0x3bafa3e2	0.0053601125
125	0xbd43719c	-0.04771577
126	0xbeb67054	-0.35632575
127	0xbce1d2d1	-0.027566345

fc2.weight f4 [128, 130]
0	0xbe917ee4	-0.28417122
1	0xbdad2cfa	-0.08455844
2	0x3e24493a	0.16043559
3	0x3c329ae7	0.010901189
4	0xb9075c79	-0.00012909052
5	0xbd318b41	-0.043345693
6	0xbe29f85c	-0.16598648
7	0x3e0eca76	0.1394442
8	0xbd027fe1	-0.031860236
9	0xbe48c1fe	-0.19605252
10	0xbd52d51d	-0.051472772
11	0x3de6945c	0.11258766
12	0xbda8a956	-0.08235423
13	0xbdce03e1	-0.100593336
14	0x3d59ee45	0.053205747
15	0xbe3290fe	-0.17438123
16	0xbea5c288	-0.32374978
17	0xbe0a8dd3	-0.13530664
18	0xbe265166	-0.16241989
19	0x3c7769cb	0.015100907
20	0x3de749a2	0.11293341
21	0xbe8eaebb	-0.27867684
22	0xbee5508a	-0.4478801
23	0x3d463ad0	0.04839593
24	0x3e1ebce6	0.15501747
25	0xbec7c029	-0.39013794
26	0xbec12bc9	-0.37728718
27	0xbd5898dc	-0.052880153
28	0xbe2a5f9d	-0.16638036
29	0x3d8c3f17	0.06847971
30	0x3de1d209	0.11026389
31	0x3d0af484	0.033924595
32	0x3e8b532e	0.272119
33	0xbe91f825	-0.28509632
34	0xbd48e124	-0.049042836
35	0xb8258827	-3.9465867e-05
36	0xbe92ef56	-0.28698224
37	0x3c432812	0.011911409
38	0x3e20a9ce	0.15689775
39	0xbdb5d98f	-0.08879387
40	0x3ebf8082	0.3740273
41	0xbd9b41b0	-0.07580888
42	0x3e83365d	0.25627413
43	0x3dc2c69a	0.095105365
44	0xbe32c5ee	-0.17458317
45	0xbde28480	-0.110604286
46	0xbf1bfbc0	-0.60931015
47	0xbc944bf3	-0.018102622
48	0xbe2803c1	-0.16407682
49	0xbe5e8e83	-0.21734051
50	0xbda6679b	-0.0812523
51	0xbdb5963c	-0.088665456
52	0x3d6c3978	0.057671994
53	0xbe03f4d2	-0.1288636
54	0x3d04b28c	0.032396838
55	0x3e47287d	0.19449039
56	0xbe0118e1	-0.12607147
57	0xbdf8f562	-0.12156178
58	0x3dc04c94	0.09389606
59	0xbda33163	-0.07968404
60	0xbe9400e2	-0.28906924
61	0x3d3cdce4	0.046109095
62	0xbe903bed	-0.2817072
63	0xbece55d9	-0.40299872
64	0x3e6b8858	0.2300123
65	0xbe66db47	-0.22544585
66	0x3da0cad1	0.07851184
67	0xbe1a80cf	-0.15088199
68	0xbe60cc14	-0.2195285
69	0x3d5553e7	0.05208197
70	0xbe307f66	-0.17236099
71	0xbdb4f363	-0.08835485
72	0xbd804a01	-0.06264115
73	0x3e3fe22c	0.18738621
74	0x3df1028a	0.117680624
75	0x3dfc66e4	0.12324312
76	0xbe050123	-0.12988715
77	0x3c9b406c	0.018951617
78	0x3ea66ebc	0.3250636
79	0xbe32d572	-0.17464235
80	0xbe5cefdf	-0.21575879
81	0x3d844d59	0.064600654
82	0x3d1e4236	0.038637362
83	0xbe90ea86	-0.28303927
84	0x3cde6c13	0.027151143
85	0x3d875b82	0.066092506
86	0x3e2c387f	0.16818427
87	0xbe7fc988	-0.24979222
88	0x3df86289	0.12128169
89	0xbd8e8784	-0.06959441
90	0xbecb93ac	-0.39761102
91	0xbcaa7548	-0.020807877
92	0x3c9f827f	0.019471405
93	0xbe36bbe8	-0.17845118
94	0x3e18bdc6	0.14916143
95	0xbee57488	-0.4481547
96	0xbe14925f	-0.14508961
97	0x3d8d1639	0.06889004
98	0xbf18927a	-0.59598505
99	0xbe2c024d	-0.16797753
100	0xbdd1f4b1	-0.10251749
101	0xbafec59c	-0.0019437554
102	0xbe111a1a	-0.14170113
103	0x3d0f3217	0.03495988
104	0x3b718ece	0.00368588
105	0xbea278e6	-0.31732863
106	0xbe997761	-0.2997389
107	0x3c20320b	0.009777556
108	0x3edb95db	0.42887768
109	0xbc36fb88	-0.011168368
110	0x3d7efc1d	0.062252153
111	0xbda0ae1f	-0.07845711
112	0xbe263621	-0.16231586
113	0x3dd3add9	0.10335893
114	0xbe75ae76	-0.23992333
115	0x3deb9f98	0.115050495
116	0x3e35b202	0.17743686
117	0xbd276045	-0.040863294
118	0x3e96b98f	0.29438445
119	0x3e18c29d	0.14917989
120	0xbcc52c66	-0.024069022
121	0x3dc73c48	0.097282946
122	0xbc6286dd	-0.013826099
123	0x3d02ae5e	0.03190457
124	0xbd8ae749	-0.067823954
125	0xbe6b1cde	-0.2296023
126	0xbe756913	-0.23965864
127	0x3dd2e6d0	0.1029793
128	0xbdfa2caf	-0.12215554
129	0x3b898f91	0.0041980227
130	0x3e1e83ba	0.15479937
131	0xbddbbfec	-0.107299656
132	0xbeed0ce2	-0.4629889
133	0x3d9de6bb	0.07710024
134	0x3ea1d38b	0.31606707
135	0xbd3db01c	-0.04631053
136	0xbe66e668	-0.2254883
137	0xbef88e61	-0.48546126
138	0x3c8832c2	0.016625766
139	0xbeb58bc6	-0.354582
140	0xbe3cc45c	-0.1843428
141	0xbe0c7b59	-0.13718928
142	0x3d49f145	0.04930236
143	0x3d4a130f	0.049334582
144	0xbe4dcf76	-0.20098671
145	0xbed29729	-0.4113095
146	0xbd8a0fec	-0.06741318
147	0xbddc67b5	-0.10761968
148	0x3e3cb146	0.18427
149	0x3d3f9e87	0.046782043
150	0x3da13eaf	0.07873284
151	0xbe57b4d4	-0.21065074
152	0x3e1f6d09	0.15568937
153	0x3cdba2df	0.026811061
154	0x3e01ab97	0.12663113
155	0x3e873dc3	0.26414308
156	0xbe14f113	-0.14545088
157	0x3df4bdb4	0.119502455
158	0x3c1ef4aa	0.009701887
159	0xbe48734f	-0.19575237
160	0xbc9c7065	-0.019096563
161	0xbda3ea57	-0.08003681
162	0x3e02a110	0.12756753
163	0xbbdcbfef	-0.0067367475
164	0x3e38db6c	0.18052453
165	0x3e8cc337	0.27492687
166	0x3e7941df	0.24341534
167	0x3c13e84e	0.009027554
168	0x3c2359b3	0.009970116
169	0x3d38f48e	0.0451551
170	0xbe94065c	-0.28911102
171	0xbf1ccc41	-0.61249167
172	0x3d64990c	0.05581002
173	0x3c14bf93	0.009078878
174	0x3d8d284f	0.06892454
175	0xbdbb573d	-0.09147499
176	0xbd958ef0	-0.07302654
177	0xbd1fd825	-0.03902449
178	0xbe784337	-0.2424439
179	0xb9d9baa2	-0.00041528518
180	0x3d19ca09	0.03754619
181	0x3daa28de	0.08308576
182	0x3e54e28a	0.20789543
183	0xbdc09089	-0.09402568
184	0xbe8257d8	-0.25457644
185	0xbdb63eea	-0.08898719
186	0xbd3a9803	-0.045555126
187	0x3e0a9324	0.13532692
188	0x3e07a61e	0.13246962
189	0xbe1e7d5a	-0.15477505
190	0xbd773233	-0.060350608
191	0x3d7def25	0.061995644
192	0xbf292bed	-0.6608265
193	0xbf6a4b36	-0.9152101
194	0x3d640803	0.055671703
195	0x3c88d83b	0.01670467
196	0x3d55bfd9	0.052184913
197	0x3d0dd8be	0.03463053
198	0x3e5b0dd2	0.21391991
199	0x3e17a0a8	0.14807379
200	0xb8313d24	-4.225703e-05
201	0xbd9eb58b	-0.0774947
202	0x3d84c290	0.06482422
203	0xbe11dd03	-0.14244466
204	0xbeeec0b9	-0.4663141
205	0xbd83fa39	-0.064442106
206	0xbe616a73	-0.22013263
207	0xbe992314	-0.29909575
208	0xbf0e09be	-0.55483615
209	0x3dbeef33	0.093229674
210	0x3a64f8ed	0.00087346026
211	0xbdbb43e3	-0.09143808
212	0xbe2a236a	-0.16615072
213	0xbe9cf463	-0.30655202
214	0x3d1dc217	0.038515177
215	0x3e22d452	0.15901306
216	0x3c3d2d66	0.011546468
217	0x3e3d2c40	0.18473911
218	0xbb808afd	-0.0039228187
219	0xbe08b390	-0.13349748
220	0xbf296e5b	-0.66184014
221	0x3cee5fc4	0.029098399
222	0xbd06d055	-0.032913525
223	0x3d8655f3	0.06559362
224	0x3de564d7	0.11200874
225	0x3deaa207	0.114566855
226	0x3d83172e	0.064009055
227	0xbd42ca0f	-0.04755598
228	0x3b7e51bb	0.003880604
229	0x3b9c56d4	0.004771093
230	0xbcbd1f45	-0.0230862
231	0x3d301870	0.042992055
232	0xbde09d1b	-0.109674655
233	0xbe432e5a	-0.1906065
234	0xbd8c9005	-0.06863407
235	0x3d88db99	0.0668251
236	0xbc8a1167	-0.016854001
237	0xbea03bff	-0.31295773
238	0xbe05da75	-0.13071616
239	0xbce6725f	-0.028130708
240	0x3d0c92a4	0.034319535
241	0x3c7b63b2	0.015343593
242	0x3d939cbc	0.07207629
243	0xbbe007e5	-0.0068368786
244	0x3de90e5a	0.113796905
245	0xbe676b5f	-0.22599553
246	0x3d689e56	0.056791626
247	0x3d901fd0	0.07037318
248	0x3dfd8495	0.12378804
249	0xbee1152b	-0.43961462
250	0x3d551091	0.052017752
251	0x3db4a8eb	0.08821281
252	0x3e1a247d	0.15052982
253	0x3d694f41	0.056960348
254	0xbf051705	-0.5198825
255	0xbe27417d	-0.16333576

fc2.bias f4 [128]
0	0xbdc35eb2	-0.09539546
1	0x3d46cc3e	0.048534624
2	0x3d90d6e2	0.07072236
3	0x3df90565	0.12159232
4	0x3dfd2e70	0.12362373
5	0xbdc381bb	-0.095462285
6	0xbd38c07b	-0.04510544
7	0xbd02f9d5	-0.03197654
8	0xbbf14d44	-0.007363947
9	0xbbf7af69	-0.0075587523
10	0xbdb00efd	-0.08596609
11	0xbc3a5b55	-0.011374314
12	0xbdc170ec	-0.09445366
13	0xbdcfc795	-0.10145489
14	0xbde8907a	-0.11355682
15	0xbd830d2b	-0.06398996
16	0xbbbf5180	-0.005838573
17	0xbd1bbc1d	-0.038021196
18	0xbdb1e95a	-0.086870864
19	0xbdf9f9f1	-0.12205876
20	0x3d8292c1	0.06375647
21	0xbddb919f	-0.107211344
22	0xbdd68bf5	-0.104759134
23	0xbd8e9556	-0.06962077
24	0xbdce969e	-0.10087322
25	0xbda3b411	-0.07993329
26	0xbd675118	-0.05647382
27	0x3d956ca9	0.07296116
28	0x3d39f24d	0.04539709
29	0xbd079a7d	-0.033106316
30	0xbb8123cf	-0.0039410363
31	0xbda4e0d6	-0.080506966
32	0x3d50fde2	0.05102337
33	0x3e0d75c1	0.13814451
34	0xbdf08c9d	-0.1174557
35	0x3d3318d0	0.043724835
36	0x3c871a56	0.01649205
37	0xbded5363	-0.115881704
38	0xbe06bde1	-0.1315837
39	0xbd5f12b5	-0.0544612
40	0xbd589dc8	-0.052884847
41	0x3e322c6b	0.17399757
42	0x3d2f5e74	0.042814687
43	0xbde93335	-0.1138672
44	0x3d61c13b	0.05511592
45	0x3d27f6d2	0.04100687
46	0x3e25f9c2	0.16208556
47	0xbcd302ce	-0.025758173
48	0x3d0e5535	0.03474923
49	0xbd16cc10	-0.036815703
50	0xbaedaef3	-0.0018133804
51	0xbdf73a1d	-0.12071631
52	0xbe2721f0	-0.1632154
53	0xbcb8d8e0	-0.022564352
54	0xbd408d53	-0.047009777
55	0xbd482fd1	-0.048873726
56	0x3c81c5b5	0.015841344
57	0xbcca4ea1	-0.024695696
58	0xbdeb02b8	-0.11475128
59	0x3d99f4a7	0.07517367
60	0xbdfdadef	-0.12386691
61	0xbdb375d5	-0.08762709
62	0xbdda5788	-0.106612265
63	0xbe1df7e7	-0.15426598
64	0x3d81a9b6	0.06331198
65	0x3d438ee6	0.0477437
66	0xbcd03417	-0.025415463
67	0x3c89a4d2	0.016802225
68	0x3d3ca79e	0.04605829
69	0x3de734e8	0.11289388
70	0xbdb4b0b8	-0.08822769
71	0xbd80eb4c	-0.06294879
72	0x3d9f9811	0.07792676
73	0xbd49983c	-0.049217448
74	0xbe035870	-0.12826705
75	0xbe03bf20	-0.12865877
76	0x3dc14ec0	0.094388485
77	0xbda989ab	-0.08278211
78	0xbde7e39d	-0.11322711
79	0x3d23d0b7	0.039993968
80	0xbd9626d0	-0.07331622
81	0xbda51ff4	-0.08062735
82	0xbe2b9f68	-0.16760027
83	0xbde2b57d	-0.110697724
84	0xbd912d6b	-0.07088741
85	0xbdb5e554	-0.088816315
86	0xbc4f368d	-0.012647283
87	0x3c48055e	0.012208311
88	0xbe0602aa	-0.13086954
89	0xbd895e1d	-0.06707404
90	0xbd8f2a84	-0.06990531
91	0x3d7d1f40	0.06179738
92	0x3dba2182	0.09088422
93	0xbdd49690	-0.1038028
94	0x3bbcffed	0.0057678134
95	0xbe00eae4	-0.12589604
96	0xbd1bf845	-0.038078565
97	0x3dd85084	0.10562232
98	0xbc5a8005	-0.013336186
99	0xbde22afd	-0.110433556
100	0xbe04c73e	-0.1296663
101	0xbdb7bb25	-0.08971242
102	0xbce095bc	-0.027415149
103	0xbd7e3476	-0.06206175
104	0xbe012c92	-0.12614658
105	0x3d1cacf0	0.038250864
106	0x3c952190	0.01820448
107	0xbbb8acf1	-0.0056358506
108	0xbd0278fa	-0.031853653
109	0xbda57674	-0.08079234
110	0xbcc5c1af	-0.024140207
111	0x3b5c1ab6	0.0033585257
112	0xbd4c9fa6	-0.04995694
113	0xbd20a7de	-0.03922259
114	0xbc1395ed	-0.009007913
115	0xbe0f3ba1	-0.1398759
116	0xbdcc02e3	-0.09961488
117	0xbd59db4e	-0.05318766
118	0xbe0a208e	-0.13488981
119	0xbc6d0a70	-0.0144678205
120	0xbda47592	-0.08030237
121	0x3df2c433	0.11853828
122	0xbda45370	-0.08023727
123	0x3c84a748	0.016193047
124	0xbc8ae4b6	-0.016954761
125	0x398dd9ff	0.00027056035
126	0xbc76cb87	-0.015063173
127	0xbc9dd808	-0.01926805

fc5.weight f4 [1, 128]
0	0xbdacd372	-0.084387675
1	0xbe0d270d	-0.13784428
2	0x3ed122fb	0.40847
3	0xbe5c9829	-0.2154242
4	0xbe657c25	-0.22410639
5	0x3b086f24	0.0020818198
6	0xbe2e668b	-0.17031305
7	0xbea214bf	-0.31656453
8	0xbb577a07	-0.003287913
9	0x3e31bb08	0.17356503
10	0xbc334446	-0.010941571
11	0xbe260499	-0.16212691
12	0x3c29e31d	0.010369089
13	0xba8ce7ef	-0.0010750274
14	0xbd2d6c2f	-0.0423395
15	0x3b199d45	0.0023439687
16	0xbd35ee2e	-0.0444166
17	0x3ae40877	0.0017397542
18	0xbc8b612e	-0.017014112
19	0xbc16bb3c	-0.009199914
20	0xbdf9eca9	-0.122033425
21	0xbc894a5a	-0.016759086
22	0x3a3de039	0.00072431896
23	0x3a9f198a	0.0012138349
24	0xbc85e818	-0.016346022
25	0x3c5069cd	0.012720537
26	0xbd0da4e6	-0.034581088
27	0x3ea6d09e	0.32581037
28	0xbe2e7eff	-0.17040633
29	0x3e7f19f3	0.24912243
30	0xbbfe6c66	-0.007764387
31	0x3cec8de4	0.028876252
32	0x3ed31fd0	0.4123521
33	0x3e0f9239	0.14020623
34	0xbac74832	-0.0015204011
35	0xbe1ae440	-0.15126133
36	0xbcb0f0d9	-0.02159922
37	0xbd9c5bee	-0.07634722
38	0xbc33a8e7	-0.010965562
39	0xbdc4f12c	-0.096163124
40	0x3bd8a036	0.0066108955
41	0x3e1b382d	0.15158148
42	0xbdbf5acc	-0.0934349
43	0xbc967de3	-0.018370574
44	0x3e4cd324	0.20002419
45	0xbdd3b65e	-0.10337518
46	0x3e78ee3f	0.24309634
47	0x3c0d533d	0.008625803
48	0xbddda7cb	-0.108230196
49	0xbd62c96e	-0.05536788
50	0x3ec588d6	0.3858096
51	0xbe42d14e	-0.19025156
52	0xbcc33267	-0.023827745
53	0xbda5773a	-0.08079381
54	0xbd85bafc	-0.06529805
55	0x3c1933b1	0.009350703
56	0xbebbf9c2	-0.36713988
57	0xbe10e511	-0.14149882
58	0x3ac0add1	0.0014700239
59	0xbcc8b3ef	-0.024499862
60	0x3bf89465	0.0075860494
61	0xbd394e5b	-0.04524074
62	0xbe42c6bf	-0.19021128
63	0x3e5094a1	0.20369197
64	0xbebba6b2	-0.36650616
65	0x3e3a1cf8	0.18175113
66	0xbb2c524e	-0.0026294175
67	0xbdf949e0	-0.12172294
68	0xbda0a5e2	-0.0784414
69	0x3e5e004c	0.21679801
70	0x3bf1a938	0.007374909
71	0xbc332f27	-0.010936535
72	0x3e4348b8	0.19070709
73	0xb9218728	-0.00015404506
74	0x398c53d6	0.00026765344
75	0xbdb81af9	-0.089895196
76	0xbe434d9a	-0.19072571
77	0x3cb8af92	0.022544656
78	0x3c147c82	0.009062888
79	0x3e92a27f	0.286396
80	0x3bd0d04d	0.0063724876
81	0xbd04dcfb	-0.032437306
82	0x3e3649eb	0.17801635
83	0x3bd22a5e	0.006413742
84	0xbd03d7db	-0.032188278
85	0xbbd79d88	-0.0065800585
86	0x3e5acb77	0.21366678
87	0xbe6c05e3	-0.2304912
88	0x3c894845	0.016758094
89	0xbe8b5cd7	-0.2721927
90	0xbb8f7ae0	-0.0043786615
91	0xbe413224	-0.18866783
92	0xbd9bfa99	-0.07616157
93	0xbd3dd8cb	-0.046349328
94	0xbe2862cd	-0.1644394
95	0xbbcda456	-0.006275694
96	0xbc86bf30	-0.016448587
97	0x3d61fea2	0.055174477
98	0x3eacfd0b	0.33786806
99	0x38108fc9	3.4466186e-05
100	0xbc2b0392	-0.010437863
101	0x3bdd6318	0.0067561977
102	0xbe1402a5	-0.14454134
103	0xbd30d6ae	-0.043173485
104	0x3d7632f3	0.060107183
105	0x3f449166	0.7678436
106	0xbda44318	-0.080206096
107	0xbd64980b	-0.055809062
108	0x3df3a22b	0.118961655
109	0xbbdf3bbd	-0.0068125413
110	0x3d684e78	0.05671546
111	0xbda54cda	-0.08071299
112	0xbec1764c	-0.37785566
113	0xbd5d04d0	-0.053959668
114	0xbe0ee8c9	-0.13955988
115	0xbdd8174b	-0.10551318
116	0xbd8a208e	-0.067444906
117	0xbc110f70	-0.008853778
118	0xbcc23a06	-0.023709308
119	0x3c954d15	0.018225232
120	0xbd1bc7dc	-0.038032398
121	0x3db80b96	0.08986585
122	0x3cc7c9fe	0.02438831
123	0xbe2949dc	-0.16532081
124	0xbc8941ec	-0.016755067
125	0xbe6a33c2	-0.22871307
126	0xbc256acd	-0.010096264
127	0xbcf0c15f	-0.029389082

bn0.weight f4 [24]
0	0x3e6ec4ca	0.23317257
1	0x3e9fe2f1	0.3122783
2	0xbcbe1e83	-0.023207908
3	0x3b3cd8a4	0.0028815651
4	0x3f852fa9	1.040517
5	0x3f2918f8	0.66053724
6	0x3d7b823f	0.06140351
7	0x3e25d848	0.16195786
8	0x3e38a843	0.18032937
9	0xbb740e47	-0.0037239955
10	0x3e27f640	0.1640253
11	0xba73d257	-0.00093010574
12	0x3f1ad17d	0.60475904
13	0x3e78f9ab	0.24313991
14	0x3bc23768	0.005927015
15	0x3e1e8d30	0.15483546
16	0x3ec79f8d	0.38988915
17	0x3e480f23	0.19537024
18	0x3e0ab78a	0.13546577
19	0x3e155106	0.14581689
20	0x3f3def93	0.74193686
21	0x3ede8a54	0.4346491
22	0x3d93b87f	0.07212924
23	0x3e352703	0.17690663

bn0.bias f4 [24]
0	0x3c8048ec	0.015659772
1	0x3de6bef8	0.11266893
2	0xbb5cefd6	-0.003371229
3	0xbb72b002	-0.0037031178
4	0x3e06303f	0.13104342
5	0x3e7d6cc9	0.2474853
6	0x3c8319d9	0.016003536
7	0x3c444e7b	0.011981602
8	0xbd18a47e	-0.037266247
9	0xb95f749f	-0.00021310382
10	0x3cefad16	0.029257338
11	0xbae8b4ea	-0.0017754112
12	0x3de5151b	0.11185666
13	0x3da88010	0.08227551
14	0x3aa77ee0	0.00127789
15	0xbc8bea5e	-0.017079528
16	0xbdb5877d	-0.08863733
17	0x3e1e3c18	0.15452611
18	0x3c1e367b	0.009656544
19	0xba77f1bc	-0.00094583235
20	0xbc930a60	-0.017949283
21	0x3d36d0eb	0.044632833
22	0x3cced321	0.025247158
23	0x3a95704d	0.0011401266

bn0.running_mean f4 [24]
0	0xc0c8f1c9	-6.279515
1	0xbf6aa2b7	-0.91654533
2	0x403e2c95	2.971471
3	0xbdc6d479	-0.09708495
4	0x00000000	0.0
5	0x40331f8b	2.7988002
6	0x403e2c95	2.971471
7	0xbdc6d479	-0.09708495
8	0xc0cdcb59	-6.4310727
9	0xbf75fcb1	-0.960887
10	0x4045e226	3.091928
11	0xbddd5eac	-0.10809073
12	0x00000000	0.0
13	0x40300225	2.750131
14	0x4045e226	3.091928
15	0xbddd5eac	-0.10809073
16	0xc0d32bad	-6.5990815
17	0xbf815429	-1.0103809
18	0x4050ba07	3.2613542
19	0xbe1a9990	-0.15097642
20	0x00000000	0.0
21	0x402c6b14	2.6940355
22	0x4050ba07	3.2613542
23	0xbe1a9990	-0.15097642

bn0.running_var f4 [24]
0	0x41568d2f	13.409469
1	0x3f8c77de	1.097408
2	0x435c6236	220.38364
3	0x40f7e6ff	7.746948
4	0x4209d3c2	34.456795
5	0x40806f11	4.013558
6	0x435c6236	220.38364
7	0x40f7e6ff	7.746948
8	0x4148dc51	12.553788
9	0x3f8c4b48	1.0960474
10	0x436866eb	232.40202
11	0x40ffbcb2	7.991784
12	0x4210d744	36.21022
13	0x40879a23	4.2375655
14	0x436866eb	232.40202
15	0x40ffbcb2	7.991784
16	0x413880dd	11.531461
17	0x3f8adb50	1.0848179
18	0x4362f25d	226.94673
19	0x410484ab	8.28239
20	0x4218f84b	38.242474
21	0x409453e4	4.6352406
22	0x4362f25d	226.94673
23	0x410484ab	8.28239

bn1.weight f4 [128]
0	0x3f3ba30e	0.73295677
1	0x3f7c3d08	0.98530626
2	0x3e714910	0.23563027
3	0x3dea4b88	0.11440188
4	0x3e45e8fc	0.19327158
5	0x3f621e30	0.8832731
6	0x3dab6468	0.0836876
7	0x3f5acd56	0.8546957
8	0x3ee716bc	0.45134532
9	0x3f4d1831	0.8011504
10	0x3f4cd9e7	0.8001999
11	0x3f5c62e3	0.8608839
12	0x3f034a8b	0.5128562
13	0x3f5b2100	0.8559723
14	0x3ed89dc2	0.4230786
15	0x3f706af6	0.9391321
16	0x3f782159	0.96925884
17	0x3f551a2b	0.83243054
18	0x3eb6adf0	0.3567958
19	0x3f3ae16c	0.73000216
20	0x3f1d3193	0.6140377
21	0x3f473061	0.77808195
22	0x3e9dd016	0.3082282
23	0x3eb07746	0.34465998
24	0x3f053091	0.5202723
25	0x3efda38a	0.49538833
26	0x3e58c71c	0.21169704
27	0x3eaf71fe	0.34266657
28	0x3e836ad2	0.25667435
29	0x3f257fe9	0.646483
30	0x3f5e77df	0.8690166
31	0x3e5c5134	0.21515352
32	0x3f5345b1	0.82528216
33	0x3f6655a5	0.89974433
34	0x3f48743f	0.7830238
35	0x3f0e6ffb	0.5563962
36	0x3f2b4138	0.6689639
37	0x3da93d00	0.08263588
38	0x3ed35554	0.41276038
39	0x3f300e52	0.6877185
40	0x3f628574	0.88484883
41	0x3f251b66	0.6449493
42	0x3f26076d	0.6485508
43	0x3e253a58	0.16135538
44	0x3f449506	0.7678989
45	0x3f578c91	0.8419886
46	0x3f1fe5c8	0.62459993
47	0x3ec4939c	0.38393867
48	0x3f37ddc2	0.7182275
49	0x3ee75982	0.45185477
50	0x3eec1e82	0.46117026
51	0x3f0cb8ba	0.5496937
52	0x3e87d32e	0.26528305
53	0x3ec62bd0	0.387053
54	0x3f0187e9	0.5059801
55	0x3f3755a5	0.7161506
56	0x3e202814	0.15640289
57	0x3f3e364f	0.7430162
58	0x3f31a4a4	0.69391847
59	0x3f5eb9b4	0.8700211
60	0x3f58d524	0.84700227
61	0x3f0dd0ec	0.55396914
62	0x3eee3f94	0.4653288
63	0x3f663631	0.8992644
64	0x3eac38cc	0.33637083
65	0x3f1232f7	0.57109016
66	0x3f7c746a	0.98615134
67	0x3e67bd64	0.2263084
68	0x3e892780	0.2678795
69	0x3f1a3166	0.60231626
70	0x3f50e280	0.8159561
71	0x3d661810	0.05617529
72	0x3ebb0cee	0.36533302
73	0x3f130df6	0.5744318
74	0x3f2d8ea6	0.6779579
75	0x3f7350e4	0.95045304
76	0x3ef52a7c	0.47883976
77	0x3f103304	0.56327844
78	0x3e038d54	0.12846881
79	0x3da9e410	0.082954526
80	0x3cff7b80	0.03118682
81	0x3f37c958	0.717916
82	0x3f3356c0	0.70054245
83	0x3f09c708	0.5381932
84	0x3ef5c28e	0.47999996
85	0x3f7356db	0.95054406
86	0x3e3820a4	0.17981201
87	0x3f742a05	0.95376617
88	0x3f08ebe2	0.5348493
89	0x3eb1ce98	0.3472793
90	0x3e5da1f4	0.21643811
91	0x3f41eac3	0.7574884
92	0x3f5f3b42	0.87199795
93	0x3f13ed0c	0.5778358
94	0x3d96b410	0.07358563
95	0x3eb0659e	0.34452528
96	0x3eef937c	0.4679221
97	0x3e6a59ec	0.22885865
98	0x3e9cbdfc	0.30613697
99	0x3e3b7484	0.18306166
100	0x3f27004d	0.65234834
101	0x3f1f94a0	0.6233616
102	0x3e80506c	0.25061357
103	0x3ef320e6	0.47486037
104	0x3f6ff2c1	0.9372979
105	0x3ec5a9c4	0.38606083
106	0x3efea1b8	0.49732757
107	0x3f12456e	0.5713719
108	0x3f769ba7	0.96331257
109	0x3f3c2c1c	0.73504806
110	0x3f145054	0.5793507
111	0x3f715e24	0.9428427
112	0x3ed0903c	0.40735042
113	0x3f7ba706	0.9830173
114	0x3f20cb80	0.62810516
115	0x3e2f119c	0.17096561
116	0x3d8c79f8	0.06859201
117	0x3ed04474	0.40677226
118	0x3db67070	0.089081645
119	0x3ee2bf84	0.4428674
120	0x3f23efda	0.6403786
121	0x3ebb55f8	0.36589026
122	0x3db078f0	0.08616817
123	0x3f5d1980	0.86367035
124	0x3d1bcbd0	0.038036168
125	0x3e6857d0	0.22689748
126	0x3ef0edc0	0.4705639
127	0x3ee47618	0.44621348

bn1.bias f4 [128]
0	0x00000000	0.0
1	0x00000000	0.0
2	0x00000000	0.0
3	0x00000000	0.0
4	0x00000000	0.0
5	0x00000000	0.0
6	0x00000000	0.0
7	0x00000000	0.0
8	0x00000000	0.0
9	0x00000000	0.0
10	0x00000000	0.0
11	0x00000000	0.0
12	0x00000000	0.0
13	0x00000000	0.0
14	0x00000000	0.0
15	0x00000000	0.0
16	0x00000000	0.0
17	0x00000000	0.0
18	0x00000000	0.0
19	0x00000000	0.0
20	0x00000000	0.0
21	0x00000000	0.0
22	0x00000000	0.0
23	0x00000000	0.0
24	0x00000000	0.0
25	0x00000000	0.0
26	0x00000000	0.0
27	0x00000000	0.0
28	0x00000000	0.0
29	0x00000000	0.0
30	0x00000000	0.0
31	0x00000000	0.0
32	0x00000000	0.0
33	0x00000000	0.0
34	0x00000000	0.0
35	0x00000000	0.0
36	0x00000000	0.0
37	0x00000000	0.0
38	0x00000000	0.0
39	0x00000000	0.0
40	0x00000000	0.0
41	0x00000000	0.0
42	0x00000000	0.0
43	0x00000000	0.0
44	0x00000000	0.0
45	0x00000000	0.0
46	0x00000000	0.0
47	0x00000000	0.0
48	0x00000000	0.0
49	0x00000000	0.0
50	0x00000000	0.0
51	0x00000000	0.0
52	0x00000000	0.0
53	0x00000000	0.0
54	0x00000000	0.0
55	0x00000000	0.0
56	0x00000000	0.0
57	0x00000000	0.0
58	0x00000000	0.0
59	0x00000000	0.0
60	0x00000000	0.0
61	0x00000000	0.0
62	0x00000000	0.0
63	0x00000000	0.0
64	0x00000000	0.0
65	0x00000000	0.0
66	0x00000000	0.0
67	0x00000000	0.0
68	0x00000000	0.0
69	0x00000000	0.0
70	0x00000000	0.0
71	0x00000000	0.0
72	0x00000000	0.0
73	0x00000000	0.0
74	0x00000000	0.0
75	0x00000000	0.0
76	0x00000000	0.0
77	0x00000000	0.0
78	0x00000000	0.0
79	0x00000000	0.0
80	0x00000000	0.0
81	0x00000000	0.0
82	0x00000000	0.0
83	0x00000000	0.0
84	0x00000000	0.0
85	0x00000000	0.0
86	0x00000000	0.0
87	0x00000000	0.0
88	0x00000000	0.0
89	0x00000000	0.0
90	0x00000000	0.0
91	0x00000000	0.0
92	0x00000000	0.0
93	0x00000000	0.0
94	0x00000000	0.0
95	0x00000000	0.0
96	0x00000000	0.0
97	0x00000000	0.0
98	0x00000000	0.0
99	0x00000000	0.0
100	0x00000000	0.0
101	0x00000000	0.0
102	0x00000000	0.0
103	0x00000000	0.0
104	0x00000000	0.0
105	0x00000000	0.0
106	0x00000000	0.0
107	0x00000000	0.0
108	0x00000000	0.0
109	0x00000000	0.0
110	0x00000000	0.0
111	0x00000000	0.0
112	0x00000000	0.0
113	0x00000000	0.0
114	0x00000000	0.0
115	0x00000000	0.0
116	0x00000000	0.0
117	0x00000000	0.0
118	0x00000000	0.0
119	0x00000000	0.0
120	0x00000000	0.0
121	0x00000000	0.0
122	0x00000000	0.0
123	0x00000000	0.0
124	0x00000000	0.0
125	0x00000000	0.0
126	0x00000000	0.0
127	0x00000000	0.0

bn1.running_mean f4 [128]
0	0x00000000	0.0
1	0x00000000	0.0
2	0x00000000	0.0
3	0x00000000	0.0
4	0x00000000	0.0
5	0x00000000	0.0
6	0x00000000	0.0
7	0x00000000	0.0
8	0x00000000	0.0
9	0x00000000	0.0
10	0x00000000	0.0
11	0x00000000	0.0
12	0x00000000	0.0
13	0x00000000	0.0
14	0x00000000	0.0
15	0x00000000	0.0
16	0x00000000	0.0
17	0x00000000	0.0
18	0x00000000	0.0
19	0x00000000	0.0
20	0x00000000	0.0
21	0x00000000	0.0
22	0x00000000	0.0
23	0x00000000	0.0
24	0x00000000	0.0
25	0x00000000	0.0
26	0x00000000	0.0
27	0x00000000	0.0
28	0x00000000	0.0
29	0x00000000	0.0
30	0x00000000	0.0
31	0x00000000	0.0
32	0x00000000	0.0
33	0x00000000	0.0
34	0x00000000	0.0
35	0x00000000	0.0
36	0x00000000	0.0
37	0x00000000	0.0
38	0x00000000	0.0
39	0x00000000	0.0
40	0x00000000	0.0
41	0x00000000	0.0
42	0x00000000	0.0
43	0x00000000	0.0
44	0x00000000	0.0
45	0x00000000	0.0
46	0x00000000	0.0
47	0x00000000	0.0
48	0x00000000	0.0
49	0x00000000	0.0
50	0x00000000	0.0
51	0x00000000	0.0
52	0x00000000	0.0
53	0x00000000	0.0
54	0x00000000	0.0
55	0x00000000	0.0
56	0x00000000	0.0
57	0x00000000	0.0
58	0x00000000	0.0
59	0x00000000	0.0
60	0x00000000	0.0
61	0x00000000	0.0
62	0x00000000	0.0
63	0x00000000	0.0
64	0x00000000	0.0
65	0x00000000	0.0
66	0x00000000	0.0
67	0x00000000	0.0
68	0x00000000	0.0
69	0x00000000	0.0
70	0x00000000	0.0
71	0x00000000	0.0
72	0x00000000	0.0
73	0x00000000	0.0
74	0x00000000	0.0
75	0x00000000	0.0
76	0x00000000	0.0
77	0x00000000	0.0
78	0x00000000	0.0
79	0x00000000	0.0
80	0x00000000	0.0
81	0x00000000	0.0
82	0x00000000	0.0
83	0x00000000	0.0
84	0x00000000	0.0
85	0x00000000	0.0
86	0x00000000	0.0
87	0x00000000	0.0
88	0x00000000	0.0
89	0x00000000	0.0
90	0x00000000	0.0
91	0x00000000	0.0
92	0x00000000	0.0
93	0x00000000	0.0
94	0x00000000	0.0
95	0x00000000	0.0
96	0x00000000	0.0
97	0x00000000	0.0
98	0x00000000	0.0
99	0x00000000	0.0
100	0x00000000	0.0
101	0x00000000	0.0
102	0x00000000	0.0
103	0x00000000	0.0
104	0x00000000	0.0
105	0x00000000	0.0
106	0x00000000	0.0
107	0x00000000	0.0
108	0x00000000	0.0
109	0x00000000	0.0
110	0x00000000	0.0
111	0x00000000	0.0
112	0x00000000	0.0
113	0x00000000	0.0
114	0x00000000	0.0
115	0x00000000	0.0
116	0x00000000	0.0
117	0x00000000	0.0
118	0x00000000	0.0
119	0x00000000	0.0
120	0x00000000	0.0
121	0x00000000	0.0
122	0x00000000	0.0
123	0x00000000	0.0
124	0x00000000	0.0
125	0x00000000	0.0
126	0x00000000	0.0
127	0x00000000	0.0

bn1.running_var f4 [128]
0	0x3f800000	1.0
1	0x3f800000	1.0
2	0x3f800000	1.0
3	0x3f800000	1.0
4	0x3f800000	1.0
5	0x3f800000	1.0
6	0x3f800000	1.0
7	0x3f800000	1.0
8	0x3f800000	1.0
9	0x3f800000	1.0
10	0x3f800000	1.0
11	0x3f800000	1.0
12	0x3f800000	1.0
13	0x3f800000	1.0
14	0x3f800000	1.0
15	0x3f800000	1.0
16	0x3f800000	1.0
17	0x3f800000	1.0
18	0x3f800000	1.0
19	0x3f800000	1.0
20	0x3f800000	1.0
21	0x3f800000	1.0
22	0x3f800000	1.0
23	0x3f800000	1.0
24	0x3f800000	1.0
25	0x3f800000	1.0
26	0x3f800000	1.0
27	0x3f800000	1.0
28	0x3f800000	1.0
29	0x3f800000	1.0
30	0x3f800000	1.0
31	0x3f800000	1.0
32	0x3f800000	1.0
33	0x3f800000	1.0
34	0x3f800000	1.0
35	0x3f800000	1.0
36	0x3f800000	1.0
37	0x3f800000	1.0
38	0x3f800000	1.0
39	0x3f800000	1.0
40	0x3f800000	1.0
41	0x3f800000	1.0
42	0x3f800000	1.0
43	0x3f800000	1.0
44	0x3f800000	1.0
45	0x3f800000	1.0
46	0x3f800000	1.0
47	0x3f800000	1.0
48	0x3f800000	1.0
49	0x3f800000	1.0
50	0x3f800000	1.0
51	0x3f800000	1.0
52	0x3f800000	1.0
53	0x3f800000	1.0
54	0x3f800000	1.0
55	0x3f800000	1.0
56	0x3f800000	1.0
57	0x3f800000	1.0
58	0x3f800000	1.0
59	0x3f800000	1.0
60	0x3f800000	1.0
61	0x3f800000	1.0
62	0x3f800000	1.0
63	0x3f800000	1.0
64	0x3f800000	1.0
65	0x3f800000	1.0
66	0x3f800000	1.0
67	0x3f800000	1.0
68	0x3f800000	1.0
69	0x3f800000	1.0
70	0x3f800000	1.0
71	0x3f800000	1.0
72	0x3f800000	1.0
73	0x3f800000	1.0
74	0x3f800000	1.0
75	0x3f800000	1.0
76	0x3f800000	1.0
77	0x3f800000	1.0
78	0x3f800000	1.0
79	0x3f800000	1.0
80	0x3f800000	1.0
81	0x3f800000	1.0
82	0x3f800000	1.0
83	0x3f800000	1.0
84	0x3f800000	1.0
85	0x3f800000	1.0
86	0x3f800000	1.0
87	0x3f800000	1.0
88	0x3f800000	1.0
89	0x3f800000	1.0
90	0x3f800000	1.0
91	0x3f800000	1.0
92	0x3f800000	1.0
93	0x3f800000	1.0
94	0x3f800000	1.0
95	0x3f800000	1.0
96	0x3f800000	1.0
97	0x3f800000	1.0
98	0x3f800000	1.0
99	0x3f800000	1.0
100	0x3f800000	1.0
101	0x3f800000	1.0
102	0x3f800000	1.0
103	0x3f800000	1.0
104	0x3f800000	1.0
105	0x3f800000	1.0
106	0x3f800000	1.0
107	0x3f800000	1.0
108	0x3f800000	1.0
109	0x3f800000	1.0
110	0x3f800000	1.0
111	0x3f800000	1.0
112	0x3f800000	1.0
113	0x3f800000	1.0
114	0x3f800000	1.0
115	0x3f800000	1.0
116	0x3f800000	1.0
117	0x3f800000	1.0
118	0x3f800000	1.0
119	0x3f800000	1.0
120	0x3f800000	1.0
121	0x3f800000	1.0
122	0x3f800000	1.0
123	0x3f800000	1.0
124	0x3f800000	1.0
125	0x3f800000	1.0
126	0x3f800000	1.0
127	0x3f800000	1.0

bn2.weight f4 [128]
0	0x3e6de7a4	0.23232895
1	0x3f054bb4	0.5206864
2	0x3f2554ee	0.6458272
3	0x3edf88b2	0.43658978
4	0x3e6f1cf0	0.23350883
5	0x3f1ebc9d	0.6200655
6	0x3ebcb27c	0.36854923
7	0x3dc0e480	0.09418583
8	0x3f1a73b9	0.6033283
9	0x3f4f373b	0.8094365
10	0x3f049b2d	0.5179928
11	0x3f6ed665	0.9329589
12	0x3f6415c8	0.89095736
13	0x3d387e00	0.045042038
14	0x3d9d1838	0.07670635
15	0x3e55d1e4	0.20880848
16	0x3eb6a74a	0.35674506
17	0x3f30d8dd	0.6908091
18	0x3ed09274	0.40736735
19	0x3f3f227d	0.74662
20	0x3f22038b	0.63286656
21	0x3df0b810	0.11753857
22	0x3ea101b2	0.31446606
23	0x3e84f720	0.2596979
24	0x3ee131f0	0.43983412
25	0x3f77351f	0.9656543
26	0x3f53b856	0.8270315
27	0x3e0e7dbc	0.13915151
28	0x3f198d66	0.5998138
29	0x3f06c194	0.52639127
30	0x3d1aab40	0.037760973
31	0x3dd70cf8	0.105005205
32	0x3f082fa9	0.53197724
33	0x3f1164b0	0.5679426
34	0x3f0541a9	0.52053314
35	0x3eca3bc0	0.3949871
36	0x3e76a604	0.24086767
37	0x3e113768	0.14181292
38	0x3edd0492	0.4316755
39	0x3f7e9d4f	0.99458784
40	0x3d62d600	0.055379868
41	0x3f5068b1	0.81409746
42	0x3f73c2bf	0.95219034
43	0x3f5e7df0	0.86910915
44	0x3d95e2a0	0.07318616
45	0x3f6ffe8e	0.93747795
46	0x3e9d307c	0.30701053
47	0x3f7a58c2	0.97791684
48	0x3e6bfca8	0.230456
49	0x3f7488bf	0.9552116
50	0x3f09cc31	0.53827196
51	0x3f500315	0.812547
52	0x3f4be1de	0.7964152
53	0x3dacf880	0.08445835
54	0x3ddf79c8	0.109119
55	0x3f0bf6f3	0.5467369
56	0x3f226ea9	0.63450104
57	0x3f0e8a40	0.556797
58	0x3e69bed4	0.22826701
59	0x3e8a981a	0.2706917
60	0x3dc62438	0.09674877
61	0x3f6aebbb	0.91765946
62	0x3ed7c172	0.42139775
63	0x3f140280	0.57816315
64	0x3e6c29a0	0.23062754
65	0x3ea9b8ba	0.33148748
66	0x3eeabff0	0.45849562
67	0x3f619c9f	0.8812961
68	0x3f4a05b1	0.78914934
69	0x3f03f1c1	0.5154076
70	0x3de184d8	0.11011666
71	0x3f3009f5	0.68765193
72	0x3eebd0f4	0.46057856
73	0x3f2bfb17	0.6718001
74	0x3f41356f	0.7547216
75	0x3f25de6f	0.6479253
76	0x3e2143ac	0.15748471
77	0x3f0da970	0.55336666
78	0x3f05263a	0.52011454
79	0x3f368d69	0.71309525
80	0x3f1df84b	0.6170699
81	0x3e96cf6c	0.29455125
82	0x3ea95af0	0.33077192
83	0x3f63cce2	0.889845
84	0x3ef48b58	0.4776256
85	0x3f61a11d	0.88136464
86	0x3f333c83	0.7001421
87	0x3d929d88	0.07158953
88	0x3f5ee550	0.87068653
89	0x3f1fb769	0.62389237
90	0x3f720227	0.94534534
91	0x3e320848	0.17385972
92	0x3f06d840	0.5267372
93	0x3f7d094d	0.98842317
94	0x3f04650c	0.51716685
95	0x3f67f946	0.90614736
96	0x3f2db329	0.678515
97	0x3dc12830	0.09431493
98	0x3dc79160	0.09744525
99	0x3ecd0028	0.40039182
100	0x3e8dc1b2	0.2768684
101	0x3f2a933f	0.6663093
102	0x3f3da68b	0.7408225
103	0x3f342a34	0.70376897
104	0x3e962d84	0.293316
105	0x3ef1dd5e	0.47239202
106	0x3e6f2998	0.2335571
107	0x3cc36260	0.02385062
108	0x3f224963	0.6339323
109	0x3f20e9a8	0.6285653
110	0x3eb0c6ac	0.34526575
111	0x3f1f28ff	0.6217193
112	0x3cfaa600	0.030596733
113	0x3d9c3dd8	0.07628983
114	0x3d345090	0.044022143
115	0x388d6000	6.741285e-05
116	0x3e91bb00	0.28462982
117	0x3e151834	0.14560014
118	0x3f566223	0.83743495
119	0x3f4bcf0f	0.7961282
120	0x3f036b9e	0.51336086
121	0x3da54ba0	0.08071065
122	0x3f341e11	0.7035838
123	0x3f2dcb13	0.6788799
124	0x3ef92fb8	0.4866922
125	0x3f7771c5	0.96657974
126	0x3efdccca	0.49570304
127	0x3f35f8ac	0.7108257

bn2.bias f4 [128]
0	0x00000000	0.0
1	0x00000000	0.0
2	0x00000000	0.0
3	0x00000000	0.0
4	0x00000000	0.0
5	0x00000000	0.0
6	0x00000000	0.0
7	0x00000000	0.0
8	0x00000000	0.0
9	0x00000000	0.0
10	0x00000000	0.0
11	0x00000000	0.0
12	0x00000000	0.0
13	0x00000000	0.0
14	0x00000000	0.0
15	0x00000000	0.0
16	0x00000000	0.0
17	0x00000000	0.0
18	0x00000000	0.0
19	0x00000000	0.0
20	0x00000000	0.0
21	0x00000000	0.0
22	0x00000000	0.0
23	0x00000000	0.0
24	0x00000000	0.0
25	0x00000000	0.0
26	0x00000000	0.0
27	0x00000000	0.0
28	0x00000000	0.0
29	0x00000000	0.0
30	0x00000000	0.0
31	0x00000000	0.0
32	0x00000000	0.0
33	0x00000000	0.0
34	0x00000000	0.0
35	0x00000000	0.0
36	0x00000000	0.0
37	0x00000000	0.0
38	0x00000000	0.0
39	0x00000000	0.0
40	0x00000000	0.0
41	0x00000000	0.0
42	0x00000000	0.0
43	0x00000000	0.0
44	0x00000000	0.0
45	0x00000000	0.0
46	0x00000000	0.0
47	0x00000000	0.0
48	0x00000000	0.0
49	0x00000000	0.0
50	0x00000000	0.0
51	0x00000000	0.0
52	0x00000000	0.0
53	0x00000000	0.0
54	0x00000000	0.0
55	0x00000000	0.0
56	0x00000000	0.0
57	0x00000000	0.0
58	0x00000000	0.0
59	0x00000000	0.0
60	0x00000000	0.0
61	0x00000000	0.0
62	0x00000000	0.0
63	0x00000000	0.0
64	0x00000000	0.0
65	0x00000000	0.0
66	0x00000000	0.0
67	0x00000000	0.0
68	0x00000000	0.0
69	0x00000000	0.0
70	0x00000000	0.0
71	0x00000000	0.0
72	0x00000000	0.0
73	0x00000000	0.0
74	0x00000000	0.0
75	0x00000000	0.0
76	0x00000000	0.0
77	0x00000000	0.0
78	0x00000000	0.0
79	0x00000000	0.0
80	0x00000000	0.0
81	0x00000000	0.0
82	0x00000000	0.0
83	0x00000000	0.0
84	0x00000000	0.0
85	0x00000000	0.0
86	0x00000000	0.0
87	0x00000000	0.0
88	0x00000000	0.0
89	0x00000000	0.0
90	0x00000000	0.0
91	0x00000000	0.0
92	0x00000000	0.0
93	0x00000000	0.0
94	0x00000000	0.0
95	0x00000000	0.0
96	0x00000000	0.0
97	0x00000000	0.0
98	0x00000000	0.0
99	0x00000000	0.0
100	0x00000000	0.0
101	0x00000000	0.0
102	0x00000000	0.0
103	0x00000000	0.0
104	0x00000000	0.0
105	0x00000000	0.0
106	0x00000000	0.0
107	0x00000000	0.0
108	0x00000000	0.0
109	0x00000000	0.0
110	0x00000000	0.0
111	0x00000000	0.0
112	0x00000000	0.0
113	0x00000000	0.0
114	0x00000000	0.0
115	0x00000000	0.0
116	0x00000000	0.0
117	0x00000000	0.0
118	0x00000000	0.0
119	0x00000000	0.0
120	0x00000000	0.0
121	0x00000000	0.0
122	0x00000000	0.0
123	0x00000000	0.0
124	0x00000000	0.0
125	0x00000000	0.0
126	0x00000000	0.0
127	0x00000000	0.0

bn2.running_mean f4 [128]
0	0x00000000	0.0
1	0x00000000	0.0
2	0x00000000	0.0
3	0x00000000	0.0
4	0x00000000	0.0
5	0x00000000	0.0
6	0x00000000	0.0
7	0x00000000	0.0
8	0x00000000	0.0
9	0x00000000	0.0
10	0x00000000	0.0
11	0x00000000	0.0
12	0x00000000	0.0
13	0x00000000	0.0
14	0x00000000	0.0
15	0x00000000	0.0
16	0x00000000	0.0
17	0x00000000	0.0
18	0x00000000	0.0
19	0x00000000	0.0
20	0x00000000	0.0
21	0x00000000	0.0
22	0x00000000	0.0
23	0x00000000	0.0
24	0x00000000	0.0
25	0x00000000	0.0
26	0x00000000	0.0
27	0x00000000	0.0
28	0x00000000	0.0
29	0x00000000	0.0
30	0x00000000	0.0
31	0x00000000	0.0
32	0x00000000	0.0
33	0x00000000	0.0
34	0x00000000	0.0
35	0x00000000	0.0
36	0x00000000	0.0
37	0x00000000	0.0
38	0x00000000	0.0
39	0x00000000	0.0
40	0x00000000	0.0
41	0x00000000	0.0
42	0x00000000	0.0
43	0x00000000	0.0
44	0x00000000	0.0
45	0x00000000	0.0
46	0x00000000	0.0
47	0x00000000	0.0
48	0x00000000	0.0
49	0x00000000	0.0
50	0x00000000	0.0
51	0x00000000	0.0
52	0x00000000	0.0
53	0x00000000	0.0
54	0x00000000	0.0
55	0x00000000	0.0
56	0x00000000	0.0
57	0x00000000	0.0
58	0x00000000	0.0
59	0x00000000	0.0
60	0x00000000	0.0
61	0x00000000	0.0
62	0x00000000	0.0
63	0x00000000	0.0
64	0x00000000	0.0
65	0x00000000	0.0
66	0x00000000	0.0
67	0x00000000	0.0
68	0x00000000	0.0
69	0x00000000	0.0
70	0x00000000	0.0
71	0x00000000	0.0
72	0x00000000	0.0
73	0x00000000	0.0
74	0x00000000	0.0
75	0x00000000	0.0
76	0x00000000	0.0
77	0x00000000	0.0
78	0x00000000	0.0
79	0x00000000	0.0
80	0x00000000	0.0
81	0x00000000	0.0
82	0x00000000	0.0
83	0x00000000	0.0
84	0x00000000	0.0
85	0x00000000	0.0
86	0x00000000	0.0
87	0x00000000	0.0
88	0x00000000	0.0
89	0x00000000	0.0
90	0x00000000	0.0
91	0x00000000	0.0
92	0x00000000	0.0
93	0x00000000	0.0
94	0x00000000	0.0
95	0x00000000	0.0
96	0x00000000	0.0
97	0x00000000	0.0
98	0x00000000	0.0
99	0x00000000	0.0
100	0x00000000	0.0
101	0x00000000	0.0
102	0x00000000	0.0
103	0x00000000	0.0
104	0x00000000	0.0
105	0x00000000	0.0
106	0x00000000	0.0
107	0x00000000	0.0
108	0x00000000	0.0
109	0x00000000	0.0
110	0x00000000	0.0
111	0x00000000	0.0
112	0x00000000	0.0
113	0x00000000	0.0
114	0x00000000	0.0
115	0x00000000	0.0
116	0x00000000	0.0
117	0x00000000	0.0
118	0x00000000	0.0
119	0x00000000	0.0
120	0x00000000	0.0
121	0x00000000	0.0
122	0x00000000	0.0
123	0x00000000	0.0
124	0x00000000	0.0
125	0x00000000	0.0
126	0x00000000	0.0
127	0x00000000	0.0

bn2.running_var f4 [128]
0	0x3f800000	1.0
1	0x3f800000	1.0
2	0x3f800000	1.0
3	0x3f800000	1.0
4	0x3f800000	1.0
5	0x3f800000	1.0
6	0x3f800000	1.0
7	0x3f800000	1.0
8	0x3f800000	1.0
9	0x3f800000	1.0
10	0x3f800000	1.0
11	0x3f800000	1.0
12	0x3f800000	1.0
13	0x3f800000	1.0
14	0x3f800000	1.0
15	0x3f800000	1.0
16	0x3f800000	1.0
17	0x3f800000	1.0
18	0x3f800000	1.0
19	0x3f800000	1.0
20	0x3f800000	1.0
21	0x3f800000	1.0
22	0x3f800000	1.0
23	0x3f800000	1.0
24	0x3f800000	1.0
25	0x3f800000	1.0
26	0x3f800000	1.0
27	0x3f800000	1.0
28	0x3f800000	1.0
29	0x3f800000	1.0
30	0x3f800000	1.0
31	0x3f800000	1.0
32	0x3f800000	1.0
33	0x3f800000	1.0
34	0x3f800000	1.0
35	0x3f800000	1.0
36	0x3f800000	1.0
37	0x3f800000	1.0
38	0x3f800000	1.0
39	0x3f800000	1.0
40	0x3f800000	1.0
41	0x3f800000	1.0
42	0x3f800000	1.0
43	0x3f800000	1.0
44	0x3f800000	1.0
45	0x3f800000	1.0
46	0x3f800000	1.0
47	0x3f800000	1.0
48	0x3f800000	1.0
49	0x3f800000	1.0
50	0x3f800000	1.0
51	0x3f800000	1.0
52	0x3f800000	1.0
53	0x3f800000	1.0
54	0x3f800000	1.0
55	0x3f800000	1.0
56	0x3f800000	1.0
57	0x3f800000	1.0
58	0x3f800000	1.0
59	0x3f800000	1.0
60	0x3f800000	1.0
61	0x3f800000	1.0
62	0x3f800000	1.0
63	0x3f800000	1.0
64	0x3f800000	1.0
65	0x3f800000	1.0
66	0x3f800000	1.0
67	0x3f800000	1.0
68	0x3f800000	1.0
69	0x3f800000	1.0
70	0x3f800000	1.0
71	0x3f800000	1.0
72	0x3f800000	1.0
73	0x3f800000	1.0
74	0x3f800000	1.0
75	0x3f800000	1.0
76	0x3f800000	1.0
77	0x3f800000	1.0
78	0x3f800000	1.0
79	0x3f800000	1.0
80	0x3f800000	1.0
81	0x3f800000	1.0
82	0x3f800000	1.0
83	0x3f800000	1.0
84	0x3f800000	1.0
85	0x3f800000	1.0
86	0x3f800000	1.0
87	0x3f800000	1.0
88	0x3f800000	1.0
89	0x3f800000	1.0
90	0x3f800000	1.0
91	0x3f800000	1.0
92	0x3f800000	1.0
93	0x3f800000	1.0
94	0x3f800000	1.0
95	0x3f800000	1.0
96	0x3f800000	1.0
97	0x3f800000	1.0
98	0x3f800000	1.0
99	0x3f800000	1.0
100	0x3f800000	1.0
101	0x3f800000	1.0
102	0x3f800000	1.0
103	0x3f800000	1.0
104	0x3f800000	1.0
105	0x3f800000	1.0
106	0x3f800000	1.0
107	0x3f800000	1.0
108	0x3f800000	1.0
109	0x3f800000	1.0
110	0x3f800000	1.0
111	0x3f800000	1.0
112	0x3f800000	1.0
113	0x3f800000	1.0
114	0x3f800000	1.0
115	0x3f800000	1.0
116	0x3f800000	1.0
117	0x3f800000	1.0
118	0x3f800000	1.0
119	0x3f800000	1.0
120	0x3f800000	1.0
121	0x3f800000	1.0
122	0x3f800000	1.0
123	0x3f800000	1.0
124	0x3f800000	1.0
125	0x3f800000	1.0
126	0x3f800000	1.0
127	0x3f800000	1.0
